Alpha_1e-2/Retraining_1/4-PAM_SNN_MMSE_Equalizer_im_dd.pt (torch, 246267 bytes, 11 tensors)

weight f4 [80, 328]
00000000: 6d51 76bc 11fc 3abc 8f60 143d 989d e1bc
00000010: 113d 163c 241a ce3b 3b17 2ebd 5ab8 363d
00000020: d628 b83c 5262 06bd 6ae1 dcbc 39c7 48bd
00000030: ec6a 09bd 1557 72bc e7cf 733b 0488 66bc
00000040: 299b ba3c db3c e63c 59a5 79bc e5e8 0b3d
00000050: 496f 40bb c8d0 08bd 1008 603c 2564 10bd
00000060: 489c 0bbb b84d cb3b f1be 3a3d 0983 2e3d
00000070: 899c 47bb 880b 3a3d 8f80 213d e0b6 cbbc
00000080: b4bb 333d 18d1 3bbd 1a17 aebc ac64 113d
00000090: 96b9 03bd 3630 0a3d 2018 373d badd 45bb
000000a0: dc4c 0c3d 50ec e9bc de52 0ebd 3dc1 5abc
000000b0: d0c9 b93b 316e 7d3c c2ff 6a3c 6f7b 49bd
000000c0: f475 2cbd 4c2b 92bc 25dd 583d e2b0 de3c
000000d0: 86f7 a0ba 394b 20bd e65e 0ebd 42b3 053c
000000e0: 4278 16bd 50b5 883c cc2c 80bb dbd2 2fbd
000000f0: 8e1f 113d 26a3 ad3c cd69 0a3d 87f1 2dbc
00000100: 0dd8 12bc ce62 ef3c 56fa 3f3b a1bc 48bd
00000110: 9f85 8a3c d6f3 483c b887 163c 7ee1 2bbd
00000120: 2416 3dbc d370 4d3c 97fd c73c c803 a1bc
00000130: a86c 013d f963 2c3c a067 353d 69bb 613d
00000140: 6d45 09bd cf0b c8bc 7cc4 413d 5f96 4f3d
00000150: 5337 96bc 6aac 36bd cd77 e13c 9b74 e2bc
00000160: a5f3 39bd 797b 76bb ab01 f3bb 9946 54bd
00000170: 158b 12bd ba70 cf3c 8f1a fabc 949b 003d
00000180: 224f dabc 1bf1 13bd 5dda 6cbc 875f c83c
00000190: e2ed cb3c 87c6 5fbd 84d4 413d c56e 1ebc
000001a0: 5c4e 45bd 0f65 d9bc 40ca 5f3c 6dec 35bc
000001b0: 6811 20bd 7056 243a 4e50 3cbc 7155 0cbd
000001c0: 3a42 13bd 669f 1d3d 23f0 4c3d a388 333c
000001d0: 44a6 26bc 51ec 92bb ae18 983c a469 13bd
000001e0: 9a85 12bd ef06 2abd aba4 44bd 2155 423c
000001f0: a683 373d 310e 0c3c 21a3 0dbd c154 24bc
00000200: 6efe 22bd 9f03 f23a bb81 e7bb f127 b5bb
00000210: aaec 53bc c922 c2bc 9cfd 393d b959 6abc
00000220: 6147 423b 9621 c43c 9ab8 543c ebcf f03c
00000230: f54b b53c 1e6b 583d 9b56 a1bb 6968 47bb
00000240: ee4c adbc 66f7 38bd 21f0 0f3b 4a94 50bd
00000250: bc7e d0bc ec8a e3bb 2a55 ed3c b901 683b
00000260: 8abc 40bd 92fd fbbc 1d5b 603d 3e62 51bd
00000270: a8b0 c3bc dde8 f03c 75c9 593c ece5 323d
00000280: eb71 373d e4b2 dfbc 3582 5abb a203 5b3d
00000290: d4dd 0fbd 6b15 4a3c 1282 be3c 09d9 d33c
000002a0: ee81 d13c 9f92 0fbd 6615 bf3c 1579 bc3c
000002b0: 2d7c e33b 9594 c03c 37b7 3d3d 22ef 21bd
000002c0: 4439 433d c229 a1bc 2d51 943c fa06 acbc
000002d0: bcba 193d ae02 0bbd 2f59 293d 1cec 943b
000002e0: 9d1b 253d eff7 c4bc d2b0 433c b65a f0bc
000002f0: 7936 5a3d a2e4 50bc 96a5 8dbc 3ef2 b9bc
00000300: b12f 19bd 81af a1ba 6ffa bdbb c588 9a3c
00000310: e08d 7fbc 8624 4abd dbe9 a33c 4918 033d
00000320: 41f3 283c f002 393d b6a6 00bd 7452 383c
00000330: f375 76bb 8978 833c 8bff 5c3d 371b a2bc
00000340: a218 f4bc fa5f 833c a801 4a3d 343f 2e3d
00000350: 3f4f bb3b 8a12 1fbc fbc5 393d 78c2 583d
00000360: 9af3 ba3c 08ad dcbc b406 dabc ce88 4c3d
00000370: 5e0e 4e3d a57c 083c 9604 eeba 3972 683c
00000380: 7835 10bd 67e6 5e3b 65d1 93bc 6ae4 0a3c
00000390: 45a8 48bd c013 16bd 35a4 a2bc 93b4 193d
000003a0: b88a c63c 762b 33bd 663b 8abb bda5 4a3d
000003b0: 5f25 2a3d fed4 dc3c 8092 ad3b 5b83 01bd
000003c0: 02b2 413d e1ed c03c b66b 1ebd 8426 aabc
000003d0: d9ee a6bc 9399 3b3d dba2 9dbc 5c63 24bc
000003e0: fc21 85bc 56b5 f63b 289d 3a3d 44b7 6b3c
000003f0: dee6 3fbd 6318 68bc bfbb 023d 803f 0c38
-0.015034062 -0.011412636 0.036224898 -0.027540967 0.009169833 0.0062897373 -0.042502623 0.044609405
0.02248041 -0.03280861 -0.026962955 -0.04901812 -0.033549234 -0.01479127 0.0037202777 -0.014070515
0.022779064 0.02810519 -0.015237176 0.034157652 -0.0029363206 -0.033402234 0.013673797 -0.035251755
-0.0021302868 0.006204333 0.045592252 0.042605434 -0.0030458292 0.045421153 0.039429244 -0.024867475
0.04388018 -0.045853704 -0.02125125 0.0354964 -0.03215941 0.033737384 0.04470074 -0.0030191974
0.034252986 -0.028555065 -0.034746997 -0.013351736 0.00566981 0.015468166 0.014343204 -0.04918998
-0.042104676 -0.017842911 0.052945275 0.027183954 -0.0012280799 -0.039134238 -0.03475847 0.008160414
-0.03673578 0.016688019 -0.00391159 -0.042925697 0.035430484 0.02119596 0.033792306 -0.010616667
-0.008962643 0.029221918 0.00292935 -0.049008016 0.016909419 0.012265166 0.009187631 -0.041963093
-0.011540923 0.012539106 0.024412913 -0.019655123 0.031597763 0.010521882 0.044288278 0.05511037
-0.033513475 -0.024419693 0.047306523 0.050680514 -0.018336928 -0.04459802 0.027522946 -0.027643492
-0.045398373 -0.0037610217 -0.0074159703 -0.05182514 -0.03577717 0.025322307 -0.030530242 0.03139837
-0.026649062 -0.036118608 -0.014456359 0.024459613 0.024893705 -0.05463269 0.04732181 -0.009669964
-0.048170432 -0.026537446 0.01365906 -0.011103732 -0.0390791 0.00062689837 -0.0114937555 -0.03426117
-0.03595183 0.038482092 0.0500337 0.01095787 -0.010171477 -0.0044837375 0.018566456 -0.03598942
-0.035771944 -0.04151052 -0.048008602 0.011861117 0.044803284 0.008548305 -0.0345794 -0.0100299725
-0.039793424 0.0018464214 -0.0070650256 -0.005528443 -0.012934843 -0.023698227 0.045407876 -0.014303618
0.0029644596 0.023941796 0.012983466 0.029396018 0.022130946 0.05283653 -0.0049236543 -0.0030427224
-0.021154847 -0.045157813 0.0021963196 -0.05092267 -0.025451057 -0.006944051 0.028971273 0.0035401417
-0.047054805 -0.03076056 0.054774392 -0.05111908 -0.023887947 0.029407913 0.01329266 0.0436763
0.044786375 -0.027306981 -0.003334177 0.05347026 -0.03512366 0.012334208 0.023255382 0.025860326
0.02557465 -0.03505194 0.023325633 0.023006955 0.006942293 0.02350835 0.046317305 -0.039534695
0.047662035 -0.019673232 0.018105114 -0.02099942 0.0375316 -0.033938102 0.041344818 0.004544748
0.040309537 -0.024044005 0.011944013 -0.02934013 0.053274605 -0.012749823 -0.017290872 -0.022698518
-0.037398998 -0.001233563 -0.0057976763 0.018864045 -0.0155977905 -0.049351238 0.020008972 0.032005582
0.0103119025 0.045168817 -0.031408988 0.011250127 -0.0037606924 0.016048687 0.053954642 -0.019788368
-0.029796902 0.016036976 0.049317986 0.042540744 0.005716234 -0.00970901 0.045354825 0.052919835
0.022821236 -0.026937976 -0.026614524 0.049935155 0.05030667 0.008330499 -0.0018159326 0.014187389
-0.03520724 0.0034011842 -0.018044183 0.00847731 -0.0489886 -0.03663993 -0.01985369 0.037525725
0.024236068 -0.04374262 -0.0042185066 0.049474467 0.041539546 0.026957031 0.005297005 -0.03161941
0.047288902 0.02355093 -0.03867694 -0.020770319 -0.020377563 0.045800757 -0.019242695 -0.010033455
-0.016251557 0.007528941 0.045560032 0.014386956 -0.04685103 -0.0141659705 0.03191733 3.343774e-05

input_weights f4 [80, 80]
00000000: 467a aa3d 2d5a e3bd ff3d 2b3d 6fe5 5cbe
00000010: 8213 babd c022 05bc bf27 b9bd 6ce3 2d3d
00000020: 0f1d 0fbc 9e12 983e 0a53 03be 9ed4 5ebd
00000030: 7479 6dbd 1ee5 293d 1756 a33d fde4 c63e
00000040: fb05 8b3d 07d4 513d 2c75 d6bd 0d17 64bd
00000050: a20e 033e e23e 413e b8a8 27be c121 533d
00000060: 82db 203e 81be 583e d67b 593e 22d3 653e
00000070: ce1e 863d bedd 1dbe 72d6 f9bb 6111 02be
00000080: bad4 b4bd 7678 ccbe 3b5d 643c 0126 7fbd
00000090: f2fc d1bd 467f aebd cc46 903e ec01 f03c
000000a0: a4f3 683e fbaa 523e a058 64be bcb0 413e
000000b0: 216b 42be d3b7 61bc a6c2 123d e135 4b3e
000000c0: 239c 02be ef59 9b3d b449 613b 16b6 a93e
000000d0: 0301 303d e5a6 b3bd fdcf e93c ccd2 1b3d
000000e0: f670 203d fa13 66bd 9f99 a93d 1dff 543e
000000f0: 32aa 78be 80e8 79be 63d0 a23e 811f 25be
00000100: dcc3 db3c a80e 9abe 8d80 6bbe 607b b4bc
00000110: d097 7fbd b247 10be 1033 8e3c 0b07 7a3e
00000120: 5e00 efbc 631d ffbd 4bf8 683d 4ec1 3a3e
00000130: efca 23be 4ea1 943d 1639 bf3d 2a9b 743d
00000140: 1175 76be d8b3 d3be 58c2 c7bb e012 043f
00000150: 537b ef3d 4082 483e 3e7d dbbd ec36 fd3d
00000160: f270 f6bd 5297 7dbe 6161 a7bd 8dca c33e
00000170: 58bf 3fbe 3ce8 9b3e 51d7 47bd 9d6a 6e3c
00000180: 43f7 033e cc8b aabd 05e6 08be ea82 cebd
00000190: 6932 06be 85ac 8b3e ed9b 1ebe bf4c 833e
000001a0: da2e 4c3e e278 003d 92f7 34be 1f2a 0ebe
000001b0: ef79 373d 1156 873c 04ee 4e3e 7cea c4bc
000001c0: 089f 5a3e 94e3 8539 f6af d93b c356 513e
000001d0: aeab fdbd 93b7 8e3d 16f5 46bd 2619 253e
000001e0: 3a7e a3bd 6cb3 83be 5685 3ebe bc5d 7f3d
000001f0: 4bc7 963d c1f6 91be 3a60 e83d 9ea9 35bd
00000200: 7d8b debd 5de8 623d 72c9 153d 0938 31bd
00000210: ce64 1d3e 4f63 9a3d d49a 52bc 6192 c5be
00000220: 4445 9bbe 0090 9cbc 4886 273e 8ba6 fcbd
00000230: 5be3 203e 2cf1 2f3e 70a0 bfbc ad0a 51bd
00000240: eb02 64bd 0aa2 013e 97cf e03e 8d8d 8abd
00000250: ab33 c03d 6df4 bcbd aad3 933d 7963 a13e
00000260: 11fa 82be 31fd efbd 8fd3 76bd ac03 10be
00000270: 32d1 b73d 61a6 4ebe 6df4 553e 8dab acbd
00000280: 0ad2 073e 87c3 e33c f6fd 0ebe ef7a 81bd
00000290: dfd1 9abe de76 6b3e 600e 793e 1df2 5f3d
000002a0: 5f9b f3bc 6212 d7bb 7974 32bd 0416 b43b
000002b0: 58bc 20be c06a 5c3e 14c2 053e 0cfb e4ba
000002c0: 30c3 edbe 8573 083c e1c7 44bb 2c98 3b3e
000002d0: 9074 d13d c86e ac3d 55aa 7e3e b960 633d
000002e0: 156b c2bd 496a 6bbd 0110 d53d e14d 0abe
000002f0: 046b 1e3e 67a9 48be de38 33bd 4a0a 08bd
00000300: 44ed 683d 5bb2 0bbe 5d31 c4bd 18e5 8dbe
00000310: 27d8 84bd 0cc3 5c3d 3346 993c bd16 633b
00000320: 037d 44be fee3 553e 8b29 8e3e 0429 16bc
00000330: 3f4e 103c 4223 65bd f764 8dbc f42b 743c
00000340: 00af 27bb 2210 433d 44b9 56be c4eb e63d
00000350: fa7d 923c 3bfa 993e 2a67 253d 20c2 b7bd
00000360: 7c80 70bc b134 0dbd 74f2 8dbe cf2d 413a
00000370: f859 213e 2b6d 18be fbcd 3cbe c488 c3ba
00000380: bb5c fc3d e43e 91bd 099d 4dbe 94d2 b0be
00000390: 7539 803e f6f7 d33d ccac 2bbb 486d 9a3d
000003a0: b783 f5bb 0d66 683e 2b2f 2e3d 5161 943d
000003b0: 677c 1abd 53b2 bbbd ba96 d63d 7952 ebbd
000003c0: 8ea8 b53d 6bab 503d 9a2e 863c 1c99 9b3e
000003d0: 1519 073e b3d7 723c 1f1c 38bb da7f 2a3d
000003e0: 2f88 043e e95b 373c bf87 043e e1a1 63bd
000003f0: d535 06be 8ac9 e8bd 31ba 9d3d 7153 abbe
0.08324103 -0.11101184 0.04180717 -0.21571897 -0.09085752 -0.008125961 -0.09040784 0.042453215
-0.008734955 0.29701704 -0.12824646 -0.054401986 -0.057977155 0.04147827 0.07975405 0.3884658
0.0678825 0.051227596 -0.104715675 -0.055686045 0.1279855 0.18871644 -0.16372955 0.051545862
0.15708736 0.21166421 0.21238646 0.22443822 0.06548844 -0.15416619 -0.007624441 -0.12701942
-0.08829637 -0.39935654 0.0139382435 -0.062292103 -0.102533236 -0.08520369 0.28179014 0.029297791
0.22749192 0.20573036 -0.22299433 0.18915075 -0.18986179 -0.013776737 0.035830162 0.19844772
-0.12754874 0.07585513 0.0034376206 0.33146733 0.042969715 -0.08772067 0.02854156 0.03804283
0.039170228 -0.056171395 0.08281254 0.20800443 -0.24283674 -0.24405098 0.3179961 -0.16125299
0.026826791 -0.30089307 -0.22998257 -0.022031486 -0.06240064 -0.1408985 0.017358333 0.24416749
-0.02917498 -0.12456777 0.056877416 0.18237802 -0.15995382 0.07257329 0.0933706 0.05971829
-0.24068095 -0.41348147 -0.0060961656 0.515913 0.11693444 0.19580936 -0.107172474 0.12363991
-0.12033261 -0.24764755 -0.081728704 0.3824047 -0.18725336 0.30450618 -0.048789326 0.014551786
0.12887292 -0.083274454 -0.13368995 -0.100835636 -0.13105167 0.2728006 -0.15489168 0.2564449
0.19939747 0.031365283 -0.17672566 -0.13883255 0.04479402 0.016520532 0.20207983 -0.024037592
0.21349728 0.00025537296 0.0066432906 0.20443253 -0.12386261 0.06968608 -0.048573576 0.16122875
-0.0798306 -0.25722826 -0.18605551 0.06234525 0.07362231 -0.2850857 0.11346479 -0.044351213
-0.10866449 0.05539738 0.036569066 -0.04326633 0.15370485 0.07538473 -0.012854297 -0.3858824
-0.30326283 -0.019111633 0.16359818 -0.12336453 0.15711729 0.17181844 -0.023391932 -0.05103557
-0.055666845 0.12659469 0.43908378 -0.0676528 0.09384855 -0.09226308 0.07218106 0.31521204
-0.2558141 -0.11718214 -0.06026035 -0.140639 0.08975448 -0.20180656 0.20894022 -0.08431158
0.13263717 0.027803196 -0.13964066 -0.06322276 -0.30238244 0.22994563 0.2432189 0.054674257
-0.029737173 -0.0065634707 -0.04356811 0.0054957885 -0.15696847 0.21525097 0.13062316 -0.0017469837
-0.4643798 0.008328323 -0.0030026364 0.18319768 0.10227311 0.08419567 0.24869664 0.055512164
-0.094930805 -0.05747441 0.10403443 -0.13506271 0.1547051 -0.19595872 -0.043755405 -0.033212937
0.0568669 -0.13642256 -0.09579728 -0.27713847 -0.0648654 0.05389695 0.018710231 0.0034651004
-0.19188313 0.20887753 0.2776607 -0.009165052 0.008807718 -0.055941828 -0.017260058 0.014903057
-0.0025586486 0.047622807 -0.2096911 0.112754375 0.017882336 0.30073723 0.040381588 -0.08972573
-0.014679071 -0.03447408 -0.2772404 0.0007369192 0.15756977 -0.14885394 -0.1843795 -0.0014918079
0.123223744 -0.070920736 -0.20079435 -0.34535658 0.25043836 0.10350029 -0.0026195524 0.07540375
-0.0074925083 0.2269518 0.04252545 0.07245124 -0.037716296 -0.09164872 0.104779676 -0.1149034
0.0887004 0.050944727 0.016379643 0.3039025 0.13193162 0.0148219345 -0.0028092933 0.041625835
0.12942575 0.011191347 0.12942408 -0.0555743 -0.13106473 -0.113665655 0.07701529 -0.33462098

recurrent_weights f4 [80, 80]
00000000: 0000 0000 9c5c 863d c900 203e 14b5 e63c
00000010: aeae efbd 3d8f 883e d975 863c e5eb 87bd
00000020: 7de3 01be 479a 83be 9819 52be 57d0 6e3d
00000030: 790e 2d3e 7ba6 733e 7aa7 233d 18f0 8dbd
00000040: af8b a83e e2d5 ae3d d202 ce3d b6b6 32be
00000050: 30b5 f13c e889 44bd de9e 22bd 8fc8 9d39
00000060: 5417 46bc fe45 a8bd 06b6 e3bd 6020 74bd
00000070: 020a 4c3e 3fe3 843e 6713 b03c d67a 423b
00000080: f051 9abe cb0c 49bc 191a 5a3d fe54 093e
00000090: da44 7dbe 00b3 253e a4d6 613e bb0e b7bd
000000a0: 5972 0c3e b609 333e e395 45be b0c9 3c3e
000000b0: a721 6bbc e052 54be 45b2 e43d 794b 5d3d
000000c0: 4b03 79be e60c 44be 6639 f1bd fe38 cc3e
000000d0: dbba 673e d1b4 9cbe 31bf cfbd 3fad 06bd
000000e0: dde5 173e ab4b 333d a65f 453c ce2c 9e3d
000000f0: 0e03 7bbd 9fa3 8d3d 1e81 c73b 60b6 2a3e
00000100: 26f4 1e3d 5ba1 183c bd9c 8c3d b04c 8d3e
00000110: 95ee 623d 356b 9bbe 0b78 923c 60c9 db3d
00000120: 7969 14bd a94c 853e 3d40 6a3c 1c01 b83d
00000130: 8629 483d b752 953d bf61 803d 8c85 013e
00000140: a116 92bd 0000 0000 d90a 6e3d cc3e 4e3e
00000150: 2b78 a0bd 0e02 6f3d 426c 003e fe5a 56bc
00000160: 1679 963e ead3 61bc 29a1 103d cd14 17bd
00000170: 0e28 80be 1dd4 9c3e 022c 9a3d 7d2e 0dbe
00000180: 9507 4b3e 7e63 e1bd a66f d13d dea7 47be
00000190: 0967 ec3d 5c38 3e3d 5aa0 fcbd c12b 89be
000001a0: 6c1c 1cbe 0e4c 643d 7885 48be 64e8 1cbe
000001b0: a5a5 cabd ac72 24bd a7ce 96bc c03f 75be
000001c0: 5e38 a23e 1176 20bb b5ed 04be 6870 0d3e
000001d0: 610d a1b8 7e4a babe fbbe 8fbd 7302 39bb
000001e0: bb45 7f3e a965 39be 1e46 e23c 2c01 773b
000001f0: d6f9 593d 26ef a53e bcd7 06be 2e50 5fbe
00000200: 1b66 883e a548 a6bc 1b3e 773e 2ef0 a83d
00000210: 2c80 e2bd 06fe 853e eedb d5be 7027 96bc
00000220: 9c66 cabd 89f7 a03b 34b4 b73d eab7 56be
00000230: ec1e 00be a01d 0a3e a5c0 9abe 0d38 173d
00000240: d5cc 50be 16bc 07bc d359 dbbc 39a0 f73d
00000250: e87a 323e d6cf a1bd ac35 dcbc e29e dd3c
00000260: fa83 29be ea55 c43d 5664 62be 143d 153e
00000270: 3c04 153e 10ac 72bd a8ac 1f3d a648 1ebe
00000280: 0c91 89be a02e 5cbe 0000 0000 03a2 833d
00000290: 588e 2ebe fcfe 3f3d a713 22bd 7532 3a3e
000002a0: 289a 513a 4153 71be 3dd3 2f3e 91cb 9ebe
000002b0: 0c1c e03d 961e 14bd 536b 803d c4e6 d63d
000002c0: 79ee 39bb 2dd8 e2bd f8dc 883d 0651 91bd
000002d0: fe0d 8ebb 00bb a03c 15c2 343e 5288 9c3e
000002e0: 853c 8e3d 1860 73be b0c3 e3bd 9cb5 8abe
000002f0: b21b f4bc 30ee 73bd aa20 ad3d 0544 4c3e
00000300: fab3 e93d 81bb 1dbe dd49 f03d 2630 f53d
00000310: 43a9 4f3e 8a96 593e 9815 7e3e a38e 5a3e
00000320: 3de7 3abe c410 03be 66b1 51bc 9ca8 363e
00000330: d160 a9bc 49b7 2b3d 4a7f 1abc b157 ba3d
00000340: c5b7 763e 0557 3c3e 7027 3dbe 25e7 dc3c
00000350: b40a 08be 70e7 313c e7c7 89be 2859 95bd
00000360: 5955 f0bd 3cb1 713e 42ab 32be 02a8 473d
00000370: 33f3 863e 8c48 883e 077e 5fbe 64cf 6b3c
00000380: 53da c5be f882 f53d 22a3 e33b c733 36bd
00000390: 1343 efbd 3854 80be f078 03be 09ef 4e3e
000003a0: b496 18be 6243 3e3e 1849 62bd c809 76bd
000003b0: 81e7 83be fc61 c7bd adfb 8ebd 364c 0f3d
000003c0: cc80 ccbc 7a0b 9abe 0c48 8cbd 0000 0000
000003d0: 4684 df3c a2f1 7dbd 1ac8 dabe da20 483d
000003e0: def0 ce3d ac64 da3d 0a35 7ebe 053f 7dbe
000003f0: a4a8 a8bd 0ba2 1d3e c2af 7abe 2bb4 0abd
0.0 0.065606326 0.156253 0.028162517 -0.117032394 0.26671782 0.016413616 -0.0663679
-0.12684436 -0.25703642 -0.20517576 0.058304157 0.16900052 0.23793976 0.03995464 -0.0693056
0.3291907 0.08536889 0.10059132 -0.17452511 0.029505342 -0.04798308 -0.03970229 0.000300948
-0.012090523 -0.08216475 -0.111187026 -0.059601188 0.19925693 0.25954625 0.021493627 0.0029675267
-0.30140638 -0.0122711165 0.053247545 0.13411328 -0.24733296 0.16181564 0.22054535 -0.089383565
0.13715495 0.17484173 -0.19295458 0.18436313 -0.014351285 -0.2073474 0.11166815 0.054027054
-0.24317662 -0.19145545 -0.11778526 0.39887232 0.22629873 -0.30606702 -0.10143889 -0.032880064
0.1483378 0.043773334 0.01204673 0.077233896 -0.06128221 0.06915974 0.00608839 0.16671133
0.038807057 0.009315814 0.06865833 0.2759757 0.05540331 -0.3035523 0.017879507 0.107317686
-0.0362334 0.2603505 0.014297542 0.089845866 0.048867725 0.07291167 0.062686436 0.126486
-0.07133222 0.0 0.058115814 0.20141143 -0.0783542 0.05835157 0.12541297 -0.013083218
0.29389256 -0.013783434 0.035309944 -0.03688507 -0.2503056 0.3063058 0.07527925 -0.13787265
0.19827111 -0.11005305 0.102263734 -0.1949763 0.1154309 0.046440467 -0.12335272 -0.26791194
-0.15245217 0.055736594 -0.19582164 -0.15323025 -0.098948754 -0.040148422 -0.018409086 -0.239501
0.3168363 -0.0024484436 -0.12981303 0.13812411 -7.67957e-05 -0.36384958 -0.070188485 -0.002823022
0.24928944 -0.18105187 0.027621325 0.0037689907 0.053216778 0.32409018 -0.13168234 -0.2180793
0.266404 -0.020298311 0.24144785 0.08248936 -0.11059603 0.26170367 -0.41769356 -0.018329352
-0.098828524 0.004912321 0.08969918 -0.20968595 -0.12511796 0.13487864 -0.302251 0.03691869
-0.20390637 -0.008284589 -0.02677623 0.12091107 0.17429698 -0.0790097 -0.026881061 0.0270533
-0.16554251 0.09586699 -0.22108588 0.1457408 0.14552397 -0.059246123 0.038983017 -0.154574
-0.26868474 -0.21502161 0.0 0.06427386 -0.17046487 0.04687403 -0.039569523 0.1818331
0.00079956884 -0.23566915 0.17170425 -0.31014684 0.109428495 -0.03616198 0.062704705 0.10493234
-0.00283709 -0.110763885 0.066827714 -0.07095532 -0.004335164 0.019620419 0.17652161 0.30572754
0.06945137 -0.23767126 -0.11121309 -0.27091682 -0.029798362 -0.059553325 0.08453496 0.19947822
0.11411281 -0.15403558 0.11732838 0.11972074 0.20279412 0.21248832 0.24812925 0.21343474
-0.18252273 -0.12799364 -0.012798643 0.17837757 -0.020676048 0.04192284 -0.009429762 0.09098757
0.2409354 0.1839257 -0.18472075 0.026965687 -0.13285333 0.010858402 -0.26910326 -0.07292396
-0.11735029 0.23602766 -0.17448142 0.04874421 0.2635742 0.2661785 -0.2182542 0.0143927075
-0.3864313 0.11987871 0.006946937 -0.044482972 -0.11682715 -0.25064254 -0.12839103 0.20208372
-0.14901239 0.18580392 -0.05524549 -0.060067922 -0.2576256 -0.09735486 -0.06981597 0.03498479
-0.024963759 -0.3008688 -0.06849679 0.0 0.027284753 -0.061998017 -0.4273079 0.048859455
0.101045355 0.10663733 -0.2482492 -0.24731071 -0.08235291 0.15393846 -0.24481109 -0.033863228

p f4 [80]
00000000: 0000 4843 0000 4843 0000 4843 0000 4843
00000010: 0000 4843 0000 4843 0000 4843 0000 4843
00000020: 0000 4843 0000 4843 0000 4843 0000 4843
00000030: 0000 4843 0000 4843 0000 4843 0000 4843
00000040: 0000 4843 0000 4843 0000 4843 0000 4843
00000050: 0000 4843 0000 4843 0000 4843 0000 4843
00000060: 0000 4843 0000 4843 0000 4843 0000 4843
00000070: 0000 4843 0000 4843 0000 4843 0000 4843
00000080: 0000 4843 0000 4843 0000 4843 0000 4843
00000090: 0000 4843 0000 4843 0000 4843 0000 4843
000000a0: 0000 4843 0000 4843 0000 4843 0000 4843
000000b0: 0000 4843 0000 4843 0000 4843 0000 4843
000000c0: 0000 4843 0000 4843 0000 4843 0000 4843
000000d0: 0000 4843 0000 4843 0000 4843 0000 4843
000000e0: 0000 4843 0000 4843 0000 4843 0000 4843
000000f0: 0000 4843 0000 4843 0000 4843 0000 4843
00000100: 0000 4843 0000 4843 0000 4843 0000 4843
00000110: 0000 4843 0000 4843 0000 4843 0000 4843
00000120: 0000 4843 0000 4843 0000 4843 0000 4843
00000130: 0000 4843 0000 4843 0000 4843 0000 4843
200.0 200.0 200.0 200.0 200.0 200.0 200.0 200.0
200.0 200.0 200.0 200.0 200.0 200.0 200.0 200.0
200.0 200.0 200.0 200.0 200.0 200.0 200.0 200.0
200.0 200.0 200.0 200.0 200.0 200.0 200.0 200.0
200.0 200.0 200.0 200.0 200.0 200.0 200.0 200.0
200.0 200.0 200.0 200.0 200.0 200.0 200.0 200.0
200.0 200.0 200.0 200.0 200.0 200.0 200.0 200.0
200.0 200.0 200.0 200.0 200.0 200.0 200.0 200.0
200.0 200.0 200.0 200.0 200.0 200.0 200.0 200.0
200.0 200.0 200.0 200.0 200.0 200.0 200.0 200.0

p f4 [80]
00000000: 0000 c842 0000 c842 0000 c842 0000 c842
00000010: 0000 c842 0000 c842 0000 c842 0000 c842
00000020: 0000 c842 0000 c842 0000 c842 0000 c842
00000030: 0000 c842 0000 c842 0000 c842 0000 c842
00000040: 0000 c842 0000 c842 0000 c842 0000 c842
00000050: 0000 c842 0000 c842 0000 c842 0000 c842
00000060: 0000 c842 0000 c842 0000 c842 0000 c842
00000070: 0000 c842 0000 c842 0000 c842 0000 c842
00000080: 0000 c842 0000 c842 0000 c842 0000 c842
00000090: 0000 c842 0000 c842 0000 c842 0000 c842
000000a0: 0000 c842 0000 c842 0000 c842 0000 c842
000000b0: 0000 c842 0000 c842 0000 c842 0000 c842
000000c0: 0000 c842 0000 c842 0000 c842 0000 c842
000000d0: 0000 c842 0000 c842 0000 c842 0000 c842
000000e0: 0000 c842 0000 c842 0000 c842 0000 c842
000000f0: 0000 c842 0000 c842 0000 c842 0000 c842
00000100: 0000 c842 0000 c842 0000 c842 0000 c842
00000110: 0000 c842 0000 c842 0000 c842 0000 c842
00000120: 0000 c842 0000 c842 0000 c842 0000 c842
00000130: 0000 c842 0000 c842 0000 c842 0000 c842
100.0 100.0 100.0 100.0 100.0 100.0 100.0 100.0
100.0 100.0 100.0 100.0 100.0 100.0 100.0 100.0
100.0 100.0 100.0 100.0 100.0 100.0 100.0 100.0
100.0 100.0 100.0 100.0 100.0 100.0 100.0 100.0
100.0 100.0 100.0 100.0 100.0 100.0 100.0 100.0
100.0 100.0 100.0 100.0 100.0 100.0 100.0 100.0
100.0 100.0 100.0 100.0 100.0 100.0 100.0 100.0
100.0 100.0 100.0 100.0 100.0 100.0 100.0 100.0
100.0 100.0 100.0 100.0 100.0 100.0 100.0 100.0
100.0 100.0 100.0 100.0 100.0 100.0 100.0 100.0

p f4 [80]
00000000: 0000 803f 0000 803f 0000 803f 0000 803f
00000010: 0000 803f 0000 803f 0000 803f 0000 803f
00000020: 0000 803f 0000 803f 0000 803f 0000 803f
00000030: 0000 803f 0000 803f 0000 803f 0000 803f
00000040: 0000 803f 0000 803f 0000 803f 0000 803f
00000050: 0000 803f 0000 803f 0000 803f 0000 803f
00000060: 0000 803f 0000 803f 0000 803f 0000 803f
00000070: 0000 803f 0000 803f 0000 803f 0000 803f
00000080: 0000 803f 0000 803f 0000 803f 0000 803f
00000090: 0000 803f 0000 803f 0000 803f 0000 803f
000000a0: 0000 803f 0000 803f 0000 803f 0000 803f
000000b0: 0000 803f 0000 803f 0000 803f 0000 803f
000000c0: 0000 803f 0000 803f 0000 803f 0000 803f
000000d0: 0000 803f 0000 803f 0000 803f 0000 803f
000000e0: 0000 803f 0000 803f 0000 803f 0000 803f
000000f0: 0000 803f 0000 803f 0000 803f 0000 803f
00000100: 0000 803f 0000 803f 0000 803f 0000 803f
00000110: 0000 803f 0000 803f 0000 803f 0000 803f
00000120: 0000 803f 0000 803f 0000 803f 0000 803f
00000130: 0000 803f 0000 803f 0000 803f 0000 803f
1.0 1.0 1.0 1.0 1.0 1.0 1.0 1.0
1.0 1.0 1.0 1.0 1.0 1.0 1.0 1.0
1.0 1.0 1.0 1.0 1.0 1.0 1.0 1.0
1.0 1.0 1.0 1.0 1.0 1.0 1.0 1.0
1.0 1.0 1.0 1.0 1.0 1.0 1.0 1.0
1.0 1.0 1.0 1.0 1.0 1.0 1.0 1.0
1.0 1.0 1.0 1.0 1.0 1.0 1.0 1.0
1.0 1.0 1.0 1.0 1.0 1.0 1.0 1.0
1.0 1.0 1.0 1.0 1.0 1.0 1.0 1.0
1.0 1.0 1.0 1.0 1.0 1.0 1.0 1.0

p f4 [80]
00000000: 0000 0000 0000 0000 0000 0000 0000 0000
00000010: 0000 0000 0000 0000 0000 0000 0000 0000
00000020: 0000 0000 0000 0000 0000 0000 0000 0000
00000030: 0000 0000 0000 0000 0000 0000 0000 0000
00000040: 0000 0000 0000 0000 0000 0000 0000 0000
00000050: 0000 0000 0000 0000 0000 0000 0000 0000
00000060: 0000 0000 0000 0000 0000 0000 0000 0000
00000070: 0000 0000 0000 0000 0000 0000 0000 0000
00000080: 0000 0000 0000 0000 0000 0000 0000 0000
00000090: 0000 0000 0000 0000 0000 0000 0000 0000
000000a0: 0000 0000 0000 0000 0000 0000 0000 0000
000000b0: 0000 0000 0000 0000 0000 0000 0000 0000
000000c0: 0000 0000 0000 0000 0000 0000 0000 0000
000000d0: 0000 0000 0000 0000 0000 0000 0000 0000
000000e0: 0000 0000 0000 0000 0000 0000 0000 0000
000000f0: 0000 0000 0000 0000 0000 0000 0000 0000
00000100: 0000 0000 0000 0000 0000 0000 0000 0000
00000110: 0000 0000 0000 0000 0000 0000 0000 0000
00000120: 0000 0000 0000 0000 0000 0000 0000 0000
00000130: 0000 0000 0000 0000 0000 0000 0000 0000
0.0 0.0 0.0 0.0 0.0 0.0 0.0 0.0
0.0 0.0 0.0 0.0 0.0 0.0 0.0 0.0
0.0 0.0 0.0 0.0 0.0 0.0 0.0 0.0
0.0 0.0 0.0 0.0 0.0 0.0 0.0 0.0
0.0 0.0 0.0 0.0 0.0 0.0 0.0 0.0
0.0 0.0 0.0 0.0 0.0 0.0 0.0 0.0
0.0 0.0 0.0 0.0 0.0 0.0 0.0 0.0
0.0 0.0 0.0 0.0 0.0 0.0 0.0 0.0
0.0 0.0 0.0 0.0 0.0 0.0 0.0 0.0
0.0 0.0 0.0 0.0 0.0 0.0 0.0 0.0

super f4 [80]
00000000: 0000 c842 0000 c842 0000 c842 0000 c842
00000010: 0000 c842 0000 c842 0000 c842 0000 c842
00000020: 0000 c842 0000 c842 0000 c842 0000 c842
00000030: 0000 c842 0000 c842 0000 c842 0000 c842
00000040: 0000 c842 0000 c842 0000 c842 0000 c842
00000050: 0000 c842 0000 c842 0000 c842 0000 c842
00000060: 0000 c842 0000 c842 0000 c842 0000 c842
00000070: 0000 c842 0000 c842 0000 c842 0000 c842
00000080: 0000 c842 0000 c842 0000 c842 0000 c842
00000090: 0000 c842 0000 c842 0000 c842 0000 c842
000000a0: 0000 c842 0000 c842 0000 c842 0000 c842
000000b0: 0000 c842 0000 c842 0000 c842 0000 c842
000000c0: 0000 c842 0000 c842 0000 c842 0000 c842
000000d0: 0000 c842 0000 c842 0000 c842 0000 c842
000000e0: 0000 c842 0000 c842 0000 c842 0000 c842
000000f0: 0000 c842 0000 c842 0000 c842 0000 c842
00000100: 0000 c842 0000 c842 0000 c842 0000 c842
00000110: 0000 c842 0000 c842 0000 c842 0000 c842
00000120: 0000 c842 0000 c842 0000 c842 0000 c842
00000130: 0000 c842 0000 c842 0000 c842 0000 c842
100.0 100.0 100.0 100.0 100.0 100.0 100.0 100.0
100.0 100.0 100.0 100.0 100.0 100.0 100.0 100.0
100.0 100.0 100.0 100.0 100.0 100.0 100.0 100.0
100.0 100.0 100.0 100.0 100.0 100.0 100.0 100.0
100.0 100.0 100.0 100.0 100.0 100.0 100.0 100.0
100.0 100.0 100.0 100.0 100.0 100.0 100.0 100.0
100.0 100.0 100.0 100.0 100.0 100.0 100.0 100.0
100.0 100.0 100.0 100.0 100.0 100.0 100.0 100.0
100.0 100.0 100.0 100.0 100.0 100.0 100.0 100.0
100.0 100.0 100.0 100.0 100.0 100.0 100.0 100.0

weight f4 [4, 80]
00000000: f319 ae3d 5ed9 c23c a02d 803c 113d 713d
00000010: 8161 8fbd 82b9 463d ce13 3fbd d830 6c3c
00000020: b6e9 9d3d 4520 4f3d e25a a9bd 31b3 9bbd
00000030: efb7 cfba 9a29 babd 31be 4f3d aedd d2bd
00000040: 7aca 7dbd 52ac 0cbb 6c79 df3d ffff 0dbd
00000050: ee47 883d 107a b93d bd4e b8bd 57b3 b7bd
00000060: 0bf6 05bd abf9 8bbd 0699 243d aa75 c2bc
00000070: fc09 9cbd 7e36 d83d e5fd dc3d 46b5 bdbc
00000080: 6ef1 7f3d 665c a93d 7170 92bd 3d78 61bd
00000090: 1cf9 6b3d 244d 2538 3100 8a3d 9313 a6bd
000000a0: 508f 713d b2e7 4d3d d2fe dabd 6299 c0bc
000000b0: 0610 1e3d 9881 8d3d 544d c73d ddab d7bd
000000c0: 23cf c03d 2980 ce3d d826 94bb ee07 9cbd
000000d0: 8461 c8bd 379f 3b3d aca6 8ebd 4427 933d
000000e0: 7ac2 c4bc d4a2 b13c f89f 89bd 9a64 b4bd
000000f0: 7a96 22bd d94e 8cbd b97b cdbb b92d b1bd
00000100: 157e 923d 2471 253b 6483 f13b 55cf c7bd
00000110: d15d 46bd 2a77 8eba 1e19 9fbd 2ffe aebd
00000120: 26c3 2ebd 9847 10bc 79cc 3f39 066d b93d
00000130: b745 58bc a930 c1bd 3a3a 23bd f43e 533d
00000140: c971 463d 9537 82bc 727f 143d 3aa9 64bd
00000150: ba54 443d 62fe d7bb e7b6 b4bc f28e 0dbd
00000160: 597e d33d e8b5 9abd 1a28 bfbd 796d 58bd
00000170: c435 5fbc f937 7cbd 72ca 983d 265d debd
00000180: 072b ad3c 4353 e2bc 9f53 b03d c964 de3d
00000190: c431 a1bc c684 62bd 2d0a 303d 4f70 83bd
000001a0: 3258 e0bd e436 8bbd f52a be3d 6871 543d
000001b0: f05b adbd 3f38 d73d fb61 dd3d 5d56 ad3d
000001c0: 8cb3 22bd eada a53d a483 86bc 618c dcbc
000001d0: 4d73 c13d 3d92 753d 482d c8bc 7f6c 613d
000001e0: 3ad9 c3bb fbc0 91bd 85ad cabd 4547 63bd
000001f0: 3618 bf3d fa8b 8d3d fe23 be3d ceb4 b5bd
00000200: 3644 e03d 86a5 893c ab31 5ebd 519a 0abc
00000210: d7e3 3ebd b7c8 babd 90f6 a43d c386 4c3c
00000220: 97fe fc3c 550e 713d cc34 ce3d feef bb3d
00000230: 139a 803b 676c 8ebd af37 7839 0612 c53c
00000240: 4e1b b53d 223e d43d 689c afbd ed83 e3bd
00000250: d6e3 92bd 162f c03d 40d9 e2bd 5df5 ecbc
00000260: 3503 1d3d 698f 3b3d 648f aa3c d4a9 953d
00000270: 3aea 6b3d c758 493d 5e6e 84bb 858e bfbd
00000280: 1dd5 22bc 2625 de3d 7349 443d 1e69 a9bd
00000290: c078 b1bd a05b 21bd 5499 683d 8156 84bd
000002a0: 79db 763d f316 d73c 328f 40bd cd90 b43d
000002b0: 2603 9c3d 2ddf cf3d d733 813d dc2d 14bd
000002c0: eb3f 5abd 76c9 523d 456d ad3d c87f 583d
000002d0: 75c4 323d 668a 9dbd 4bf5 87bb b59c 403d
000002e0: 3d97 83bd 0f19 40bc 4687 b7bd 52c6 d0bd
000002f0: fa99 c3bd 2ffb aa3d 7566 90bd 9808 02bd
00000300: 0cb3 86bd 810e 093d db19 65bd d086 68bc
00000310: c61f 71bc 6d72 f23c 70ee a13d d87c d3bd
00000320: d7b6 7b3c dad1 d53d 3db1 5f3d b52b 91bd
00000330: 990b aebd 2f10 b73c 5a61 94bd 3693 a8bd
00000340: b3d5 4ebd a10e abbd 18f1 2abd 8650 263a
00000350: 336c 4fbd 3436 773d 4e76 13bc 1470 8b3d
00000360: 7860 e43d 8fdc 3fbd fee9 923c cefb f23c
00000370: d9b3 2fbd 5fd0 74bd 4060 c73d 749f 533b
00000380: 3388 b43c c418 1abc e21e c9bd c1d5 47bd
00000390: 15c4 a9bd 1b88 1fbc d8f5 b5bd 8b04 cb3d
000003a0: 5f9c d33d e06b 99bd deda 54bd 26a3 273d
000003b0: 057b acbd d7d4 b5bc 176c abbd eae5 48bd
000003c0: 8815 2d3c f8db c5bb 63a8 abbd 675d a7bd
000003d0: 56b7 ddbd c43c 383d 3d52 1cbd 0fa0 80bc
000003e0: 56cb 06bd 88c2 15bd 1a6d c7bd 10e2 873a
000003f0: dad0 8c3c 5081 273d 5510 5a3c 997a 413d
0.08501043 0.02378529 0.015646756 0.058896128 -0.07001019 0.048516758 -0.046649747 0.014415942
0.077105924 0.050567884 -0.08269288 -0.076025374 -0.0015847663 -0.09089966 0.05071849 -0.10296188
-0.061960675 -0.0021465016 0.10911831 -0.034667965 0.066543445 0.09056485 -0.08999393 -0.08969753
-0.032705348 -0.0683473 0.040184997 -0.023737747 -0.07619092 0.105572686 0.10790614 -0.023157727
0.062486105 0.08269577 -0.07150353 -0.05504631 0.057610616 3.941091e-05 0.06738318 -0.08109202
0.058974564 0.05026979 -0.10693134 -0.023510639 0.0385895 0.06909484 0.09731546 -0.10530827
0.09414508 0.10083038 -0.004521232 -0.076187 -0.09784225 0.045806136 -0.06965384 0.07185224
-0.024018515 0.021684088 -0.06719965 -0.08808251 -0.039694287 -0.068509765 -0.0062708524 -0.08651299
0.071529545 0.002524444 0.0073703993 -0.09756342 -0.048429314 -0.0010869254 -0.077684626 -0.085445754
-0.042666577 -0.008806132 0.00018291351 0.09053998 -0.013200215 -0.09433109 -0.03985045 0.05157371
0.048448358 -0.015895644 0.036254354 -0.05582545 0.047932364 -0.006591604 -0.02205987 -0.03456015
0.10326833 -0.07554227 -0.09333821 -0.052838776 -0.013623659 -0.061576817 0.074604884 -0.108576104
0.021138681 -0.027627593 0.086096995 0.10859067 -0.01967705 -0.055302404 0.042978454 -0.064179055
-0.10954322 -0.06797579 0.09285537 0.051865965 -0.08464801 0.10508775 0.10809704 0.08463738
-0.03972201 0.08098395 -0.016420193 -0.026922407 0.0944582 0.059953917 -0.024435654 0.05503511
-0.005976823 -0.07116886 -0.098963775 -0.05548789 0.0933079 0.06911464 0.09284209 -0.088723764
0.1095051 0.01680256 -0.054246586 -0.008459643 -0.046604004 -0.091203146 0.080548406 0.012483302
0.030883117 0.05885156 0.10068664 0.09176634 0.003924617 -0.0695427 0.00023671867 0.024056446
0.088430986 0.103634134 -0.08574754 -0.11109147 -0.071723625 0.09383981 -0.110765934 -0.028925592
0.038333137 0.045791063 0.020820327 0.07307783 0.057596423 0.04915693 -0.004041477 -0.09353355
-0.0099385055 0.10846929 0.04792161 -0.08272003 -0.08665609 -0.03939402 0.05678685 -0.06461812
0.0602679 0.02625606 -0.04701156 0.08816681 0.07617788 0.10149989 0.06308716 -0.036176547
-0.053283613 0.05146166 0.08468107 0.052856237 0.043644387 -0.07692413 -0.0041491142 0.047024447
-0.06425331 -0.011724724 -0.08961348 -0.101940766 -0.09550853 0.08348691 -0.07050792 -0.031746477
-0.06577119 0.033461098 -0.05593286 -0.014192298 -0.014717048 0.029595578 0.079068065 -0.103265464
0.015363417 0.10440417 0.054612387 -0.070884146 -0.08498306 0.022346584 -0.07245131 -0.08231203
-0.05049677 -0.083523996 -0.04173383 0.00063443964 -0.050640296 0.060354427 -0.009000374 0.068084866
0.111512125 -0.0468412 0.017933842 0.029661085 -0.042896125 -0.05976903 0.09735155 0.0032291086
0.022037601 -0.009405319 -0.098203436 -0.048787836 -0.08289353 -0.00973704 -0.088847816 0.09912976
0.1033256 -0.07491279 -0.05196654 0.040927075 -0.084219016 -0.022196217 -0.08370226 -0.049047388
0.0105642155 -0.006038185 -0.083817266 -0.08172112 -0.10825984 0.044979826 -0.038164366 -0.015701322
-0.03290876 -0.036562473 -0.09737606 0.0010367054 0.017189432 0.040894806 0.013309558 0.04723606

bias f4 [4]
00000000: c61c 2fbd 113a dd3d 358b 65bd a99d dcbd
-0.04275205 0.10802091 -0.05604096 -0.10772259

weight f4 [256, 80]
00000000: ee01 e8bd 8b23 55bf f49f 0d3f c5b1 ad3f
00000010: eab7 1ebf 89ab c63e 501b 8b3f 90ef f5bd
00000020: 3e23 323e cdce 053e a4cd e43e d08d 203f
00000030: 7b3b 7c3f 95b9 f23e 4e54 b23f 69ed d1bf
00000040: ca4c 3bbf 7e9f 12bf b2f7 99be 98e3 413f
00000050: 7336 10be 5c4e b33e 59b3 90bf f3e6 853f
00000060: b52a 6f3f 79ac 213f 4097 293f d3de 1040
00000070: 154f 153f 6dcc c53f 38a1 32bf 6688 0d3f
00000080: 6b9d 3fbf 45d8 7abe d0ab 733f 4862 ca3f
00000090: 99c1 91be 4010 c2bf 0541 b03e 4266 2b3f
000000a0: ce4a 703f 1eca 5e3f 1ad3 9ebd fffc 5dbc
000000b0: 3199 783f 36aa e4be e061 b7bf 5b65 edbe
000000c0: 2db3 ea3e bb8b d9bf 3e3b 8f3f 51b0 90bf
000000d0: b3c1 30be f98e 9c3f d82b b1bf 243b c5be
000000e0: a4c3 a8bf 46bd bd3f 1627 3bbf 6068 21bf
000000f0: dcac 16bf 49e9 fe3e fd85 853f 0093 06be
00000100: 5574 233f 96ad dbbf 100c 6c3e 9b49 953f
00000110: fa69 073f ae83 c0be 4579 aebf 3234 a73f
00000120: 5a8e 343f 4b56 ed3f ccad eabf ca95 1c3c
00000130: 0d0e 103f 66f4 3abf 140f 7d3f 143b 1940
00000140: 2b77 c6be 03b4 b93f 7ec1 5c3f e1dd 3b3f
00000150: fc8b 1fbf 1719 a3bf 8016 893f 068e 1bbf
00000160: a1de dfbe af56 0ebf 5654 693f 1c70 b63d
00000170: 2268 0f3f 00ac 0d3f 55a8 0bbf b735 e43e
00000180: 7f5f ae3e e68c 58bf 6aaf 47bf 7a42 df3d
00000190: 965b 673d 0ab6 193e f0f2 9a3d 042f 96be
000001a0: f2db 8cbf df0c 07c0 fdf3 7b3f 24b7 87bf
000001b0: f9c7 8c3f 1433 1a3f 605e 8b3e bf02 34bf
000001c0: 245c 6e3e d5be b6bf 47d7 bfbf 69c3 fbbe
000001d0: 3cbc c23f 1749 99bf cfaa 36bf 41f6 e83e
000001e0: 680a a33f fcbf 7ebf cb6d 08bf 6d87 f7bd
000001f0: 3eee 85bf c0e8 0e3f 0973 da3d 2337 0140
00000200: 6f1a c6bf 7800 25bd 811c bb3f 9bbc 76bf
00000210: 3d33 073f 03f0 18bf 0fc6 a0bf 5808 aa3f
00000220: 0704 503e 587b 4abf 1897 893f 8510 833f
00000230: ca65 3abf af7f cfbf e96b 87be f697 4b3f
00000240: a059 673e bc1a d23f ea72 bb3f 20cd 5fbe
00000250: 8e18 fabf 98b7 80bf a6ff 7dbd 2bac b23f
00000260: 6547 2b3f 9d7c bbbf ae4e 38bf 9753 a6be
00000270: 72c8 7ebd 5d71 76bf d31c 463f e268 97bd
00000280: 179c c1bd 7293 31bc 6937 debf 7fd9 af3e
00000290: 6d60 efbf e43c 05bf f393 75bf eaf4 edbf
000002a0: b753 0a3d 3d20 ef3e 3300 3c3f 348c 2c40
000002b0: 1e05 9abf d284 bc3d 7b1f 12bf bd8c adbb
000002c0: 705b edbd 42c3 c4be 8669 3bbf 15de b83e
000002d0: 4316 50bf c90b 0940 c8f0 2c3f 1d11 4e3e
000002e0: 8d90 b73f 9690 973f cb36 523f 6c3a e3bd
000002f0: 5c68 b43e fd3a 1fbf ec14 973f 3ba5 08bf
00000300: fff5 b7bf 7494 413e 664e c03f 302d 973e
00000310: 6de1 69bf 031a cebd 6fd8 26bf 468b 96bf
00000320: 2be8 e1bc e8f6 fdbe a552 59bd fe22 c5be
00000330: c641 ab3f 404e 703f 8a13 49bc 15a5 753e
00000340: 7b8b 5dbe c597 9c3e b730 e53e 10ce 06bf
00000350: 70db 553f f673 a63e a78f 193f 12a7 dabe
00000360: 8a23 6dbb 5420 c1bf 9ce2 05bf 342c 2dbf
00000370: fa2c dbbe d49c b8bd b563 d5be ce46 553f
00000380: ea04 263e c723 77bf 3845 e0bf be07 f13e
00000390: 4024 04bf d311 8e3f 2dda 0340 2a0d 1a3e
000003a0: 4811 52bf 17ff c1be f734 08bf 2554 afbd
000003b0: d04b e23e 7b0d f03e e89b 093f 0500 58be
000003c0: e7c5 cc3d 1954 7a3f b25c 4f3f 2b39 753e
000003d0: 0f07 4e3e 0851 76be 6250 e3be 3888 ac3e
000003e0: 2080 3b3f def3 8dbf e79c bfbe 4ff0 f0bf
000003f0: 97eb 92be 18c5 84bf e6e9 cdbe c95d 543f
-0.11328493 -0.8325736 0.55322194 1.3569876 -0.6199938 0.38802746 1.086771 -0.120085835
0.17396256 0.1306717 0.4468814 0.6271639 0.9852826 0.47407213 1.3931978 -1.6400577
-0.73164046 -0.57274616 -0.3007179 0.75737906 -0.1408327 0.3502072 -1.1304733 1.0461105
0.9342454 0.631538 0.66246414 2.2636 0.58323795 1.5453011 -0.6977725 0.5528625
-0.74849576 -0.24496563 0.9518404 1.5811243 -0.28468016 -1.5161209 0.34424606 0.6695291
0.9386414 0.87027156 -0.07755108 -0.0135490885 0.9710875 -0.4466111 -1.4326744 -0.4636639
0.45839825 -1.6995767 1.1189954 -1.1303807 -0.1726139 1.2231132 -1.3841505 -0.38521683
-1.3184705 1.4823387 -0.73106515 -0.6304989 -0.5885751 0.49787357 1.0431515 -0.13142014
0.63849384 -1.7162349 0.23051476 1.1663088 0.5289608 -0.37600464 -1.3630759 1.3062804
0.7052971 1.854196 -1.8334289 0.009557197 0.5627144 -0.7302917 0.9885113 2.3942308
-0.38762793 1.450806 0.86232746 0.73385435 -0.62322974 -1.2742032 1.0709991 -0.60763586
-0.4372454 -0.5560102 0.9114431 0.08908102 0.5601827 0.55340576 -0.5455373 0.4457223
0.34057233 -0.84589994 -0.78002036 0.10901351 0.056483828 0.15010849 0.07565868 -0.29332745
-1.1004622 -2.1101606 0.9841917 -1.0602765 1.0998527 0.6023419 0.2722044 -0.7031669
0.23277336 -1.4276987 -1.4987572 -0.49172524 1.5213695 -1.197543 -0.71354383 0.45500377
1.2737551 -0.99511695 -0.5329253 -0.12086377 -1.0463331 0.558239 0.106664725 2.0189903
-1.5476817 -0.04028365 1.4618074 -0.9638154 0.5281256 -0.5974123 -1.2560443 1.3283796
0.20314036 -0.7909446 1.0749235 1.0239416 -0.7281157 -1.6210841 -0.26449516 0.7952875
0.22592783 1.6414409 1.4644444 -0.21855593 -1.9538743 -1.0056028 -0.062011383 1.3958791
0.66905814 -1.4647404 -0.71995056 -0.3248565 -0.06220288 -0.9626673 0.7738773 -0.07393052
-0.094536 -0.010838376 -1.736066 0.34345624 -1.8701302 -0.52046037 -0.9592888 -1.8590367
0.033771243 0.46704283 0.73437804 2.6960573 -1.2032812 0.09205021 -0.57079285 -0.0052963183
-0.11589706 -0.3843022 -0.7320789 0.36106935 -0.8128397 2.1413443 0.67554903 0.20123716
1.4340988 1.1840999 0.8211486 -0.110951275 0.3523587 -0.62199384 1.180326 -0.5337712
-1.4371947 0.18904287 1.5023925 0.29526663 -0.913596 -0.10063555 -0.65174 -1.1761253
-0.027576527 -0.49602437 -0.05305733 -0.3850326 1.3379447 0.938694 -0.012272725 0.23988755
-0.21635239 0.3058454 0.4476373 -0.52658176 0.8353796 0.32510346 0.5998482 -0.4270559
-0.0036184513 -1.5087991 -0.52298903 -0.67645574 -0.42807752 -0.090142876 -0.41677633 0.83311164
0.16212812 -0.96538967 -1.7521124 0.4707622 -0.51617813 1.109919 2.0601914 0.15044084
-0.8205762 -0.3788993 -0.5320582 -0.08560971 0.44198465 0.46885285 0.5375352 -0.21093757
0.099986844 0.9778457 0.81000817 0.23947589 0.2011988 -0.24054348 -0.44397265 0.33697677
0.7324238 -1.1090047 -0.37424394 -1.8823336 -0.28695366 -1.0372648 -0.40217513 0.82955605
