Alpha_58_1e-4/Retraining_1/4-PAM_SNN_MMSE_Equalizer_im_dd.pt (torch, 246267 bytes, 11 tensors)

weight f4 [80, 328]
00000000: c613 603d a78e 143d d7f3 4b3d 3518 743c
00000010: 37bc 54bd 7056 a6bc a1d8 4dbd 6b1e a93c
00000020: 22ad 333c 93b1 513d 4c06 44bc 244c 323c
00000030: 6ec6 d5bc cd94 29bd 8da1 393d ecfe a3bc
00000040: 7f9a 613d a87e 083d 47e8 ec3b 1f4d 2dbc
00000050: 0de0 c93c 9d23 b4bc 58f1 5c3c 4f00 3a3c
00000060: 3bf9 de3b 9079 0b3d baee 373d 421b 303d
00000070: fd81 2b3d 5096 533d a650 5d3d a4ba adbc
00000080: 7f93 0b3d 2b7d 523d 320e 203d b736 6abc
00000090: 8b0b 06bd 21b0 4ebd 690e 50bd be09 883b
000000a0: 3e66 81bc 69d2 61bc fa69 87bc 1398 ccbc
000000b0: ca3a 39bd 9d20 cabc ec91 42bd abe3 51bd
000000c0: 4547 6c3c e8e8 723c 3cac 9cbc 625d 09bd
000000d0: c750 f1bb c5e3 16bd 300f 38bd 045f 08bd
000000e0: ad5d 1abc 6ec5 18bd 6204 dd3c bc7a 2abd
000000f0: 46d6 453d 30e2 3f3d 2bd8 d7bc 3329 44bd
00000100: 552f 11bc de2c 8e3c f150 d3bc cc8b 23bb
00000110: 7888 0fbd 789f 3bbd bd31 4dbd 54e3 50bd
00000120: fad1 04bb 38fa 513d b55b 99bc bcd2 29bd
00000130: 99d8 19bd 7047 70bc 7550 e83b 6b7e 933c
00000140: 5a54 013d ac42 3b3d d379 423d da2b 383d
00000150: 4e9c 4bbd 8a51 d0bc 9d32 ca3c d8e1 1f3d
00000160: 795e 713c 013b 10bb d390 303d ae63 463d
00000170: 508f 85bb f65d 5e3c 7956 02bd 1fad ed3c
00000180: ed1f 7dbc f926 aa3c f42a f4bb e7f0 633a
00000190: 9d63 183d be76 263d 5622 333d 5483 a6bc
000001a0: e6c3 573d 78d2 653c e5d8 cf3c 905e 643b
000001b0: f8ce 2ebc 1f7f 83bb b7ec 093b 3c8f 413d
000001c0: f3bb 3ebd 0276 83bb 9218 a83b 65a3 423d
000001d0: 1389 003d 3721 2abd 77b1 7c3a 16e1 393d
000001e0: 5aed 433d c214 1c3d e00c 683b 3d5b 27bc
000001f0: 74fc ebba 169e cdbc 5251 a1bc 258a 123b
00000200: 5e62 e53c 11f0 233d 0d22 16bd 02bf 873c
00000210: 8016 4b3c 237a b43c 2ff9 2e3d 9f36 18bd
00000220: a177 09bd 50fd 403d 4467 0a3d dc95 6bbb
00000230: d187 6cba 58bd 16bd 7f9f 103d c79e 4d3d
00000240: 3ee5 b4bc 68bb a33c c8ee 04bd f9bf 95bb
00000250: 23bd 163d 640d bdbc 5916 3abd f211 d2ba
00000260: 644c 9f3c c145 d9bc 0021 0e3d e1a9 45bc
00000270: 3a83 d63b de58 01bc a26d 0ebd 6881 b73c
00000280: 5011 6ebc 5570 bebc b667 b83a eeb8 47bd
00000290: 6a9e 2e3d 2235 38bd 8f95 263d 44ce 59bd
000002a0: 27c3 c3bb a81b 3cbc fc9b 2e3d 7059 233b
000002b0: 7bf7 c63c b7fd 473d d169 88bb 596e 47bd
000002c0: 8302 0b3d 94b5 8ebc 3e61 293d 2b64 263d
000002d0: cc66 183b dd89 483d 8da7 dcbc a07c 06bd
000002e0: 4661 2d3d e1f6 1d3d 4ca0 f4bc 6cd1 0d3d
000002f0: 5603 5a3d c3d8 0abd 1210 4d3d 9a2e 27bd
00000300: 9a99 1ebd 0ede 643c 2918 413d 562d 64bc
00000310: 403b 4f3d c960 4f3d dbaf eb3c 6471 8b3c
00000320: b306 623b 05af 5f3d 2c82 9abc c8eb 0f3d
00000330: 3cff 2fbd 2f30 f4bc 9ba1 55bd 421a bfbc
00000340: ffde 68bc ffe2 5abd 9579 b23c 7190 be3c
00000350: 47e6 523c 8cf0 83bc 0033 453b 3682 1e3d
00000360: 1127 363d d578 843c bf74 513c ad0d f6bc
00000370: da5f 3abd 2759 4a3d bd04 c63c 51af 82bc
00000380: 854f df3c a8c1 50bc 6b37 a93b aba4 3bbd
00000390: 7543 01bd c2ae 7cbc 4f8e 37bd b8e8 8ab8
000003a0: 9d63 823c 94b6 9b3b 17d2 19bd 16bd 21bc
000003b0: 8fc5 dabc 774c 84ba 83f7 1abd a264 2bbd
000003c0: 2283 5bbd 9945 eabc c3ff 13bd e2e7 1e3b
000003d0: 8e77 bbba d676 463d 4812 f93a 2864 efbc
000003e0: 7506 d53b e491 e3bc c230 4c3d 52bb 523d
000003f0: d0e9 1abd 19f5 30bd df69 593d d932 373d
0.054706357 0.036268856 0.04979309 0.0148983495 -0.05193731 -0.020304888 -0.05025542 0.020644387
0.010966571 0.05119474 -0.011964392 0.010882411 -0.026095595 -0.041401673 0.045320082 -0.020019017
0.05507898 0.033323914 0.007229838 -0.010577469 0.024642969 -0.021989638 0.013485275 0.011352613
0.006804613 0.034051478 0.0449054 0.042994745 0.041872013 0.05165702 0.05403199 -0.021207161
0.03407621 0.0513889 0.039076038 -0.014295272 -0.032725852 -0.05046094 -0.050794993 0.004151552
-0.015795823 -0.013783076 -0.016530026 -0.024974858 -0.04522208 -0.024673754 -0.047502443 -0.05124251
0.014421289 0.014826037 -0.019125096 -0.033536322 -0.0073643657 -0.03683831 -0.04493636 -0.03329374
-0.009421748 -0.03729766 0.026979629 -0.041620955 0.04830005 0.04684657 -0.026348194 -0.047890853
-0.0088613825 0.017355379 -0.025795432 -0.0024955152 -0.035042256 -0.045806378 -0.050096262 -0.050998047
-0.0020266757 0.051264018 -0.018720487 -0.041460738 -0.03756008 -0.0146654695 0.0070896694 0.018004617
0.031574585 0.04571788 0.047479462 0.044963695 -0.04970961 -0.025429506 0.024682337 0.03903374
0.014731997 -0.0022007825 0.043106865 0.048434906 -0.004075922 0.013572207 -0.031820748 0.029013215
-0.015449506 0.020770537 -0.0074514095 0.000869526 0.037204374 0.040640585 0.043733917 -0.020326294
0.052677058 0.01402723 0.025371978 0.0034846403 -0.010669462 -0.0040129567 0.0021045634 0.04725574
-0.04656596 -0.0040118704 0.005129882 0.047519106 0.031380724 -0.041535582 0.00096394814 0.045380674
0.047833778 0.038105734 0.0035408065 -0.010214624 -0.0018004314 -0.025099795 -0.019692097 0.0022360173
0.028001007 0.040023867 -0.036653567 0.016570572 0.012395501 0.022030896 0.04271811 -0.037161466
-0.033561353 0.047116578 0.033789888 -0.0035947477 -0.0009022924 -0.036801666 0.035308357 0.05020025
-0.022081967 0.019986823 -0.032454282 -0.004570004 0.03680147 -0.023077674 -0.04543147 -0.0016027077
0.019445606 -0.026522519 0.03469944 -0.012064428 0.006546405 -0.007894723 -0.034772523 0.022400573
-0.014530495 -0.023246923 0.0014068994 -0.048760347 0.042631544 -0.044972546 0.040669974 -0.053175226
-0.0059741917 -0.011481203 0.042629227 0.0024925135 0.02428793 0.048825946 -0.004163005 -0.04868922
0.033937942 -0.017420568 0.041352503 0.04062287 0.002325463 0.0489596 -0.026935363 -0.032833695
0.042329095 0.03856552 -0.029861592 0.03462355 0.053225838 -0.033898126 0.050064154 -0.040815927
-0.038720705 0.013968958 0.04714218 -0.013926825 0.050593615 0.05062941 0.028770378 0.017021842
0.0034488856 0.05461027 -0.018860899 0.035136968 -0.04296802 -0.029808132 -0.052156072 -0.02332795
-0.014213323 -0.053439137 0.02178649 0.023262234 0.012872285 -0.016105913 0.0030090213 0.038698398
0.04447085 0.016170898 0.012784182 -0.030035818 -0.045501567 0.04940143 0.024172181 -0.015952738
0.027259598 -0.012741484 0.005164077 -0.045811336 -0.031558473 -0.015422525 -0.04481345 -6.6237e-05
0.01591664 0.0047519896 -0.037553873 -0.009871742 -0.026705531 -0.0010093589 -0.0378337 -0.041844018
-0.053591855 -0.02859764 -0.036132585 0.00242471 -0.0014302598 0.048453175 0.0019002641 -0.029222563
0.006501014 -0.027779527 0.049851187 0.051448174 -0.037820637 -0.043202493 0.053079482 0.044726226

input_weights f4 [80, 80]
00000000: c842 f33c 2ed7 cebd ecbe 28be e89d f23c
00000010: e46e abbe eef7 3ebe 6e42 2cbe eaca d3bd
00000020: 9dde 503d ddba 2b3e 87c7 bcbd 4ba6 e1bd
00000030: 30d1 ad3d e1b9 503e 59ae b33e 7621 943c
00000040: 70d9 16bd 0beb c9bc 0015 a9bd f867 b33e
00000050: 7ad3 803d a385 313e aec5 51be f4d3 113e
00000060: d26a bc3d ed6f 3b3c 53cd 15be fe2f 173e
00000070: db4a 6abc 8c5f d03d 8c6e a53c 2e35 563d
00000080: 3625 5a3d e2ab 353e 90ea 813d 8d14 703b
00000090: 8675 18be 7ff2 543e 77f6 13be c26d 80be
000000a0: 4795 50bd 7b1a 123e c736 0c3e dd68 1dbd
000000b0: 2d2e 993e 49c9 cfbd 8cb0 49be 596a adbe
000000c0: fb8a 7a3d 7fa4 6bbe 6984 403d fb88 7c3d
000000d0: aae7 4d3e 3565 17be 9349 f8bc ee97 863e
000000e0: d8b4 683d d590 973d 4240 a43e 65ba c73d
000000f0: 22e4 8cbd 4f5c 223d fd0b 743d 197d 553e
00000100: 068d 883e 12cd 103e 6c21 493d b8ee 833e
00000110: f977 1b3e 81c0 3abd 0ae4 493d 1dad 163d
00000120: fc1b 47be ac9e a5bd 22ba 983d 7d6a 7cbe
00000130: 72d2 983e 850e 04be 1a90 8c3e 0a31 493d
00000140: f9d3 ae3d 4467 aabd ca0a 013e 0b1b e83d
00000150: 8a6e 923d 50b2 a43d 0697 dcbd 966f 943e
00000160: 0f4f 1a3e 9032 50be 5a0f e3bd 0d4c 9cbd
00000170: 16db aebd edc6 24bd 1864 90be 14ec 12be
00000180: 7258 5fbe 3631 a83e 96f3 69be aeb1 96be
00000190: 4892 7cbe d87b 0e3e fa55 1b3e 843c 1e3d
000001a0: 3f4d 4c3e 493b f53d ca61 103e f277 5a3e
000001b0: 84f1 80be d9f5 86be eb7b 0e3d c602 31be
000001c0: ec6e 56be f1f5 bd3d fa20 f93e abc6 ae3d
000001d0: 041f 09be 465d bcbd 5ac3 6dbd b2d8 3abe
000001e0: 5ec7 45be 2d08 623c 3742 1f3e 5987 22be
000001f0: e64d 74ba 2274 16be f249 71be b18a f03d
00000200: dec3 933d ef67 66bc 5239 06bd 726b 073e
00000210: 2d7e aa3e 7f88 87be 29d3 8b3d e51a 14be
00000220: 40a1 3cbd ce7a e13c 1f82 43bc ca9d 9fbe
00000230: 2e8d 71bb a813 793e c9bb 0ebb 5281 e13c
00000240: 1530 073e 95dc 103d 0a15 ee3d c950 d33c
00000250: 9314 833e f294 63bb c7d0 383e 4877 243e
00000260: 807c 56bc e6c4 04be 20b5 1a3d 5fc6 5ebe
00000270: 262f 313e f6db acbe ec77 4c3d a3de 8fbe
00000280: 34a0 ca3d b1ae ca3d f0ec 1d3e f774 5abd
00000290: c206 bebe 4ecc 99be d5bc 61bc b234 563b
000002a0: deb9 303e 50c1 063e 0076 44be 0cf9 853e
000002b0: bad5 863e 79ff 93bc 5f18 88bd 43f3 1cbe
000002c0: 277d f53b f24c 2fbe bd8e 873e 2bad 4ebc
000002d0: 3877 1a3e 77ad 3e3c 89a0 e4bd 5387 663e
000002e0: 29e0 773d d79e 703e f2a5 a43e 2a6d b23e
000002f0: d3dc 02be ab57 6b3e 86b3 adbe dbb9 183e
00000300: 9857 b33d 04ee 0dbe 1521 473e 18ad c53d
00000310: d765 4b3e 6d5f 15be 7cd0 af3e c035 21be
00000320: 4ee7 c63d 88b3 95bd d7a5 2c3e 3494 443d
00000330: a5cb 82be 638e 053f 8ce0 4bbe a69e 02bd
00000340: 0742 0fbe 771f c7bc 2b11 5d3e bc28 99bd
00000350: 1db7 b93e e4f2 073d 761d ec3d 444e 563c
00000360: 1e1e ba3d c893 2bbe 48c6 543e c9a2 3ebe
00000370: ec4d 4a3d e822 40bc 1d0a 10bd f7d8 6d3c
00000380: f986 6d3e c3bb 883e df3d 24bd 6749 a43d
00000390: 736b ba3d 8fc5 b7bd 2a9a 3c3e e612 dabd
000003a0: dc4d 7b3c ef7f 1bbe e877 ecbd 2bd4 573e
000003b0: 7813 a33d e69c 6ebc 35ca 833d abdf 97bd
000003c0: 1cf8 3d3d 6d9b 1cbe 795c d33a f1d2 2b3e
000003d0: a5ec 1e3e 59d5 85bd 00af 6e3d 1d13 d5bd
000003e0: 40bb e3bd 3f49 cf3d 2371 033e 2e27 333e
000003f0: da8f 51bd 6107 5d3e 9b94 e13d 2913 8ebe
0.02969493 -0.10099636 -0.16479081 0.029616311 -0.3348304 -0.18649265 -0.16822216 -0.10341437
0.05099355 0.16770501 -0.09217744 -0.11018046 0.08487165 0.20383407 0.35093954 0.018082362
-0.03682846 -0.02464821 -0.082559586 0.3504026 0.06290336 0.17336135 -0.20485565 0.1424101
0.09200062 0.011440259 -0.14629106 0.14764401 -0.0143000735 0.10174474 0.020194314 0.05229681
0.053258143 0.1774135 0.06343567 0.0036633343 -0.14888582 0.2079563 -0.14449488 -0.2508374
-0.050923612 0.14267914 0.13692771 -0.038430084 0.29918042 -0.10145814 -0.19696254 -0.338702
0.0611677 -0.23011969 0.047001276 0.061654072 0.20107904 -0.14784701 -0.03030852 0.26287788
0.05681309 0.074006714 0.32080275 0.09752349 -0.068794504 0.039638814 0.059581745 0.20848502
0.26670092 0.14140728 0.04910414 0.25768065 0.15182485 -0.045593742 0.04928974 0.036786187
-0.19444269 -0.08086905 0.07457377 -0.24649997 0.29848057 -0.12896164 0.2745369 0.049119033
0.08536524 -0.083204776 0.12601772 0.11333283 0.0714999 0.08041823 -0.10770993 0.28991383
0.15069221 -0.20331788 -0.110869125 -0.07631693 -0.08537881 -0.040228773 -0.28201365 -0.14347869
-0.21811083 0.32850045 -0.22846827 -0.29432434 -0.24665177 0.1391443 0.15169516 0.03863193
0.19951342 0.11974198 0.14099804 0.21334818 -0.25184262 -0.26359442 0.034786146 -0.17286214
-0.20940751 0.09275425 0.48657972 0.08533987 -0.13390738 -0.09197478 -0.05804763 -0.18246725
-0.19314334 0.013795895 0.15552603 -0.15871944 -0.0009319469 -0.14692739 -0.23563364 0.11745203
0.07215093 -0.014062866 -0.03276951 0.13224581 0.3329939 -0.26471326 0.06827385 -0.14463384
-0.046052217 0.027524378 -0.011932879 -0.3117507 -0.0036857831 0.24323905 -0.002177941 0.027527485
0.13201936 0.035366613 0.11625107 0.025795357 0.25601634 -0.003472623 0.18048392 0.16061127
-0.013091207 -0.12965736 0.03777039 -0.2175536 0.17303142 -0.33761567 0.049919054 -0.28099546
0.098938376 0.09896601 0.15422416 -0.053334203 -0.3711453 -0.30038685 -0.013777931 0.0032685217
0.17258403 0.1315968 -0.19185638 0.2616657 0.26334935 -0.018066155 -0.066452734 -0.15327172
0.007491726 -0.17119196 0.26476088 -0.012614529 0.15084541 0.011638037 -0.11163432 0.2251256
0.06051651 0.23498093 0.32157856 0.3484891 -0.1277955 0.22982661 -0.33926028 0.14914648
0.087569416 -0.13860327 0.19446214 0.09652156 0.19863068 -0.14587183 0.34338748 -0.1574316
0.097120866 -0.073096335 0.16860138 0.0479929 -0.25545993 0.5217039 -0.19909877 -0.03188958
-0.13990031 -0.024306996 0.2158858 -0.074784726 0.36272517 0.033190623 0.11529057 0.013080183
0.09087776 -0.16755593 0.20778763 -0.18616785 0.04939072 -0.011727072 -0.035165895 0.0145170605
0.23196019 0.2670575 -0.040098067 0.08021813 0.091025256 -0.08973228 0.18418184 -0.10648136
0.015338387 -0.15185522 -0.11546308 0.2107703 0.07962698 -0.014563775 0.06435052 -0.07415708
0.046379194 -0.15293665 0.0016125581 0.16779687 0.1551996 -0.065348335 0.05827236 -0.10404036
-0.111196995 0.101213925 0.12836127 0.17495415 -0.05116258 0.21584846 0.11014672 -0.27748993

recurrent_weights f4 [80, 80]
00000000: 0000 0000 b969 a73d e669 693d 240f e4bd
00000010: 8a1d 103e 2ee9 123e f00a 49bd 77b9 32bd
00000020: 6dd4 80bd e1e5 8b3d 2c5a 03bf 491f bd3d
00000030: 86b9 42bc fd49 80be 4d54 aa3c 3356 073e
00000040: 3472 ba3c cc38 2c3e a319 0fbd 14cf 0ebc
00000050: bbf2 b7bd a7f6 30be 5084 863d e523 54bd
00000060: 39ae 023d d1f5 303d 7b62 f0bc 8610 b5be
00000070: d011 94be 87a6 713d 7f08 b93c 8c99 803e
00000080: 2b66 e7bb 3715 013c 518b d4bc 634e 8fbd
00000090: 8239 04bc f4d4 1abd 69d0 4c3d d863 aa3d
000000a0: 1b25 8e3e 1d64 383e d1a9 c1bc 6bad 933d
000000b0: 7cca b23d 5873 b6bc 0ba6 a8bd e5e1 ccbd
000000c0: 70d2 f4bd 2e8b 37be 561e 553e 5c11 933e
000000d0: 5c4d e6bd 820d 453d 6c80 efbe 362b 5d3e
000000e0: fe0e 74be 4a1b acbe ad13 e2bd 8945 a6ba
000000f0: e5c1 7b3e afaa dbbd 8e13 54bc 4bc1 14be
00000100: 49da b23e 163c 74be 1e9f aa3d 8f1f 553e
00000110: f12c 7dbd be66 38bc fbb0 713d 7dc8 95bc
00000120: e948 39bd 76ba 3e3e 8e9f 68be 7fb7 bbbd
00000130: 0b38 edbc 2a60 c23e 5936 cebd 17ca 26bd
00000140: aee9 413e 0000 0000 ed92 3bbb 9efc 0c3c
00000150: b373 ffbc d03a 3a3c a13a 4cbd fecf 623e
00000160: deaa 80bd b9f9 6ebe 8569 edbd 78b4 9dbd
00000170: 8079 21bb 5d92 e1bd 04ab 47be 58d2 c83d
00000180: 7bed 52bd 71e6 85be c80f 00be d531 07bd
00000190: 6b3e 9e3e e40e 1abe ec5b 2d3e eed9 51bd
000001a0: 18c3 c8bc 916f 0b3e 934a 05be e20f 3e3d
000001b0: 0530 b8be 2748 863d 3c53 15be 09fd 093c
000001c0: c751 6dbd 8b5d c9bd 4e4b 023e 0ca1 77bd
000001d0: 66af 473e c44c 563e 3e97 233e 3a27 fb3b
000001e0: a815 b9ba 05c1 c33c 44a0 f9bc d8a8 a33e
000001f0: ca51 5abd 3ba3 abbd a4ce 49be 1880 3bbe
00000200: baf7 85bd aca1 3f3e b08f a13c 2d8f 893e
00000210: 4176 35be 313b f8bd 48e8 fcbd 4df7 fb3d
00000220: 6929 3a3d 09b0 0ebe a2c9 c53c cd10 ed3d
00000230: 402c a8bc a870 92bd a017 1bbe 3424 353c
00000240: ae00 583c 41e4 46bd 6734 f13d 151c 2a3e
00000250: 11fe 833c b281 bfbe 9855 8d3e 48a2 2fbe
00000260: 1bb5 33be 44f6 46be bcc9 57be 359a 3bbe
00000270: 89fe 34be b35d db3d 14f2 4a3e 1de8 c4bb
00000280: 9837 32be 637a 32be 0000 0000 a4dc 133a
00000290: 2b32 76be d2de 723e 1680 42be b76f 81bc
000002a0: 8791 b73d 2100 12bd 7890 0dbe 33a1 ecbc
000002b0: f98f 343e 20d3 a03d 2fa2 483d aca8 2fbc
000002c0: 4639 bc3c 4cf6 0d3e 8988 623d b9b6 81be
000002d0: 60d7 0e3e fde8 b43e 189f 67bc 99c2 dbbd
000002e0: b6eb 273d 610f c5bd 4d43 0a3c 83f3 e33d
000002f0: 8d99 76bb a36d 303e 3d1c cdbd dc17 b43d
00000300: 15cc 0ebe 720c a9bb 5c5b 61ba 7e10 6a3b
00000310: d6e1 bd39 e458 163e f496 d63c 3d03 85bd
00000320: 12b0 89be 83d5 c1bc 1df8 033e 1049 013d
00000330: 97f3 45be 5edc a03a 5756 31bd 286c a1be
00000340: 344f e03d ffc9 363e 2ba2 aabe 5fc2 07be
00000350: a7b9 c53e a585 113d 2681 5ebd c306 1cbd
00000360: 2be9 003e 9158 eabd 8f48 9a3c 4bf8 363e
00000370: 6ff9 e63d a5f8 5fbe e538 f5bc 5248 b73d
00000380: 889a 613e c085 ef3d c365 1a3d 2a58 a4be
00000390: 86ac df3d f271 5b3e fecc 88be 2f03 1dbe
000003a0: 9ba9 f23d 75b0 bbbd 41ba 1e3f 377c 8f3d
000003b0: f148 0d3d 0f36 84bd 47a6 40be f1a6 693c
000003c0: f39c 08be 986f 253e 9d60 533e 0000 0000
000003d0: 83a6 943d fa1c 383e 7e36 27be a06f 133e
000003e0: 039f 9c3d 56dd 4bbd 0824 6f3d 61e6 c1bd
000003f0: 29ac c4bd 7024 83bd 0e23 183d 7619 213e
0.0 0.08174462 0.05698576 -0.111357 0.14073768 0.14346763 -0.049082696 -0.043633904
-0.06290517 0.06830955 -0.51309466 0.09234483 -0.011885053 -0.2505645 0.02079215 0.13216476
0.022759534 0.16818541 -0.03493656 -0.008716363 -0.08981844 -0.1728159 0.06568205 -0.051792044
0.031904433 0.04320318 -0.029343834 -0.3536417 -0.2891984 0.058996703 0.022587059 0.25117147
-0.00706174 0.007878593 -0.025945337 -0.06997373 -0.008070352 -0.037800744 0.050003443 0.08319825
0.27762684 0.1800694 -0.023640545 0.07210811 0.08730027 -0.022271797 -0.08234795 -0.100040235
-0.119542 -0.17924187 0.20812353 0.28724182 -0.11245224 0.048108585 -0.46777666 0.21598515
-0.23833844 -0.3361457 -0.11038909 -0.0012685518 0.24585684 -0.10725915 -0.012944115 -0.1452686
0.34932163 -0.23851046 0.083311304 0.2081282 -0.061810438 -0.011254964 0.059006672 -0.018284077
-0.04523555 0.18625817 -0.22717115 -0.091658585 -0.028957387 0.37963992 -0.1006896 -0.04072007
0.18936798 0.0 -0.002862151 0.0086051505 -0.0311831 0.011366561 -0.0498606 0.22149655
-0.0628259 -0.23337449 -0.11592392 -0.07700437 -0.002463907 -0.11014245 -0.19498831 0.09805745
-0.05149601 -0.26152375 -0.1250602 -0.033006508 0.30906996 -0.15044743 0.16929597 -0.051233225
-0.02450709 0.13616778 -0.13016729 0.046401866 -0.35974136 0.06556731 -0.14582533 0.008422145
-0.057939317 -0.09832295 0.12724039 -0.06045632 0.19500503 0.20927721 0.15975663 0.0076645883
-0.0014120834 0.02389575 -0.030471928 0.31964755 -0.053300656 -0.08380743 -0.19707733 -0.18310583
-0.06541391 0.18714017 0.019721836 0.26867047 -0.17720892 -0.12120665 -0.12348992 0.12303028
0.045449648 -0.1393434 0.024143998 0.1157547 -0.020528913 -0.07150394 -0.15145731 0.011055995
0.013183756 -0.048557524 0.11777573 0.16612275 0.01611236 -0.37403637 0.27604365 -0.17151749
-0.17549555 -0.1942988 -0.2107305 -0.18320544 -0.17675222 0.10711231 0.19818908 -0.0060091154
-0.1740402 -0.174295 0.0 0.0005640483 -0.24042575 0.23717812 -0.18994173 -0.01580034
0.08963304 -0.035644654 -0.13824642 -0.02888546 0.17633046 0.07852769 0.048982795 -0.010721367
0.022976529 0.13863486 0.05530599 -0.2533472 0.13949347 0.35334006 -0.014137052 -0.10730476
0.040996276 -0.09622074 0.008438897 0.111304305 -0.0037628144 0.17229323 -0.10015152 0.08793613
-0.13945039 -0.0051589543 -0.00085966825 0.0035715397 0.0003621715 0.14682347 0.026195027 -0.06494758
-0.26892143 -0.02366138 0.12887616 0.03156382 -0.19331203 0.0012272706 -0.04329523 -0.3152783
0.10952607 0.17850493 -0.3332685 -0.1325774 0.38618204 0.035527844 -0.054322384 -0.038092386
0.12588947 -0.11442674 0.018833427 0.17868154 0.112780444 -0.21872194 -0.029934356 0.08949341
0.22031605 0.11695433 0.037694704 -0.32098514 0.10921578 0.21430185 -0.26718897 -0.15333246
0.11848756 -0.09164516 0.6200295 0.07006114 0.03449339 -0.06455623 -0.1881343 0.014260993
-0.13341121 0.16155851 0.20642324 0.0 0.07258322 0.17979804 -0.16329381 0.1439805
0.076475166 -0.04977163 0.05838397 -0.094677694 -0.096031494 -0.06403434 0.037142806 0.15732369

p f4 [80]
00000000: 0000 4843 0000 4843 0000 4843 0000 4843
00000010: 0000 4843 0000 4843 0000 4843 0000 4843
00000020: 0000 4843 0000 4843 0000 4843 0000 4843
00000030: 0000 4843 0000 4843 0000 4843 0000 4843
00000040: 0000 4843 0000 4843 0000 4843 0000 4843
00000050: 0000 4843 0000 4843 0000 4843 0000 4843
00000060: 0000 4843 0000 4843 0000 4843 0000 4843
00000070: 0000 4843 0000 4843 0000 4843 0000 4843
00000080: 0000 4843 0000 4843 0000 4843 0000 4843
00000090: 0000 4843 0000 4843 0000 4843 0000 4843
000000a0: 0000 4843 0000 4843 0000 4843 0000 4843
000000b0: 0000 4843 0000 4843 0000 4843 0000 4843
000000c0: 0000 4843 0000 4843 0000 4843 0000 4843
000000d0: 0000 4843 0000 4843 0000 4843 0000 4843
000000e0: 0000 4843 0000 4843 0000 4843 0000 4843
000000f0: 0000 4843 0000 4843 0000 4843 0000 4843
00000100: 0000 4843 0000 4843 0000 4843 0000 4843
00000110: 0000 4843 0000 4843 0000 4843 0000 4843
00000120: 0000 4843 0000 4843 0000 4843 0000 4843
00000130: 0000 4843 0000 4843 0000 4843 0000 4843
200.0 200.0 200.0 200.0 200.0 200.0 200.0 200.0
200.0 200.0 200.0 200.0 200.0 200.0 200.0 200.0
200.0 200.0 200.0 200.0 200.0 200.0 200.0 200.0
200.0 200.0 200.0 200.0 200.0 200.0 200.0 200.0
200.0 200.0 200.0 200.0 200.0 200.0 200.0 200.0
200.0 200.0 200.0 200.0 200.0 200.0 200.0 200.0
200.0 200.0 200.0 200.0 200.0 200.0 200.0 200.0
200.0 200.0 200.0 200.0 200.0 200.0 200.0 200.0
200.0 200.0 200.0 200.0 200.0 200.0 200.0 200.0
200.0 200.0 200.0 200.0 200.0 200.0 200.0 200.0

p f4 [80]
00000000: 0000 c842 0000 c842 0000 c842 0000 c842
00000010: 0000 c842 0000 c842 0000 c842 0000 c842
00000020: 0000 c842 0000 c842 0000 c842 0000 c842
00000030: 0000 c842 0000 c842 0000 c842 0000 c842
00000040: 0000 c842 0000 c842 0000 c842 0000 c842
00000050: 0000 c842 0000 c842 0000 c842 0000 c842
00000060: 0000 c842 0000 c842 0000 c842 0000 c842
00000070: 0000 c842 0000 c842 0000 c842 0000 c842
00000080: 0000 c842 0000 c842 0000 c842 0000 c842
00000090: 0000 c842 0000 c842 0000 c842 0000 c842
000000a0: 0000 c842 0000 c842 0000 c842 0000 c842
000000b0: 0000 c842 0000 c842 0000 c842 0000 c842
000000c0: 0000 c842 0000 c842 0000 c842 0000 c842
000000d0: 0000 c842 0000 c842 0000 c842 0000 c842
000000e0: 0000 c842 0000 c842 0000 c842 0000 c842
000000f0: 0000 c842 0000 c842 0000 c842 0000 c842
00000100: 0000 c842 0000 c842 0000 c842 0000 c842
00000110: 0000 c842 0000 c842 0000 c842 0000 c842
00000120: 0000 c842 0000 c842 0000 c842 0000 c842
00000130: 0000 c842 0000 c842 0000 c842 0000 c842
100.0 100.0 100.0 100.0 100.0 100.0 100.0 100.0
100.0 100.0 100.0 100.0 100.0 100.0 100.0 100.0
100.0 100.0 100.0 100.0 100.0 100.0 100.0 100.0
100.0 100.0 100.0 100.0 100.0 100.0 100.0 100.0
100.0 100.0 100.0 100.0 100.0 100.0 100.0 100.0
100.0 100.0 100.0 100.0 100.0 100.0 100.0 100.0
100.0 100.0 100.0 100.0 100.0 100.0 100.0 100.0
100.0 100.0 100.0 100.0 100.0 100.0 100.0 100.0
100.0 100.0 100.0 100.0 100.0 100.0 100.0 100.0
100.0 100.0 100.0 100.0 100.0 100.0 100.0 100.0

p f4 [80]
00000000: 0000 803f 0000 803f 0000 803f 0000 803f
00000010: 0000 803f 0000 803f 0000 803f 0000 803f
00000020: 0000 803f 0000 803f 0000 803f 0000 803f
00000030: 0000 803f 0000 803f 0000 803f 0000 803f
00000040: 0000 803f 0000 803f 0000 803f 0000 803f
00000050: 0000 803f 0000 803f 0000 803f 0000 803f
00000060: 0000 803f 0000 803f 0000 803f 0000 803f
00000070: 0000 803f 0000 803f 0000 803f 0000 803f
00000080: 0000 803f 0000 803f 0000 803f 0000 803f
00000090: 0000 803f 0000 803f 0000 803f 0000 803f
000000a0: 0000 803f 0000 803f 0000 803f 0000 803f
000000b0: 0000 803f 0000 803f 0000 803f 0000 803f
000000c0: 0000 803f 0000 803f 0000 803f 0000 803f
000000d0: 0000 803f 0000 803f 0000 803f 0000 803f
000000e0: 0000 803f 0000 803f 0000 803f 0000 803f
000000f0: 0000 803f 0000 803f 0000 803f 0000 803f
00000100: 0000 803f 0000 803f 0000 803f 0000 803f
00000110: 0000 803f 0000 803f 0000 803f 0000 803f
00000120: 0000 803f 0000 803f 0000 803f 0000 803f
00000130: 0000 803f 0000 803f 0000 803f 0000 803f
1.0 1.0 1.0 1.0 1.0 1.0 1.0 1.0
1.0 1.0 1.0 1.0 1.0 1.0 1.0 1.0
1.0 1.0 1.0 1.0 1.0 1.0 1.0 1.0
1.0 1.0 1.0 1.0 1.0 1.0 1.0 1.0
1.0 1.0 1.0 1.0 1.0 1.0 1.0 1.0
1.0 1.0 1.0 1.0 1.0 1.0 1.0 1.0
1.0 1.0 1.0 1.0 1.0 1.0 1.0 1.0
1.0 1.0 1.0 1.0 1.0 1.0 1.0 1.0
1.0 1.0 1.0 1.0 1.0 1.0 1.0 1.0
1.0 1.0 1.0 1.0 1.0 1.0 1.0 1.0

p f4 [80]
00000000: 0000 0000 0000 0000 0000 0000 0000 0000
00000010: 0000 0000 0000 0000 0000 0000 0000 0000
00000020: 0000 0000 0000 0000 0000 0000 0000 0000
00000030: 0000 0000 0000 0000 0000 0000 0000 0000
00000040: 0000 0000 0000 0000 0000 0000 0000 0000
00000050: 0000 0000 0000 0000 0000 0000 0000 0000
00000060: 0000 0000 0000 0000 0000 0000 0000 0000
00000070: 0000 0000 0000 0000 0000 0000 0000 0000
00000080: 0000 0000 0000 0000 0000 0000 0000 0000
00000090: 0000 0000 0000 0000 0000 0000 0000 0000
000000a0: 0000 0000 0000 0000 0000 0000 0000 0000
000000b0: 0000 0000 0000 0000 0000 0000 0000 0000
000000c0: 0000 0000 0000 0000 0000 0000 0000 0000
000000d0: 0000 0000 0000 0000 0000 0000 0000 0000
000000e0: 0000 0000 0000 0000 0000 0000 0000 0000
000000f0: 0000 0000 0000 0000 0000 0000 0000 0000
00000100: 0000 0000 0000 0000 0000 0000 0000 0000
00000110: 0000 0000 0000 0000 0000 0000 0000 0000
00000120: 0000 0000 0000 0000 0000 0000 0000 0000
00000130: 0000 0000 0000 0000 0000 0000 0000 0000
0.0 0.0 0.0 0.0 0.0 0.0 0.0 0.0
0.0 0.0 0.0 0.0 0.0 0.0 0.0 0.0
0.0 0.0 0.0 0.0 0.0 0.0 0.0 0.0
0.0 0.0 0.0 0.0 0.0 0.0 0.0 0.0
0.0 0.0 0.0 0.0 0.0 0.0 0.0 0.0
0.0 0.0 0.0 0.0 0.0 0.0 0.0 0.0
0.0 0.0 0.0 0.0 0.0 0.0 0.0 0.0
0.0 0.0 0.0 0.0 0.0 0.0 0.0 0.0
0.0 0.0 0.0 0.0 0.0 0.0 0.0 0.0
0.0 0.0 0.0 0.0 0.0 0.0 0.0 0.0

super f4 [80]
00000000: 0000 c842 0000 c842 0000 c842 0000 c842
00000010: 0000 c842 0000 c842 0000 c842 0000 c842
00000020: 0000 c842 0000 c842 0000 c842 0000 c842
00000030: 0000 c842 0000 c842 0000 c842 0000 c842
00000040: 0000 c842 0000 c842 0000 c842 0000 c842
00000050: 0000 c842 0000 c842 0000 c842 0000 c842
00000060: 0000 c842 0000 c842 0000 c842 0000 c842
00000070: 0000 c842 0000 c842 0000 c842 0000 c842
00000080: 0000 c842 0000 c842 0000 c842 0000 c842
00000090: 0000 c842 0000 c842 0000 c842 0000 c842
000000a0: 0000 c842 0000 c842 0000 c842 0000 c842
000000b0: 0000 c842 0000 c842 0000 c842 0000 c842
000000c0: 0000 c842 0000 c842 0000 c842 0000 c842
000000d0: 0000 c842 0000 c842 0000 c842 0000 c842
000000e0: 0000 c842 0000 c842 0000 c842 0000 c842
000000f0: 0000 c842 0000 c842 0000 c842 0000 c842
00000100: 0000 c842 0000 c842 0000 c842 0000 c842
00000110: 0000 c842 0000 c842 0000 c842 0000 c842
00000120: 0000 c842 0000 c842 0000 c842 0000 c842
00000130: 0000 c842 0000 c842 0000 c842 0000 c842
100.0 100.0 100.0 100.0 100.0 100.0 100.0 100.0
100.0 100.0 100.0 100.0 100.0 100.0 100.0 100.0
100.0 100.0 100.0 100.0 100.0 100.0 100.0 100.0
100.0 100.0 100.0 100.0 100.0 100.0 100.0 100.0
100.0 100.0 100.0 100.0 100.0 100.0 100.0 100.0
100.0 100.0 100.0 100.0 100.0 100.0 100.0 100.0
100.0 100.0 100.0 100.0 100.0 100.0 100.0 100.0
100.0 100.0 100.0 100.0 100.0 100.0 100.0 100.0
100.0 100.0 100.0 100.0 100.0 100.0 100.0 100.0
100.0 100.0 100.0 100.0 100.0 100.0 100.0 100.0

weight f4 [4, 80]
00000000: e1f7 d5bd bc77 2bbd 251f 98bd 0f63 29bc
00000010: 8fe6 0d3d 5cb9 9e3d 1f88 563d d7da ae3b
00000020: ece1 44bc cb2f a6bc f0dd 69bc d899 c73d
00000030: faf2 38bd 7aa2 55bd 59e2 d33d 4307 bbbd
00000040: 327d a3bd 82bd 9a3c ae5d 833c 427a dabd
00000050: e89b a7bd a3be 88bd f513 bc3d 2a5b debc
00000060: 05aa 433d 65a2 893d 5020 bc3d ea52 6b3d
00000070: 62a3 723d 460a b83d 5712 0b3d c2ba d4bd
00000080: c1ef 7f3c 7a17 0fbd 15e2 123d 69c0 ab3d
00000090: 926d 60bd 0001 a53b 5442 4e3d e501 b43d
000000a0: b5d5 d23c e102 37bc 80bd a8bd 6282 14bd
000000b0: 6db6 783d a271 d13d c77e 2c3d 3ec5 793d
000000c0: 38a2 053c 4490 203d df4f 8f3d b2ec d9bc
000000d0: 1d7b c0bc 5927 ab3d 8bfe 7a3d 077b 8b3d
000000e0: f603 c23c 86cf d3bd f666 76bd dc1d ddbd
000000f0: 3320 e63c 50a1 2c3c 2d6b 973d ec72 6e3d
00000100: ee10 7fbd f094 22bd 5d3c 8c3d 7249 893d
00000110: 3dbb 6b3d d56b ccbd 3440 28bc eef0 8e3d
00000120: 133a b33d ffb2 b23d eac1 febc d6fc b3bd
00000130: 6d60 bd3d e9e1 20bd 1d6a 203c b51c 91bd
00000140: 3a8b c93d fb42 93bd c4af ad3d 0f68 643b
00000150: 981f cc3d 84b1 743d d190 39bd 0ba5 423d
00000160: 3a89 6ebd da45 a9bc 92bd 9cbc 95ed 7dbd
00000170: 631d d3bd d8b6 873d 02eb 9ebd f44a 973d
00000180: 8a66 cbbd 92c5 b4bd 3a7a aebd a7a0 ae3d
00000190: f34b 623d 0ddd b1bc a668 47bd a52e 53bd
000001a0: c43a 023c 330a b53c 9d15 d93d 0c11 36bb
000001b0: 37ed aebd f485 bebc b1ec dbbd b1e0 713d
000001c0: 197c e23d a021 0a3c 2e28 213d 197b 503d
000001d0: d3b0 c03d 159a e2bd 431c dcbd 2e4e 123d
000001e0: eadd dd3c 00ba 86bd 3ae0 61bd c0dc f23b
000001f0: 1cdb 2abc 480e 1f3d 00c1 0abc 4969 863b
00000200: 5bd8 cfbb f14d 5e3b f61a 84bc 7274 d63c
00000210: 588b b0bd 9e1c 87bc 0f71 bd3d c012 153d
00000220: b35f 9a3d 9a1c 35bd aa74 84bd 705e d83d
00000230: 3549 3abd c3bd c83a 15af 9fbd f788 ab3d
00000240: c7c4 d4bd 53d4 ae3d 1f5d b1bc 2b1d 033a
00000250: fcf2 2cbd 3670 b1bc 02b5 be3d 5726 67bd
00000260: 990b 893d 454d ed3c daea d7bd 4ace ddbd
00000270: 69e3 a13d c0b4 a43b baff a23d 3b5f 3f3d
00000280: bdad 1f3d a7da 34bd a3be 9c3d 6a5d 7e3d
00000290: f263 34bc e29c b83d f9c5 c53c 892d 0cbd
000002a0: 7a7f a5bd 7749 973d 5153 e2bb 2932 8abd
000002b0: 89c1 c83c 388b 6bbd 0a0a d4bd bf20 d3bd
000002c0: c41e 1bbd bf88 e43d 7a82 8f3d faa0 e23d
000002d0: 2b44 07bd 9fbe 2ebd 9b86 2cbd 427e e83c
000002e0: a00a d13d 49ff 643d 1da8 833d 4e8e 68bd
000002f0: 2a37 50bd 033b 82bd 10f1 dd3c 711c debd
00000300: b631 40bd f579 52bd 69d7 95bb ec6d 15bc
00000310: 8d44 92bc e467 55bc f440 b1bd a159 9bbd
00000320: 4488 7ebd c57a 53bd 8dec 603d 9436 bd3d
00000330: afdd 783d 62b2 c7bd 18f7 243d dd84 45bd
00000340: cb51 d2bd a4f9 e03d 142c a7bc 5d7b df3b
00000350: 7565 5cbd f1aa bcbd 00a3 703c bb54 7bbd
00000360: 55a5 4f3d 8550 d3bc a625 97bc 1dc3 b1bd
00000370: fbe7 b03b 9076 2c3d f913 13bc f9ee 95bc
00000380: 373a 33bc 4bfc 72bd a6cf bcbd a909 2a3d
00000390: 3ab1 2abd 7736 5f3d ef52 04bd d147 be3d
000003a0: d8fe a13d 385f d9bd 869d 783d bc7f c7bd
000003b0: 8079 6cbd 1058 873d fc17 41bd ecc0 6fbd
000003c0: bd23 d1bd 0898 f73a 952c 4fbd 7da8 1abd
000003d0: 58a6 963d d0c3 d33d 72ad 3ebd bafa 5bbd
000003e0: d685 b8bd edc1 123d c2f1 18bd b1c0 cabd
000003f0: 5bef 273d 25c1 dfbd 6b8e de3d 95bf bc3c
-0.1044767 -0.041862234 -0.07427815 -0.010338559 0.034643706 0.07750198 0.05237591 0.0053361463
-0.012016755 -0.020286461 -0.014274105 0.0974614 -0.045153596 -0.052156903 0.10345907 -0.091322444
-0.079828635 0.018889192 0.01603588 -0.1066785 -0.08184034 -0.06676986 0.09183494 -0.02714308
0.047769565 0.067204274 0.091858506 0.05745212 0.059237845 0.089863345 0.033953037 -0.10387184
0.015621127 -0.0349345 0.03586014 0.08386309 -0.054791994 0.0050355196 0.050356224 0.08789424
0.02573667 -0.01117012 -0.08239269 -0.036257155 0.06072085 0.10226752 0.04211309 0.06097912
0.008156352 0.039200082 0.06997656 -0.026602123 -0.023496205 0.08357114 0.061277907 0.06810575
0.02368353 -0.10342316 -0.060156785 -0.10796711 0.028091526 0.010536507 0.07393489 0.058215067
-0.062272005 -0.03969282 0.06847451 0.06703462 0.05755161 -0.09981505 -0.0102692135 0.069795474
0.08751311 0.08725547 -0.031098325 -0.08788459 0.092469074 -0.039277945 0.009790924 -0.070855536
0.098410085 -0.0719051 0.0848079 0.0034852063 0.099669635 0.059739605 -0.045304123 0.04752068
-0.05823634 -0.02066319 -0.019133363 -0.061994154 -0.103083394 0.066266716 -0.07759668 0.07387343
-0.09931667 -0.08826746 -0.085194066 0.08526736 0.055248212 -0.02171185 -0.048683785 -0.051558156
0.007948581 0.02209959 0.105998255 -0.0027781157 -0.08541339 -0.023257233 -0.10738505 0.059052173
0.11058826 0.008430868 0.03934496 0.050898645 0.094087265 -0.11064545 -0.10747578 0.03571909
0.027083356 -0.065784454 -0.05514548 0.0074115694 -0.010428216 0.03883198 -0.008468866 0.0041019064
-0.0063429303 0.0033920968 -0.016126137 0.026178572 -0.08620328 -0.016493138 0.0925008 0.036394835
0.075377844 -0.04421673 -0.064675644 0.105648875 -0.045479972 0.0015315342 -0.07797066 0.08375733
-0.10389095 0.085365914 -0.021650849 0.00050016 -0.042223915 -0.021659952 0.09311868 -0.056433048
0.06691665 0.028967509 -0.10542841 -0.10830362 0.07904703 0.00502643 0.07958932 0.04672168
0.03898405 -0.044153836 0.076535486 0.062100805 -0.011010157 0.09014298 0.024142252 -0.034223113
-0.08080955 0.07387059 -0.0069069047 -0.067478485 0.024506347 -0.057505816 -0.10353477 -0.1030898
-0.037871137 0.11158895 0.07007308 0.1106586 -0.033023994 -0.04266226 -0.042120557 0.028380517
0.10207105 0.05590752 0.064285494 -0.056776337 -0.05083386 -0.06358912 0.027092487 -0.108452685
-0.046922408 -0.05138584 -0.004572798 -0.009120446 -0.017854953 -0.013025258 -0.08654967 -0.07585455
-0.06214167 -0.051630754 0.054913092 0.092389256 0.06075829 -0.09750821 0.04027471 -0.04822241
-0.10269507 0.10985115 -0.02040676 0.006820126 -0.053807694 -0.09212292 0.0146873 -0.061360102
0.050694782 -0.02579523 -0.01845057 -0.08679793 0.005398748 0.042105258 -0.00897693 -0.018302428
-0.0109391725 -0.059322637 -0.09219293 0.04151312 -0.041672923 0.0544953 -0.032305654 0.09291042
0.07909936 -0.10613865 0.0606971 -0.0974116 -0.05773306 0.066085935 -0.047142014 -0.058533594
-0.10211895 0.0018889913 -0.050579626 -0.03775834 0.07355946 0.10340083 -0.04655213 -0.05370591
-0.09009902 0.035829473 -0.037339933 -0.09900034 0.04099975 -0.10925511 0.10867008 0.023040572

bias f4 [4]
00000000: 709d 593d d2ad 96bd df95 c1bd 8d9d 14bd
0.05312866 -0.07357372 -0.09452414 -0.036283065

weight f4 [256, 80]
00000000: 0563 89be d5ee acbf 60e1 1c40 e151 53bf
00000010: e89c 12bf 58e6 b5bf 105a 86bf 37ba 153f
00000020: eca3 bdbe 7916 4d3f a240 92bf e009 ad3d
00000030: c713 b63f 3ec1 7fbe fd0c 503f 86c6 8dbf
00000040: cb83 b4bf 484c f63d 2b5e 05bf 3dc9 ec3e
00000050: d8b1 0dbf 9adb 5c3f 94d2 16bf d390 ce3e
00000060: bf33 283e 876a e7be 7441 fd3e 51d2 50bf
00000070: 825c a5bf 5318 9dbd 7b35 59bf bdb6 4f3f
00000080: bbef c03f af84 333e a298 eabe 78bb cebe
00000090: 9344 71bf e259 1e3f 50b5 acbf f207 173d
000000a0: ff9c 6c3f 927c 2f3f 18b7 58be b7d1 20bf
000000b0: 0e6c 6cbf f177 6c3f a0c5 873f fc9a 34be
000000c0: 7df5 a13f e925 14bf 626a bbbe 60d2 48be
000000d0: b275 ea3e bcf1 0640 3c66 87bd d179 98bf
000000e0: 6a48 07c0 33f9 01bd 7e79 983f 726d 873f
000000f0: c1a9 ffbd dc64 3cbc 6fa2 a13f ae21 5d3e
00000100: 6621 bcbd 5613 99bf 1ac3 15be 53eb 07bf
00000110: 8e13 31bf 6ba4 9cbf fda7 8abe b78d 3d3f
00000120: 636a 473f 4ba9 66bf e07e 41bf ac40 943e
00000130: ee97 43be 6096 02bf c6ec 0b3f 32c6 183f
00000140: df45 f0bf 9ea5 b93f 17e0 8f3d bac3 f33f
00000150: df56 8b3f 5676 c93f 6f68 85bd 850d e03b
00000160: c393 51c0 99ea 76bf e426 e63f 869e 10c0
00000170: 8bed 56be f54b 8ebd 1a1a bd3e 68a4 f13e
00000180: e432 29bf 4ce6 8fbf 4757 c9bd 20d5 22be
00000190: 08ee 0fbf 4fbd 62bf 3fd9 a4bf 70ca 20bf
000001a0: d9d4 f73e 4f8b b53f ffde 7dbf 7b59 543f
000001b0: 40fa 12bf ecbd 69bf 5e78 7a3e 3f0b 133f
000001c0: de86 b43f a811 5abf a898 153f df07 95bf
000001d0: 3f7f 76bf 8786 58be c35d 41bf 9878 d2bf
000001e0: a4fa b5bf 7bc3 17c0 b383 733e c6b8 5ebf
000001f0: 0033 06bf ce60 9c3e 8b5b d73f 94fe 5b3f
00000200: dfc1 a33f 90ac ef3f 24d0 69bf 94f1 793f
00000210: 2b7d 9ebf d5f4 8dbf 123e b43e 1833 3fbf
00000220: dc41 1c3f 087b 253f 4a9b 873f a470 ab3f
00000230: ba13 35bf 53bd 2c3e 007d bdbe 2ad9 63bf
00000240: 9409 bf3f b9f6 e6be ac59 693f 5828 87bd
00000250: c59f d43e 8f42 a03f 1021 633f d6b0 4fbf
00000260: e04d 23c0 3607 aebf f7bd 1abf 27ab 773f
00000270: 838e 08bf 3ade 813f d1b9 083f 209c 88bf
00000280: 2582 b63f 68b2 fd3f 0b4a c83e a524 9cbe
00000290: 6799 e93e b234 d0be 36fa 063f 5f2b 9abf
000002a0: 273d b53f b1dd 69bf 30f4 17bf af57 143e
000002b0: 56bd 303e 8b4f 06c0 32f9 42be a841 50bf
000002c0: 75ae 16bf b254 01c0 6c42 2dbf c8d4 813f
000002d0: 4b84 95be 33a1 02be 361e f2bf 0371 d2bc
000002e0: 74e7 233f ac42 96be dbc0 9f3f a059 193f
000002f0: 832f c13f dcc8 793f fb20 0ebf c1c1 21be
00000300: ff01 79be a3d5 90bf 8aac 7cbf b87e e1bf
00000310: 658d 8c3e 6f2d dd3e 0018 843f 315b 95bf
00000320: 884d 91bf d0dd cc3e 2f27 8d3e 108d dc3e
00000330: 64f5 a43f 1302 85bf b881 9c3e 935c 8fbf
00000340: 20a3 5c3e 7e70 c6be 346f 8ebf 3dba 47bf
00000350: e20d 9d3f 898c 9d3f a589 863f 11b7 10be
00000360: 674a 0abf 1d70 cbbf 682c 123e e9ec 9ebf
00000370: 5916 1dbe ac9b 97bf 77d1 f93f fadd 87bf
00000380: 338a 16bd eb30 94bf 136e 64bf 5ceb 8dbf
00000390: f372 33bf 8ac0 aa3f aa5f cd3e 0da7 a43f
000003a0: adc6 233f e12d a03d 3851 dd3e 8ccf 07be
000003b0: b8f1 81be 3bfe 753e 28ac 82bf b5f1 823f
000003c0: f820 b63d 36c9 34bf 01f7 02be f0ec 643f
000003d0: 6e11 e03e 1bde e53d a343 1bbe 8a0a 36be
000003e0: 0413 b13f 5564 90be f1c3 c33e e12d 1bbe
000003f0: 701b 07bd 4b1f bd3d 4d1a a1bf 43ec e1bf
-0.26833358 -1.3510386 2.4512558 -0.8254681 -0.5727067 -1.421092 -1.0496235 0.58487266
-0.37039125 0.80112416 -1.1425974 0.08449149 1.4224786 -0.2497606 0.8126982 -1.107621
-1.410272 0.12026268 -0.52096814 0.46247283 -0.55349493 0.86272585 -0.58915067 0.40344867
0.1642599 -0.4519846 0.49464 -0.8157092 -1.2918856 -0.07670655 -0.8484723 0.8113821
1.507316 0.17531084 -0.45819575 -0.40377402 -0.9424526 0.618559 -1.3492832 0.03687281
0.9242706 0.68549454 -0.21163595 -0.6282 -0.9235238 0.92370516 1.0607185 -0.17637247
1.2653042 -0.57870346 -0.366046 -0.19611502 0.4579292 2.1085043 -0.066112965 -1.1912175
-2.1137948 -0.031731796 1.1912076 1.0580275 -0.1248355 -0.011498656 1.2627696 0.21594879
-0.09186058 -1.1959026 -0.14625207 -0.5309345 -0.69170463 -1.2237676 -0.2708129 0.74044365
0.7789671 -0.9010207 -0.7558422 0.2895559 -0.19100925 -0.51010704 0.5465816 0.5967742
-1.8771323 1.4503667 0.070251636 1.9044106 1.0885886 1.5739238 -0.0651406 0.006837549
-3.2746437 -0.9645172 1.7980618 -2.2596755 -0.20989053 -0.069480814 0.36933976 0.47195745
-0.6609328 -1.1242156 -0.098311 -0.15901613 -0.5622258 -0.8857011 -1.2878798 -0.62808895
0.48404577 1.4183139 -0.9916839 0.82949036 -0.574131 -0.9130542 0.24459979 0.57439035
1.4103658 -0.8518319 0.5843606 -1.1643027 -0.9628791 -0.21145068 -0.75533694 -1.6443052
-1.4217114 -2.3713062 0.23780708 -0.8700069 -0.5242157 0.30542606 1.6824812 0.8593533
1.279354 1.8724537 -0.9133322 0.97634244 -1.2381948 -1.1090342 0.35203606 -0.7468734
0.61037993 0.64640856 1.0594265 1.339375 -0.70733225 0.16869096 -0.3700943 -0.8900324
1.4924798 -0.4511011 0.91152453 -0.06599492 0.41528144 1.2520312 0.88722324 -0.81129205
-2.551628 -1.3595951 -0.60446113 0.9674553 -0.53342456 1.0145943 0.53408533 -1.0672646
1.4258467 1.982007 0.3911899 -0.30496708 0.4562485 -0.40665203 0.5272554 -1.2044486
1.4159287 -0.913539 -0.59356976 0.14486574 0.17259726 -2.098605 -0.19040373 -0.81350183
-0.5885995 -2.0207944 -0.67679477 1.0143061 -0.29202494 -0.12756805 -1.891547 -0.025688654
0.64025044 -0.29347742 1.248073 0.5990238 1.5092624 0.9757211 -0.55519074 -0.15796567
-0.24317168 -1.1315197 -0.98700774 -1.7616796 0.27451625 0.43198726 1.0319824 -1.1668454
-1.1351786 0.4001298 0.27568957 0.43076372 1.2887387 -1.0391258 0.30567718 -1.1200126
0.21546602 -0.387577 -1.1127687 -0.7801855 1.2269862 1.2308513 1.0510756 -0.14132334
-0.5401978 -1.5893589 0.14274752 -1.2416049 -0.15340556 -1.1844382 1.9517049 -1.0614617
-0.03675289 -1.1577429 -0.8923046 -1.1087451 -0.70097274 1.3340008 0.40112048 1.286348
0.6397503 0.07821251 0.43226027 -0.13262767 -0.2537973 0.24022762 -1.0208788 1.0230013
0.08893007 -0.70619524 -0.12789537 0.8942404 0.43763298 0.11224004 -0.1516252 -0.17777458
1.3833928 -0.28201547 0.3823543 -0.1515422 -0.03298515 0.09234484 -1.2586151 -1.7650226
