Alpha_1e-9/Retraining_2/4-PAM_SNN_MMSE_Equalizer_im_dd.pt (torch, 246267 bytes, 11 tensors)

weight f4 [80, 328]
-0.009035127 0.007569791 -0.040688213 -0.04376207 0.02471719 -0.03099872 -0.01779935 -0.051734317
-0.03976828 0.019545892 -0.0097961975 0.011058551 0.027408512 0.038968664 -0.043613356 0.025384793
-0.03076353 -0.033564873 -0.028781515 -0.044060744 0.011736245 0.052805543 -0.037434068 0.014380722
-0.053917386 -0.022758633 -0.053116553 -0.036808185 0.027159883 0.045104086 -0.016150955 -0.014135152
-0.048686165 0.011532722 -0.0065365448 0.027631665 -0.0049379314 0.013142203 0.011562625 -0.010057545
-0.025143271 -0.015853457 0.044212036 6.984406e-05 0.009756856 0.019079495 0.015506106 0.034998696
-0.003488958 -0.0018454209 -0.042531684 0.0044513727 -0.0051511168 -0.033611752 -0.026698112 -0.011717933
-0.0024084651 0.019484177 -0.033645216 0.052800164 0.029892463 0.033759043 0.017769584 0.027206453
0.008643965 0.03593732 0.051697444 -0.025276404 -0.026707077 -0.015113561 0.027939364 -0.02844403
0.052860722 -0.051137395 0.024374539 0.03992039 -0.019160582 -0.05141947 0.008169209 0.002350877
-0.030398143 -0.026923902 -0.017537357 0.042011853 -0.023180805 -0.05265083 -0.023259265 -0.02793519
0.012865605 0.028787991 0.02290728 0.0015629312 -0.04873491 -0.052366666 0.026709408 0.052799735
-0.044032782 0.053144522 -0.02948913 0.038222246 0.0031621635 -0.017667895 0.017129488 0.01896091
-0.046724588 -0.02742803 0.026024638 -0.040941548 0.05356638 0.0027740225 0.053324085 0.04112109
-0.0066633383 0.03125652 -0.0448375 0.013624167 0.044101384 -0.034079835 0.045147188 0.04884993
-0.037147596 -0.008368656 -0.040917322 -0.031917065 -0.04965874 0.04690269 -0.029441547 -0.027022472
-0.0124028865 -0.024644785 0.016294204 -0.05336877 -0.0137322275 -0.04712757 0.038003385 0.039035544
-0.027127445 0.04933481 0.012691557 0.0068860813 -0.005029556 -0.0036135598 -0.023894984 -0.0034447322
0.021740204 0.027672756 0.018004814 -0.003991946 -0.025986092 -0.033306662 -0.01383909 -0.041076273
0.0011921212 0.040689074 -0.053378355 -0.04239876 0.0088663325 -0.021946525 -0.01599662 0.052195895
-0.042754907 -0.022282725 -0.021351542 -0.01643825 -0.05217894 0.02241427 0.022142898 -0.00485724
-0.007440858 -0.011229453 0.046659306 0.029647999 0.04552031 -0.04510981 -0.01609488 0.036122195
-0.046864696 -0.050351754 -0.00036542577 0.03543565 -0.043397162 0.0021353157 -0.030557914 0.047592975
0.015037208 -0.054360896 0.04996729 0.011208936 0.054157797 -0.033782054 -0.0068518864 0.00286959
0.004613651 -0.046709474 0.009934274 0.019492932 -0.032966807 -0.017939743 -0.008880024 0.0061310926
-0.0503568 0.0065324637 -0.030863034 -0.030699333 -0.04625441 -0.036074918 0.05289046 0.031572413
-0.041584566 -0.0042169397 0.054487914 0.011276963 0.03653431 0.03431562 0.035454042 -0.0431041
-0.024947982 -0.017174702 0.0005056076 0.048827235 0.0003993243 0.034709215 -0.027132422 -0.022002526
0.042567287 -0.0029100312 -0.023377752 0.047155354 -0.004421371 -0.051418442 -0.05248027 0.031937793
-0.026435666 0.04065985 0.037641816 -0.032450438 -0.024362369 -0.05144531 0.03690108 -0.034574274
0.01579953 -0.024314027 -0.029390285 -0.012651326 0.024096103 0.0017063449 -0.014828308 0.00015710472
0.029716784 -0.0030213103 -0.044205476 0.04800331 -0.035958786 0.025906138 -0.0048844703 -0.010288312
00000000: 1208 14bc 020c f83b afa8 26bd db3f 33bd
00000010: b47b ca3c 07f1 fdbc f1cf 91bc 5de7 53bd
00000020: 10e4 22bd b51e a03c 3b80 20bc ed2e 353c
00000030: d187 e03c 9b9d 1f3d eba3 32bd c5f3 cf3c
00000040: cc03 fcbc 527b 09bd 36c7 ebbc 0a79 34bd
00000050: 6149 403c a04a 583d 7754 19bd 1f9d 6b3c
00000060: 7ad8 5cbd 5070 babc be90 59bd 2ec4 16bd
00000070: 677e de3c 10bf 383d 024f 84bc 2097 67bc
00000080: 256b 47bd bef3 3c3c 8330 d6bb cd5b e23c
00000090: 5fce a1bb 6552 573c 2a71 3d3c 67c8 24bc
000000a0: 43f9 cdbc 1cdf 81bc ae17 353d 3f79 9238
000000b0: 38db 1f3c 9a4c 9c3c 530d 7e3c cb5a 0f3d
000000c0: 01a7 64bb 0de2 f1ba b435 2ebd d2dc 913b
000000d0: b3ca a8bb 7aac 09bd 00b6 dabc 93fc 3fbc
000000e0: 57d7 1dbb 489d 9f3c 91cf 09bd fc44 583d
000000f0: 0ae1 f43c ec46 0a3d 8591 913c 11e0 de3c
00000100: 6b9f 0d3c 0333 133d b3c0 533d 7610 cfbc
00000110: cdc8 dabc df9e 77bc 18e1 e43c 7403 e9bc
00000120: 7c84 583d 7275 51bd 1dad c73c 9083 233d
00000130: a7f6 9cbc 399d 52bd 25d8 053c 2c11 1a3b
00000140: 8705 f9bc 848f dcbc 81aa 8fbc 9f14 2c3d
00000150: ace5 bdbc 66a8 57bd 378a bebc 57d8 e4bc
00000160: 42ca 523c cbd4 eb3c 0ca8 bb3c 45db cc3a
00000170: 429e 47bd 6e7e 56bd b0cd da3c 8944 583d
00000180: b85b 34bd 12ae 593d 3093 f1bc ee8e 1c3d
00000190: 4d3c 4f3b 43bc 90bc 2453 8c3c e953 9b3c
000001a0: 4862 3fbd bfb0 e0bc 9f31 d53c 53b2 27bd
000001b0: 6c68 5b3d 60cc 353b 5b6a 5a3d 976e 283d
000001c0: 2258 dabb d606 003d 87a7 37bd e637 5f3c
000001d0: a7a3 343d 4c97 0bbd 42ec 383d dd16 483d
000001e0: 1428 18bd b01c 09bc ec98 27bd 78bb 02bd
000001f0: f766 4bbd 091d 403d 662f f1bc 3b5e ddbc
00000200: 7a35 4bbc dce3 c9bc 6c7b 853c 3699 5abd
00000210: 23fd 60bc d708 41bd 70a9 1b3d bce3 1f3d
00000220: 603a debc 4c13 4a3d 40f0 4f3c a3a4 e13b
00000230: f9ce a4bb 79d1 6cbb 6abf c3bc 04c1 61bb
00000240: 8318 b23c fab1 e23c d57e 933c dfce 82bb
00000250: c9e0 d4bc 916c 08bd 5abd 62bc 983f 28bd
00000260: f340 9c3a 96a9 263d 43a3 5abd 52aa 2dbd
00000270: 1844 113c 33c9 b3bc 580b 83bc 5dcb 553d
00000280: c51f 2fbd 438a b6bc 6ee9 aebc 82a9 86bc
00000290: 96b9 55bd 229e b73c 0665 b53c 7b29 9fbb
000002a0: 71d2 f3bb bdfb 37bc d41d 3f3d 5ce0 f23c
000002b0: 8173 3a3d 10c5 38bd 69d9 83bc def4 133d
000002c0: 32f5 3fbd a43d 4ebd 9e96 bfb9 f924 113d
000002d0: 39c1 31bd a7f0 0b3b 9754 fabc daf0 423d
000002e0: 9f5e 763c 88a9 5ebd 80aa 4c3d afa5 373c
000002f0: 91d4 5d3d 0d5f 0abd ca85 e0bb bb0f 3c3b
00000300: 1c2e 973b 6f52 3fbd 5dc3 223c a4af 9f3c
00000310: 3408 07bd 5ef6 92bc 857d 11bc 55e7 c83b
00000320: ef42 4ebd 470e d63b 79d4 fcbc 2b7d fbbc
00000330: 4475 3dbd 4bc3 13bd aba3 583d 1352 013d
00000340: 9454 2abd 412e 8abb b82e 5f3d 03c3 383c
00000350: 00a5 153d 898e 0c3d 4238 113d ed8d 30bd
00000360: b65f ccbc f6b1 8cbc c08a 043a 11ff 473d
00000370: 665c d139 402b 0e3d d044 debc a43e b4bc
00000380: 095b 2e3d 39b6 3ebb b382 bfbc f925 413d
00000390: 26e1 90bb 259c 52bd 8df5 56bd 34d1 023d
000003a0: 9c8f d8bc f18a 263d 4e2e 1a3d c0ea 04bd
000003b0: 9793 c7bc 51b8 52bd 9625 173d c19d 0dbd
000003c0: 046e 813c 362e c7bc e5c3 f0bc 8247 4fbc
000003d0: 3165 c53c 6fa7 df3a 6ef2 72bc 7abc 2439
000003e0: 9d70 f33c 2d01 46bb cd10 35bd 1e9f 443d
000003f0: 8549 13bd 1c39 d43c e80d a0bb 4f90 28bc

input_weights f4 [80, 80]
-0.053460687 0.022949122 0.046755873 -0.024289962 -0.11481458 0.12801157 -0.15774292 0.30171603
-0.065170474 -0.015500334 -0.026235064 -0.17423868 0.2474014 0.33154866 -0.15523581 -0.3415893
0.07276559 -0.16074298 -0.041896142 0.06254772 0.11294285 0.13522066 0.3334875 -0.080360286
-0.08598069 -0.10070162 0.27761233 -0.12167331 -0.02926668 -0.088292226 -0.046143968 0.2918683
0.051255852 0.06726917 -0.067181535 0.05231541 -0.14436415 0.083831385 -0.088777885 -0.030685425
-0.16966203 -0.0144951865 0.16163711 0.05729503 -0.020627243 -0.43345436 0.11271428 0.17105563
0.06327155 0.0029006426 -0.05505527 0.24110402 0.08786754 -0.0063590654 0.073285 0.09135393
-0.024563003 -0.27205378 0.05613077 -0.21627969 0.21357362 0.06432508 -0.33677042 -0.12126163
0.010224051 0.056772158 0.28554416 -0.119825006 0.47806916 0.17764822 -0.097252995 -0.035775762
0.10574819 -0.07433409 0.03769016 0.17701031 0.14930502 0.12500773 -0.013940894 0.096020974
0.21676722 -0.111116625 -0.091886185 0.08294448 -0.091499895 0.048234697 0.11603879 -0.15487334
-0.16911466 -0.21299006 -0.076762475 0.0028741003 -0.25108287 -0.028911168 0.03380535 -0.15412651
-0.02904748 0.04500575 -0.024717545 0.050279394 -0.06933476 0.031329054 -0.065214336 -0.052190106
-0.35640237 -0.18781503 -0.0021993287 -0.16862911 0.013458598 -0.0545294 -0.11249662 0.10362235
0.21957032 0.09765748 -0.09158347 -0.3013584 0.072802305 0.19794723 -0.03998791 -0.15443842
0.1451818 0.0014053939 0.45749408 0.062029794 0.14267357 0.20882578 0.04933211 -0.021788083
-0.0070402864 0.055950034 0.06225825 -0.11182121 0.10689735 -0.05602221 0.280608 -0.024936156
-0.12022264 -0.110725656 0.079233356 0.1849078 -0.21836898 0.12295924 -0.15738031 -0.41897926
-0.13633214 0.060977608 0.08497567 -0.065921724 0.32977575 0.1109729 0.01996352 -0.13392766
0.25704253 -0.23213401 0.054789353 0.16442266 0.08762869 0.10546255 -0.0055515226 -0.22994648
-0.20191896 -0.2939569 -0.027846774 -0.0043176324 0.12816766 -0.04890838 -0.036430266 -0.08970898
0.42383417 0.14796065 0.089858785 0.053853948 -0.18627766 0.062491365 0.08264049 -0.10714148
-0.30903187 -0.16303183 0.048759878 0.1501957 0.016997052 0.08020441 0.04520078 -0.15959089
-0.2677725 0.06263304 0.3918924 0.17515735 0.1748992 -0.13256028 0.0012086433 -0.16022272
-0.07863531 0.1187379 -0.25731573 -0.13196865 -0.328576 -0.07261887 -0.11093714 -0.08136802
-0.038687427 0.07039014 -0.0023122001 0.12935627 -0.1678314 -0.12723881 0.08661585 0.0742619
-0.05374371 0.08907301 -0.27839017 0.11146692 0.117008016 0.13186951 -0.29619205 0.056854334
0.0066825557 0.23363888 0.03539389 0.36038482 -0.12829922 -0.15833531 0.112427294 0.12919283
-0.085740715 0.2583589 0.25582415 0.033670507 -0.2004667 -0.0068721077 0.03307771 0.027110426
0.08607925 0.099047154 0.044939123 -0.17545848 -0.06569504 0.055254705 -0.04094669 -0.12765871
0.030770328 -0.058186553 0.051065736 0.14137962 -0.42196214 0.092856586 0.0016886349 0.03158193
0.1524902 -0.2797025 -0.03525568 0.0040911897 0.1357385 -0.13251089 -0.1983773 0.10222639
00000000: 98f9 5abd ccff bb3c 1683 3f3d befb c6bc
00000010: e823 ebbd 7715 033e 5c87 21be 867a 9a3e
00000020: 1978 85bd 1df5 7dbc ebea d6bc a06b 32be
00000030: cb56 7d3e bfc0 a93e 23f6 1ebe cbe4 aebe
00000040: 2006 953d cf99 24be 4a9b 2bbd 0519 803d
00000050: 954e e73d 4977 0a3e e0be aa3e ef93 a4bd
00000060: a516 b0bd a73c cebd 3423 8e3e db2f f9bd
00000070: adc0 efbc 8ed2 b4bd 7501 3dbd c36f 953e
00000080: a8f1 513d 6bc4 893d 7996 89bd af48 563d
00000090: 32d4 13be caaf ab3d 2ed1 b5bd 0060 fbbc
000000a0: e2bb 2dbe 387d 6dbc 3384 253e 32ae 6a3d
000000b0: 77fa a8bc bbed ddbe bfd6 e63d 3529 2f3e
000000c0: 8494 813d b518 3e3b a381 61bd f9e3 763e
000000d0: e6f3 b33d b55f d0bb 7216 963d c517 bb3d
000000e0: 5a38 c9bc a24a 8bbe 61e9 653d 6c78 5dbe
000000f0: 0bb3 5a3e debc 833d 2c6d acbe 0458 f8bd
00000100: c782 273c ec89 683d d832 923e d066 f5bd
00000110: 7bc5 f43e 6ae9 353e 942c c7bd 9b89 12bd
00000120: 8292 d83d 793c 98bd ff60 1a3d 3142 353e
00000130: 6ae3 183e 0702 003e 5968 64bc a5a6 c43d
00000140: 3af8 5d3e 1d91 e3bd d32e bcbd ccde a93d
00000150: 4c64 bbbd bf91 453d bfa5 ed3d 1e97 1ebe
00000160: 652c 2dbe 111a 5abe a535 9dbd 675b 3c3b
00000170: ef8d 80be 1dd7 ecbc 7b77 0a3d 57d3 1dbe
00000180: fbf4 edbc f357 383d 737c cabc c4f1 4d3d
00000190: 62ff 8dbd e552 003d 188f 85bd 4bc5 55bd
000001a0: 5f7a b6be 9552 40be 9d22 10bb 1cad 2cbe
000001b0: 7481 5c3c 385a 5fbd a164 e6bd f437 d43d
000001c0: 0bd7 603e a500 c83d 1d90 bbbd a64b 9abe
000001d0: 6019 953d aeb2 4a3e 5dca 23bd 1b25 1ebe
000001e0: 8aaa 143e 3235 b83a aa3c ea3e f412 7e3d
000001f0: 0519 123e 6dd6 553e 7710 4a3d ec7c b2bc
00000200: 34b2 e6bb dd2b 653d 8202 7f3d 8502 e5bd
00000210: ffec da3d 8b77 65bd daab 8f3e e946 ccbc
00000220: 4a37 f6bd 22c4 e2bd 1945 a23d 7858 3d3e
00000230: 1e9c 5fbe 0ed2 fb3d 4e28 21be 7384 d6be
00000240: a79a 0bbe a8c3 793d b907 ae3d f801 87bd
00000250: 5ed8 a83e c345 e33d 898a a33c 5524 09be
00000260: 149b 833e 8ab4 6dbe cd6a 603d 6a5e 283e
00000270: ac76 b33d c0fc d73d 8ce9 b5bb 1777 6bbe
00000280: d8c3 4ebe 8581 96be eb1e e4bc ed7a 8dbb
00000290: 623e 033e 2754 48bd e737 15bd 57b9 b7bd
000002a0: cb00 d93e ff82 173e e207 b83d f595 5c3d
000002b0: 92bf 3ebe f2f6 7f3d 6b3f a93d fe6c dbbd
000002c0: 6d39 9ebe d1f1 26be 70b8 473d e7cc 193e
000002d0: 673d 8b3c 3642 a43d 7424 393d cb6b 23be
000002e0: 7a19 89be c045 803d 1fa6 c83e 735c 333e
000002f0: c718 333e e2bd 07be 576b 9e3a 6d11 24be
00000300: 8d0b a1bd db2c f33d e3be 83be ca22 07be
00000310: 1d3b a8be 34b9 94bd 0333 e3bd 47a4 a6bd
00000320: b576 1ebd b528 903d 4888 17bb f875 043e
00000330: ffdb 2bbe e44a 02be a763 b13d 9f16 983d
00000340: 5d22 5cbd e96b b63d 2889 8ebe c548 e43d
00000350: e6a1 ef3d cd08 073e 7ca6 97be 17e0 683d
00000360: 57f9 da3b 083f 6f3e 2ff9 103d 5c84 b83e
00000370: df60 03be a722 22be 4840 e63d 204b 043e
00000380: d498 afbd 9e47 843e 62fb 823e 16ea 093d
00000390: 2547 4dbe 6b2f e1bb 7e7c 073d af16 de3c
000003a0: 514a b03d 3cd9 ca3d 1612 383d 63ab 33be
000003b0: 1f8b 86bd c252 623d b7b7 27bd f7b8 02be
000003c0: 0e12 fc3c 0655 6ebd 4e2a 513d d2c5 103e
000003d0: 6c0b d8be 982b be3d 2f55 dd3a 0e5c 013d
000003e0: 6426 1c3e 2b35 8fbe 4368 10bd 630f 863b
000003f0: 09ff 0a3e efb0 07be 6b23 4bbe 125c d13d

recurrent_weights f4 [80, 80]
0.0 -0.10326923 -0.067697 -0.023086809 0.18210185 -0.013866752 0.35351482 0.12103943
0.008482635 -0.061496206 0.10009499 -0.13647217 0.09097735 -0.056992028 0.066952944 -0.23829453
-0.19195236 -0.15374015 -0.33950832 -0.1057504 -0.15409702 0.06753989 -0.04299553 -0.086133115
0.0019574203 0.06878807 -0.16645744 0.10142693 0.0938083 -0.22538254 0.024931772 -0.111656025
0.034237288 -0.092760935 -0.27570534 -0.04136763 0.08696506 0.1458295 0.012302961 0.1812073
0.23396613 -0.03271978 -0.025810266 -0.4961224 -0.02265325 0.34553304 -0.23932339 0.29138213
-0.033586845 0.14444128 0.20283014 -0.1964607 0.22169775 0.062951304 -0.053900674 0.04015255
0.24977104 0.022760296 0.105387226 -0.06691138 0.17819229 0.2185208 0.07712657 0.02327699
-0.13748328 0.009036024 0.21337305 -0.1020328 -0.18063925 0.27488968 0.1778298 -0.018598605
0.15432225 0.21222878 0.472908 -0.024878172 0.057653684 0.09946276 -0.29771388 0.104653515
-0.13007078 0.0 0.03694206 -0.09467678 -0.1321204 -0.116253145 -0.17597084 0.110713094
-0.085167654 0.0012377943 -0.04110179 0.20584522 0.073947765 -0.17117742 0.25066236 0.11470828
-0.16672173 -0.31273076 -0.020569282 0.10318999 -0.17358433 -0.20143497 0.012218663 0.07013289
-0.15082462 -0.12241061 -0.17918454 -0.007034543 0.29746506 0.1882761 -0.23750688 -0.18187848
0.021975016 -0.10867404 0.11154572 -0.091082275 0.044687312 0.15509446 -0.098340586 0.075649604
-0.29023412 -0.042871773 -0.016029658 0.09242031 -0.26685005 -0.11543283 -0.114049345 -0.06573391
-0.16112663 -0.14916237 -0.19871795 -0.15205146 0.04193545 -0.12911847 0.19385429 0.118436076
-0.07069719 -0.16375722 -0.0044433977 -0.0070588263 0.048049632 0.07112865 -0.049895603 0.24435775
0.1392181 0.16806944 0.11980062 0.088728756 -0.11983723 0.0055096364 -0.20037642 -0.10916157
0.025958091 -0.10529699 -0.07398616 0.12922548 -0.10929776 -0.15378964 -0.22498189 0.0047663995
0.1695218 0.015548561 0.0 -0.1878202 -0.3513635 -0.12489768 0.10190209 -0.1876429
0.23527278 -0.052186478 0.1995325 -0.1987696 -0.03346683 -0.14154792 0.17423941 -0.12994745
0.16299033 0.12730096 0.04008596 -0.31610626 0.26390567 0.04598379 -0.09166785 0.044595033
-0.13132076 0.081735834 0.12835094 0.28079018 -0.07159851 -0.14751908 0.0054363934 0.058823656
0.053902183 -0.01636636 0.2157671 0.13577344 0.04338853 0.2219938 -0.08431299 -0.08709758
-0.1064266 0.11799976 -0.09161331 -0.20677492 0.012208856 0.20055763 0.082381666 0.025441585
0.16498847 -0.07184473 0.012746942 -0.28432944 -0.25317934 -0.1752199 0.03758926 -0.001601713
0.24857487 -0.14996701 -0.043125555 0.11359082 0.06865564 0.124286644 -0.009797248 0.19779436
0.005211586 -0.01546093 0.37202466 -0.24861442 0.023326933 0.102703005 -0.06677398 -0.14922912
0.21360402 -0.07707215 -0.035985097 0.021025103 -0.17745602 0.029579153 0.059499316 -0.15709619
0.09554593 0.0070690652 0.2803046 0.0 0.044632345 -0.16163442 0.08137042 -0.04987058
-0.022945289 -0.13362831 -0.103756644 0.2703817 -0.21852008 0.10972846 -0.01967632 0.12052791
00000000: 0000 0000 d17e d3bd baa4 8abd 8c20 bdbc
00000010: e878 3a3e 6031 63bc e5ff b43e 85e3 f73d
00000020: c0fa 0a3c 72e3 7bbd 9afe cc3d 5cbf 0bbe
00000030: 5552 ba3d 7970 69bd a01e 893d 7b03 74be
00000040: 298f 44be 0f6e 1dbe 09d4 adbe aa93 d8bd
00000050: 9ccb 1dbe 5b52 8a3d 151c 30bd 8f66 b0bd
00000060: 1048 003b c2e0 8c3d d273 2abe ecb8 cf3d
00000070: 911e c03d aeca 66be b73d cc3c eaab e4bd
00000080: 663c 0c3d 72f9 bdbd 4029 8dbe 1b71 29bd
00000090: bd1a b23d 5454 153e 5c92 493c 688e 393e
000000a0: d194 6f3e 2d05 06bd 0d70 d3bc c103 febe
000000b0: 4f93 b9bc b5e9 b03e 3111 75be 0a30 953e
000000c0: 5c92 09bd 6ae8 133e b4b2 4f3e fe2c 49be
000000d0: bc04 633e 9dec 803d f4c6 5cbd 0077 243d
000000e0: fbc3 7f3e cd73 ba3c 42d5 d73d d508 89bd
000000f0: 0a78 363e ebc3 5f3e 89f4 9d3d 63af be3c
00000100: 6bc8 0cbe d50b 143c 777e 5a3e 93f6 d0bd
00000110: 7ff9 38be 57be 8c3e 0419 363e 1a5c 98bc
00000120: a706 1e3e 8052 593e ff20 f23e 4fcd cbbc
00000130: 4526 6c3d 22b3 cb3d f46d 98be 9554 d63d
00000140: 4631 05be 0000 0000 8f50 173d e6e5 c1bd
00000150: 924a 07be 2116 eebd b331 34be 8cbd e23d
00000160: 616c aebd 7c3d a23a 5a5a 28bd 17c9 523e
00000170: ed71 973d 2249 2fbe d156 803e 2dec ea3d
00000180: 1ab9 2abe 3f1e a0be e980 a8bc 4655 d33d
00000190: 17c0 31be f844 4ebe c930 483c d5a1 8f3d
000001a0: c571 1abe 6ab2 fabd 277c 37be 0682 e6bb
000001b0: 574d 983e 73cb 403e 0135 73be 5a3e 3abe
000001c0: f304 b43c 7f90 debd 1572 e43d 5889 babd
000001d0: 0b0a 373d 15d1 1e3e ca66 c9bd 2eee 9a3d
000001e0: 9199 94be 509a 2fbd a150 83bc dc46 bd3d
000001f0: 92a0 88be 0c68 ecbd b492 e9bd 809f 86bd
00000200: 61fe 24be 05be 18be b87c 4bbe 61b3 1bbe
00000210: 82c4 2b3d a237 04be bd81 463e 9d8e f23d
00000220: b0c9 90bd f9af 27be ec99 91bb ba4d e7bb
00000230: b1cf 443d e6ab 913d 555f 4cbd eb38 7a3e
00000240: 318f 0e3e 651a 2c3e 075a f53d 6cb7 b53d
00000250: 396d f5bd 2e8a b43b 7a2f 4dbe 1a90 dfbd
00000260: 10a6 d43c f3a5 d7bd 0e86 97bd af53 043e
00000270: 81d7 dfbd 087b 1dbe a761 66be 752f 9c3b
00000280: 1f97 2d3e 64bf 7e3c 0000 0000 f053 40be
00000290: ebe5 b3be 5bca ffbd 0bb2 d03d 7625 40be
000002a0: 59eb 703e 7dc1 55bd 3f52 4c3e 428a 4bbe
000002b0: 8414 09bd f0f1 10be d16b 323e f210 05be
000002c0: f0e6 263e 2f5b 023e 2d31 243d aed8 a1be
000002d0: a51e 873e 8059 3c3d 5bbc bbbd 48a9 363d
000002e0: f378 06be 1e65 a73d 6e6e 033e bbc3 8f3e
000002f0: 3da2 92bd 3e0f 17be c623 b23b 13f1 703d
00000300: 89c8 5c3d bf12 86bc 0df2 5c3e 3108 0b3e
00000310: 2cb8 313d 5852 633e 4aac acbd 3760 b2bd
00000320: 30f6 d9bd dca9 f13d c29f bbbd cebc 53be
00000330: a707 483c fb5e 4d3e b8b7 a83d df6a d03c
00000340: bdf2 283e 5423 93bd 8dd8 503c a193 91be
00000350: b9a0 81be d86c 33be 32f7 193d 92f0 d1ba
00000360: 698a 7e3e f490 19be 6ca4 30bd 4ea2 e83d
00000370: 549b 8c3d ff89 fe3d a384 20bc 9b8a 4a3e
00000380: f4c5 aa3b d74f 7dbc 047a be3e c794 7ebe
00000390: 2018 bf3c f455 d23d ccc0 88bd 85cf 18be
000003a0: 03bb 5a3e 01d8 9dbd 1c65 13bd d63c ac3c
000003b0: 08b7 35be fb4f f23c 8eb5 733d d3dd 20be
000003c0: 96ad c33d 9ea3 e73b 1684 8f3e 0000 0000
000003d0: 68d0 363d 7e83 25be 89a5 a63d 1845 4cbd
000003e0: c2f7 bbbc dcd5 08be 5d7e d4bd 786f 8a3e
000003f0: bac3 5fbe 51b9 e03d 3c30 a1bc 56d7 f63d

p f4 [80]
200.0 200.0 200.0 200.0 200.0 200.0 200.0 200.0
200.0 200.0 200.0 200.0 200.0 200.0 200.0 200.0
200.0 200.0 200.0 200.0 200.0 200.0 200.0 200.0
200.0 200.0 200.0 200.0 200.0 200.0 200.0 200.0
200.0 200.0 200.0 200.0 200.0 200.0 200.0 200.0
200.0 200.0 200.0 200.0 200.0 200.0 200.0 200.0
200.0 200.0 200.0 200.0 200.0 200.0 200.0 200.0
200.0 200.0 200.0 200.0 200.0 200.0 200.0 200.0
200.0 200.0 200.0 200.0 200.0 200.0 200.0 200.0
200.0 200.0 200.0 200.0 200.0 200.0 200.0 200.0
00000000: 0000 4843 0000 4843 0000 4843 0000 4843
00000010: 0000 4843 0000 4843 0000 4843 0000 4843
00000020: 0000 4843 0000 4843 0000 4843 0000 4843
00000030: 0000 4843 0000 4843 0000 4843 0000 4843
00000040: 0000 4843 0000 4843 0000 4843 0000 4843
00000050: 0000 4843 0000 4843 0000 4843 0000 4843
00000060: 0000 4843 0000 4843 0000 4843 0000 4843
00000070: 0000 4843 0000 4843 0000 4843 0000 4843
00000080: 0000 4843 0000 4843 0000 4843 0000 4843
00000090: 0000 4843 0000 4843 0000 4843 0000 4843
000000a0: 0000 4843 0000 4843 0000 4843 0000 4843
000000b0: 0000 4843 0000 4843 0000 4843 0000 4843
000000c0: 0000 4843 0000 4843 0000 4843 0000 4843
000000d0: 0000 4843 0000 4843 0000 4843 0000 4843
000000e0: 0000 4843 0000 4843 0000 4843 0000 4843
000000f0: 0000 4843 0000 4843 0000 4843 0000 4843
00000100: 0000 4843 0000 4843 0000 4843 0000 4843
00000110: 0000 4843 0000 4843 0000 4843 0000 4843
00000120: 0000 4843 0000 4843 0000 4843 0000 4843
00000130: 0000 4843 0000 4843 0000 4843 0000 4843

p f4 [80]
100.0 100.0 100.0 100.0 100.0 100.0 100.0 100.0
100.0 100.0 100.0 100.0 100.0 100.0 100.0 100.0
100.0 100.0 100.0 100.0 100.0 100.0 100.0 100.0
100.0 100.0 100.0 100.0 100.0 100.0 100.0 100.0
100.0 100.0 100.0 100.0 100.0 100.0 100.0 100.0
100.0 100.0 100.0 100.0 100.0 100.0 100.0 100.0
100.0 100.0 100.0 100.0 100.0 100.0 100.0 100.0
100.0 100.0 100.0 100.0 100.0 100.0 100.0 100.0
100.0 100.0 100.0 100.0 100.0 100.0 100.0 100.0
100.0 100.0 100.0 100.0 100.0 100.0 100.0 100.0
00000000: 0000 c842 0000 c842 0000 c842 0000 c842
00000010: 0000 c842 0000 c842 0000 c842 0000 c842
00000020: 0000 c842 0000 c842 0000 c842 0000 c842
00000030: 0000 c842 0000 c842 0000 c842 0000 c842
00000040: 0000 c842 0000 c842 0000 c842 0000 c842
00000050: 0000 c842 0000 c842 0000 c842 0000 c842
00000060: 0000 c842 0000 c842 0000 c842 0000 c842
00000070: 0000 c842 0000 c842 0000 c842 0000 c842
00000080: 0000 c842 0000 c842 0000 c842 0000 c842
00000090: 0000 c842 0000 c842 0000 c842 0000 c842
000000a0: 0000 c842 0000 c842 0000 c842 0000 c842
000000b0: 0000 c842 0000 c842 0000 c842 0000 c842
000000c0: 0000 c842 0000 c842 0000 c842 0000 c842
000000d0: 0000 c842 0000 c842 0000 c842 0000 c842
000000e0: 0000 c842 0000 c842 0000 c842 0000 c842
000000f0: 0000 c842 0000 c842 0000 c842 0000 c842
00000100: 0000 c842 0000 c842 0000 c842 0000 c842
00000110: 0000 c842 0000 c842 0000 c842 0000 c842
00000120: 0000 c842 0000 c842 0000 c842 0000 c842
00000130: 0000 c842 0000 c842 0000 c842 0000 c842

p f4 [80]
1.0 1.0 1.0 1.0 1.0 1.0 1.0 1.0
1.0 1.0 1.0 1.0 1.0 1.0 1.0 1.0
1.0 1.0 1.0 1.0 1.0 1.0 1.0 1.0
1.0 1.0 1.0 1.0 1.0 1.0 1.0 1.0
1.0 1.0 1.0 1.0 1.0 1.0 1.0 1.0
1.0 1.0 1.0 1.0 1.0 1.0 1.0 1.0
1.0 1.0 1.0 1.0 1.0 1.0 1.0 1.0
1.0 1.0 1.0 1.0 1.0 1.0 1.0 1.0
1.0 1.0 1.0 1.0 1.0 1.0 1.0 1.0
1.0 1.0 1.0 1.0 1.0 1.0 1.0 1.0
00000000: 0000 803f 0000 803f 0000 803f 0000 803f
00000010: 0000 803f 0000 803f 0000 803f 0000 803f
00000020: 0000 803f 0000 803f 0000 803f 0000 803f
00000030: 0000 803f 0000 803f 0000 803f 0000 803f
00000040: 0000 803f 0000 803f 0000 803f 0000 803f
00000050: 0000 803f 0000 803f 0000 803f 0000 803f
00000060: 0000 803f 0000 803f 0000 803f 0000 803f
00000070: 0000 803f 0000 803f 0000 803f 0000 803f
00000080: 0000 803f 0000 803f 0000 803f 0000 803f
00000090: 0000 803f 0000 803f 0000 803f 0000 803f
000000a0: 0000 803f 0000 803f 0000 803f 0000 803f
000000b0: 0000 803f 0000 803f 0000 803f 0000 803f
000000c0: 0000 803f 0000 803f 0000 803f 0000 803f
000000d0: 0000 803f 0000 803f 0000 803f 0000 803f
000000e0: 0000 803f 0000 803f 0000 803f 0000 803f
000000f0: 0000 803f 0000 803f 0000 803f 0000 803f
00000100: 0000 803f 0000 803f 0000 803f 0000 803f
00000110: 0000 803f 0000 803f 0000 803f 0000 803f
00000120: 0000 803f 0000 803f 0000 803f 0000 803f
00000130: 0000 803f 0000 803f 0000 803f 0000 803f

p f4 [80]
0.0 0.0 0.0 0.0 0.0 0.0 0.0 0.0
0.0 0.0 0.0 0.0 0.0 0.0 0.0 0.0
0.0 0.0 0.0 0.0 0.0 0.0 0.0 0.0
0.0 0.0 0.0 0.0 0.0 0.0 0.0 0.0
0.0 0.0 0.0 0.0 0.0 0.0 0.0 0.0
0.0 0.0 0.0 0.0 0.0 0.0 0.0 0.0
0.0 0.0 0.0 0.0 0.0 0.0 0.0 0.0
0.0 0.0 0.0 0.0 0.0 0.0 0.0 0.0
0.0 0.0 0.0 0.0 0.0 0.0 0.0 0.0
0.0 0.0 0.0 0.0 0.0 0.0 0.0 0.0
00000000: 0000 0000 0000 0000 0000 0000 0000 0000
00000010: 0000 0000 0000 0000 0000 0000 0000 0000
00000020: 0000 0000 0000 0000 0000 0000 0000 0000
00000030: 0000 0000 0000 0000 0000 0000 0000 0000
00000040: 0000 0000 0000 0000 0000 0000 0000 0000
00000050: 0000 0000 0000 0000 0000 0000 0000 0000
00000060: 0000 0000 0000 0000 0000 0000 0000 0000
00000070: 0000 0000 0000 0000 0000 0000 0000 0000
00000080: 0000 0000 0000 0000 0000 0000 0000 0000
00000090: 0000 0000 0000 0000 0000 0000 0000 0000
000000a0: 0000 0000 0000 0000 0000 0000 0000 0000
000000b0: 0000 0000 0000 0000 0000 0000 0000 0000
000000c0: 0000 0000 0000 0000 0000 0000 0000 0000
000000d0: 0000 0000 0000 0000 0000 0000 0000 0000
000000e0: 0000 0000 0000 0000 0000 0000 0000 0000
000000f0: 0000 0000 0000 0000 0000 0000 0000 0000
00000100: 0000 0000 0000 0000 0000 0000 0000 0000
00000110: 0000 0000 0000 0000 0000 0000 0000 0000
00000120: 0000 0000 0000 0000 0000 0000 0000 0000
00000130: 0000 0000 0000 0000 0000 0000 0000 0000

super f4 [80]
100.0 100.0 100.0 100.0 100.0 100.0 100.0 100.0
100.0 100.0 100.0 100.0 100.0 100.0 100.0 100.0
100.0 100.0 100.0 100.0 100.0 100.0 100.0 100.0
100.0 100.0 100.0 100.0 100.0 100.0 100.0 100.0
100.0 100.0 100.0 100.0 100.0 100.0 100.0 100.0
100.0 100.0 100.0 100.0 100.0 100.0 100.0 100.0
100.0 100.0 100.0 100.0 100.0 100.0 100.0 100.0
100.0 100.0 100.0 100.0 100.0 100.0 100.0 100.0
100.0 100.0 100.0 100.0 100.0 100.0 100.0 100.0
100.0 100.0 100.0 100.0 100.0 100.0 100.0 100.0
00000000: 0000 c842 0000 c842 0000 c842 0000 c842
00000010: 0000 c842 0000 c842 0000 c842 0000 c842
00000020: 0000 c842 0000 c842 0000 c842 0000 c842
00000030: 0000 c842 0000 c842 0000 c842 0000 c842
00000040: 0000 c842 0000 c842 0000 c842 0000 c842
00000050: 0000 c842 0000 c842 0000 c842 0000 c842
00000060: 0000 c842 0000 c842 0000 c842 0000 c842
00000070: 0000 c842 0000 c842 0000 c842 0000 c842
00000080: 0000 c842 0000 c842 0000 c842 0000 c842
00000090: 0000 c842 0000 c842 0000 c842 0000 c842
000000a0: 0000 c842 0000 c842 0000 c842 0000 c842
000000b0: 0000 c842 0000 c842 0000 c842 0000 c842
000000c0: 0000 c842 0000 c842 0000 c842 0000 c842
000000d0: 0000 c842 0000 c842 0000 c842 0000 c842
000000e0: 0000 c842 0000 c842 0000 c842 0000 c842
000000f0: 0000 c842 0000 c842 0000 c842 0000 c842
00000100: 0000 c842 0000 c842 0000 c842 0000 c842
00000110: 0000 c842 0000 c842 0000 c842 0000 c842
00000120: 0000 c842 0000 c842 0000 c842 0000 c842
00000130: 0000 c842 0000 c842 0000 c842 0000 c842

weight f4 [4, 80]
-0.064324155 -0.07630534 0.082558036 0.10281563 0.040119756 -0.052801844 0.09157198 0.096425295
-0.10024522 0.09945043 -0.060393117 0.107745886 -0.0447987 0.0017704787 -0.008892924 0.06753326
0.021501828 -0.084025614 -0.10526508 0.07226274 0.10044121 0.07580663 0.04965136 0.09544695
0.07876338 0.066939175 -0.014116355 0.058919612 0.108652554 -0.11010341 0.007144796 -0.031875532
0.046405856 -0.00017318407 0.09869336 0.05784476 -0.11063736 -0.091581166 -0.056189876 0.0804767
0.10549285 -0.10404002 -0.051848494 0.07033643 -0.055927143 0.015108385 -0.063181244 -0.09929834
-0.08499709 0.0860965 0.08236633 0.025776839 0.06129558 -0.016025072 0.051189717 -0.022804974
0.01072791 -0.10594794 -0.019352248 0.07567551 0.050133605 -0.040916037 -0.008469253 0.024352968
-0.11133305 -0.10604714 0.08973225 -0.008629229 -0.06358106 0.05330062 -0.04246218 -0.04516947
0.081743315 -0.06815934 0.014319234 0.0775092 -0.022170294 0.054247014 -0.11090897 -0.08589937
-0.099987656 0.040586956 -0.058506977 0.038847372 0.04848969 -0.027311118 -0.025455033 0.036105454
-0.06589821 -0.04207423 -0.04003871 -0.06249473 0.025566297 0.059855 0.048489437 -0.06066874
0.08085197 -0.10164161 0.014419887 -0.10771289 0.03052302 0.09872375 0.05595757 -0.024803082
0.046632674 0.10205604 -0.016392259 -0.027530551 0.08442813 -0.035045374 -0.108786255 -0.0770416
-0.080760226 0.040674787 0.057404697 0.06965345 -0.014925391 -0.0019814742 -0.04853138 -0.041308053
-0.10448063 -0.02125574 -0.0209541 0.0044241776 -0.08117747 -0.05759758 0.035450343 0.1101394
-0.10451583 -0.101254426 -0.088358775 0.083891265 0.10037811 -0.03618597 -0.021394378 -0.039853755
0.049393274 0.0806106 -0.0008281622 0.06481574 -0.07138237 -0.005433387 0.039407868 -0.0016736374
-0.019308906 -0.061034966 0.014635507 0.103872985 0.054883707 0.08275395 0.042117637 0.082377
-0.06576854 0.023502935 0.027159646 0.03478425 -0.04554896 0.08100406 0.09970351 -0.062305924
-0.08326642 -0.089367926 -0.02782674 -0.081691995 -0.01206968 0.051051144 -0.058635794 0.044017144
-0.04383018 0.018749876 0.024554381 0.076110736 0.020836761 -0.10361931 -0.019257445 0.031924553
0.021060858 0.014818754 0.03118209 -0.043268032 -0.10065502 0.029976172 0.016939547 -0.09389492
0.06246001 0.07697118 -0.07243739 -0.043950904 -0.078807555 -0.10196349 0.020060819 0.10935631
0.017052207 -0.023962284 -0.06746389 0.0041210186 -0.047042668 0.0507569 -0.09592164 0.09661935
-0.060249455 0.09359372 0.06619949 -0.023693712 0.027454462 -0.06175569 0.09645103 0.067187816
0.0064272033 0.028508985 -0.043868657 -0.02647516 -0.033994164 -0.0077761435 -0.012820327 0.07898626
-0.076990396 -0.04608356 0.01521285 -0.10731603 0.07636978 -0.09298901 0.09315965 -0.05027516
-0.056484174 -0.04107788 0.060875043 -0.06425319 0.03217083 -0.047443148 -0.020413436 0.018470468
0.003213888 0.07274511 -0.06395544 -0.0059587504 -0.023707626 0.073479846 -0.048949853 0.07548303
0.022781063 -0.111148834 0.043165926 -0.06608585 -0.07041413 -0.010823805 0.0004176863 -0.017224899
0.07263738 -0.05040039 0.073017426 -0.007900334 0.044189263 -0.04583262 0.032578107 -0.03637072
00000000: 62bc 83bd f945 9cbd 3014 a93d 0091 d23d
00000010: 9d54 243d bf46 58bd 178a bb3d a07a c53d
00000020: 5e4d cdbd abac cb3d c65e 77bd e0a9 dc3d
00000030: d77e 37bd 680f e83a a0b3 11bc e14e 8a3d
00000040: 9a24 b03c 9f15 acbd 3895 d7bd 7dfe 933d
00000050: 1fb4 cd3d 8240 9b3d 395f 4b3d b179 c33d
00000060: b24e a13d 6817 893d 4948 67bc b155 713d
00000070: 3b85 de3d e67d e1bd e51e ea3b eb8f 02bd
00000080: 1114 3e3d bf98 35b9 bf1f ca3d a1ee 6c3d
00000090: d795 e2bd e88e bbbd 5b27 66bd f8d0 a43d
000000a0: a30c d83d ef12 d5bd 165f 54bd 8c0c 903d
000000b0: dc13 65bd 2989 773c 2b65 81bd ee5c cbbd
000000c0: f412 aebd 5d53 b03d aeaf a83d f329 d33c
000000d0: 1311 7b3d 0347 83bc 4fac 513d 7fd1 babc
000000e0: 1ec4 2f3c 3cfb d8bd 9b88 9ebc c3fb 9a3d
000000f0: e558 4d3d 9397 27bd 9fc2 0abc e07f c73c
00000100: 9502 e4bd 3e2f d9bd 8bc5 b73d 9c61 0dbc
00000110: c936 82bd c051 5a3d d3ec 2dbd 9f03 39bd
00000120: 0a69 a73d 2097 8bbd 389b 6a3c 25bd 9e3d
00000130: 7a9e b5bc 1e32 5e3d 3e24 e3bd 02ec afbd
00000140: 54c6 ccbd 823e 263d 03a5 6fbd 6c1e 1f3d
00000150: 209d 463d 91bb dfbc 1387 d0bc 50e3 133d
00000160: a4f5 86bd 0756 2cbd a1ff 23bd 79fa 7fbd
00000170: 6970 d13c 842a 753d dc9c 463d c97f 78bd
00000180: b895 a53d 7a29 d0bd 6441 6c3c 9398 dcbd
00000190: 6a0b fa3c ad2f ca3d c433 653d d52f cbbc
000001a0: e701 3f3d c202 d13d 0f49 86bc c087 e1bc
000001b0: a8e8 ac3d bd8b 0fbd 54cb debd fdc7 9dbd
000001c0: 9e65 a5bd 9b9a 263d 3021 6b3d 78a6 8e3d
000001d0: a189 74bc 9fdb 01bb d7c8 46bd a232 29bd
000001e0: f1f9 d5bd 8520 aebc efa7 abbc b1f8 903b
000001f0: 6040 a6bd 71eb 6bbd 6134 113d c490 e13d
00000200: 650c d6bd 7b5e cfbd 72f5 b4bd 2fcf ab3d
00000210: 0a93 cd3d bd37 14bd 4343 afbc b13d 23bd
00000220: 9a50 4a3d 2c17 a53d 0619 59ba 1dbe 843d
00000230: ec30 92bd 8e0a b2bb 256a 213d f45d dbba
00000240: b62d 9ebc cdff 79bd c4c9 6f3c 5cbb d43d
00000250: bdcd 603d e77a a93d 8b83 2c3d 46b5 a83d
00000260: a8b1 86bd 3a89 c03c e87d de3c ee79 0e3d
00000270: 8c91 3abd 75e5 a53d 5b31 cc3d 7f34 7fbd
00000280: 9687 aabd 8806 b7bd e7f4 e3bc 224e a7bd
00000290: e8bf 45bc 011b 513d 162c 70bd 524b 343d
000002a0: 4687 33bd 5799 993c 4526 c93c f2df 9b3d
000002b0: dbb1 aa3c 5c36 d4bd cac1 9dbc 52c3 023d
000002c0: d287 ac3c 5cca 723c 9571 ff3c d239 31bd
000002d0: 3824 cebd 9790 f53c cec4 8a3c fb4b c0bd
000002e0: 11d6 7f3d 11a3 9d3d 0e5a 94bd dd05 34bd
000002f0: db65 a1bd 3cd2 d0bd 9656 a43c 33f6 df3d
00000300: 12b1 8b3c 8d4c c4bc 822a 8abd 9c09 873b
00000310: d0af 40bd 78e6 4f3d 9172 c4bd 5ee0 c53d
00000320: 22c8 76bd 10ae bf3d 9993 873d 5119 c2bc
00000330: 2ee8 e03c 89f3 7cbd 1e88 c53d c499 893d
00000340: 4a9b d23b ad8b e93c 9faf 33bd 6fe2 d8bc
00000350: 773d 0bbd 05cf febb 590c 52bc 8cc3 a13d
00000360: 24ad 9dbd 1dc2 3cbd 513f 793c 82c8 dbbd
00000370: c267 9c3d 0671 bebd 7dca be3d 54ed 4dbd
00000380: f35b 67bd 4741 28bd 1c58 793d 2d97 83bd
00000390: 8fc5 033d bf53 42bd 143a a7bc 614f 973c
000003a0: 18a0 523b 63fb 943d 12fb 82bd 9f41 c3bb
000003b0: 7f36 c2bc 9a7c 963d a47f 48bd d996 9a3d
000003c0: 5a9f ba3c 00a2 e3bd c1ce 303d 0558 87bd
000003d0: 4935 90bd 5456 31bc e8fc da39 3b1b 8dbc
000003e0: e8c2 943d a470 4ebd 298a 953d 6770 01bc
000003f0: cdff 343d fcba 3bbd 9f70 053d 77f9 14bd

bias f4 [4]
0.08415367 -0.026224926 0.09901632 -0.07704356
00000000: c258 ac3d a8d5 d6bc 12c9 ca3d 04c9 9dbd

weight f4 [256, 80]
0.15572096 0.69086236 -0.5512827 1.1604453 -0.2737069 -0.63952726 0.53262746 -1.6194972
-0.9400881 -0.31903613 -1.8177731 1.0085328 -0.15123661 -0.117665164 0.0061663766 0.051856264
0.032561276 0.6050966 -2.0195193 -0.65332025 0.45717624 1.0169796 -1.0923885 0.16919701
-0.14463368 -0.1550496 -0.26820096 -0.546566 -1.7004569 -0.41114822 1.0759604 0.3015662
1.2770926 -0.7143079 -1.9577298 -0.25555515 0.7185096 0.84106815 -1.2083867 1.4089085
-1.3810217 1.0473957 0.44316682 0.46144938 -1.4015994 -0.47514826 -1.67909 1.7223072
-1.2683953 0.13376173 0.20658593 -1.3470764 0.98928374 -0.7998483 0.9244866 1.101104
0.8429035 -0.53926945 0.7514914 0.20676747 1.2528574 -0.36741635 -0.8636879 -0.6010857
-0.020198938 0.7118018 -0.03567838 -2.8464656 0.94891924 0.74539924 -1.2562779 -1.4517517
0.5176626 -1.2970994 0.44633117 -0.6603551 -1.0568236 1.3107705 -0.2178095 1.2920007
0.054617096 0.08774921 -0.5887612 0.6281348 2.2305403 1.0916673 -0.36312646 -1.4903686
0.8741385 -0.77824837 0.5069675 -1.3390195 0.16588935 -0.4709889 -0.64144355 -0.18486848
-0.618627 1.6734451 -0.8210974 -1.0797688 -0.07792907 0.80035263 2.1808832 -1.4663101
1.021992 -0.6166014 0.81654364 0.2514277 -0.27247563 0.71856165 0.99337703 0.11738763
-0.81912196 0.80536073 -0.5633114 -0.77567506 0.11562714 0.0739952 1.3722494 -0.07082764
-0.21181546 1.9593618 1.4455591 0.16241227 0.9941363 0.080306716 1.4148221 -0.623524
0.9156509 -1.3968567 -0.29637393 -0.5024704 -0.049851477 1.1168139 0.032033533 -0.2819174
0.29233038 -0.21481977 -1.7107909 1.1622365 0.8286973 -1.2657597 0.311582 -1.5722572
1.0579382 0.88935363 0.7934761 0.030195247 -0.2734577 1.047254 -1.1815817 -0.9942147
0.5744422 -2.216227 0.43955636 0.5847498 0.5602957 -0.35537243 -0.5854397 0.33671972
-1.4962251 -0.29423052 0.2222392 0.52573174 -0.8862241 -0.70189846 -0.3692924 0.13226084
2.0263205 0.87482226 -0.16440818 -0.54225343 -0.16213574 1.0828539 -1.3397044 -1.5958443
-0.45591858 -0.3655823 -0.19241233 1.494705 -0.43762913 -0.27110544 -0.64831966 -1.9228909
0.7778499 1.1185472 -1.3574712 -0.28183177 -1.4896665 -1.160136 -1.3359513 0.58925587
-0.44294316 -0.91983205 -0.37841633 0.78918314 -0.39303425 -1.005909 -0.091828756 -0.9941102
-1.0719632 0.44892636 -0.20801641 0.18437 2.029558 0.426779 1.6045616 0.055012487
1.3845512 0.114086896 -1.3485192 0.47250512 -1.1260548 -0.47697252 -0.02720005 -0.54039687
1.355015 -0.29758152 1.412455 1.3302934 -2.035935 1.1220706 -1.2091215 -1.0459144
-0.40401018 -0.073985316 0.6960265 0.49553153 -1.4467785 -0.25385422 -1.3992084 -0.6617299
1.2878687 -0.7051759 -0.55674195 -1.031057 -0.87707335 -0.74526954 -0.15059093 1.2215385
-0.22632359 -0.31070822 -1.0300412 0.069144875 0.1836354 -0.892494 1.292144 -1.0029325
-0.71919435 1.617928 -1.6038017 -0.6005222 -1.6835779 0.48944378 0.85412925 0.92881227
00000000: 5175 1f3e 5bdc 303f dd20 0dbf 7989 943f
00000010: 5023 8cbe 0fb8 23bf 465a 083f af4b cfbf
00000020: 9da9 70bf b458 a3be caac e8bf 9a17 813f
00000030: c5dd 1abe 6ffa f0bd 510f ca3b 3c67 543d
00000040: f95e 053d 9ce7 1a3f ce3f 01c0 ff3f 27bf
00000050: 0113 ea3e 632c 823f 63d3 8bbf fb41 2d3e
00000060: da1a 14be 53c5 1ebe a351 89be c0eb 0bbf
00000070: 92a8 d9bf 0582 d2be 12b9 893f e366 9a3e
00000080: c577 a33f e2dc 36bf e496 fabf 20d8 82be
00000090: 3ff0 373f 3e50 573f 6aac 9abf 1d57 b43f
000000a0: 52c5 b0bf 1011 863f c3e6 e23e 1843 ec3e
000000b0: 9c67 b3bf a246 f3be 6cec d6bf 9074 dc3f
000000c0: c75a a2bf d6f8 083e 438b 533e 006d acbf
000000d0: b341 7d3f dcc2 4cbf 27ab 6c3f faf0 8c3f
000000e0: 86c8 573f 900d 0abf be61 403f daba 533e
000000f0: a25d a03f ff1d bcbe a61a 5dbf c1e0 19bf
00000100: 3e78 a5bc a538 363f 7e23 12bd 7e2c 36c0
00000110: 5fec 723f 7cd2 3e3f b7cd a0bf 00d3 b9bf
00000120: 8985 043f 5a07 a6bf 8585 e43e 080d 29bf
00000130: ff45 87bf 54c7 a73f 7409 5fbe 4760 a53f
00000140: 2db6 5f3d dcb5 b33d 0eb9 16bf 71cd 203f
00000150: 2cc1 0e40 c1bb 8b3f b6eb b9be 66c4 bebf
00000160: 8ac7 5f3f 493b 47bf 9fc8 013f fe64 abbf
00000170: e6de 293e 7525 f1be a535 24bf 2a4e 3dbe
00000180: 575e 1ebf 7333 d63f 7033 52bf dd35 8abf
00000190: 4799 9fbd e9e3 4c3f 9793 0b40 0db0 bbbf
000001a0: a2d0 823f 97d9 1dbf 0109 513f 22bb 803e
000001b0: ed81 8bbe a8f3 373f f54d 7e3f ed68 f03d
000001c0: fab1 51bf 1f2c 4e3f 2d35 10bf a492 46bf
000001d0: eccd ec3d cc8a 973d dea5 af3f 150e 91bd
000001e0: 27e6 58be 5ecc fa3f 1508 b93f 674f 263e
000001f0: b77f 7e3f d977 a43d e418 b53f 459f 1fbf
00000200: 1968 6a3f 33cc b2bf 53be 97be e6a1 00bf
00000210: 1031 4cbd c2f3 8e3f 9835 033d 7a57 90be
00000220: 54ac 953e b7f9 5bbe 32fb dabf 2ac4 943f
00000230: 8225 543f 6a04 a2bf ad87 9f3e b93f c9bf
00000240: 856a 873f aeac 633f 4021 4b3f 065c f73c
00000250: a602 8cbe 6b0c 863f 123e 97bf db84 7ebf
00000260: a50e 133f aad6 0dc0 880d e13e 2ab2 153f
00000270: 8a6f 0f3f 60f3 b5be 60df 15bf 8766 ac3e
00000280: 4e84 bfbf 62a5 96be ac92 633e 5b96 063f
00000290: 95df 62bf 9eaf 33bf e513 bdbe 636f 073e
000002a0: 3caf 0140 5af4 5f3f 9e5a 28be 1fd1 0abf
000002b0: e906 26be f59a 8a3f 6f7b abbf a044 ccbf
000002c0: 296e e9be 9a2d bbbe bd07 45be 7e52 bf3f
000002d0: ed10 e0be 55ce 8abe 47f8 25bf 4a21 f6bf
000002e0: 2c21 473f 8e2c 8f3f 9ec1 adbf 414c 90be
000002f0: 64ad bebf 567f 94bf 7400 abbf 79d9 163f
00000300: 72c9 e2be 1d7a 6bbf c9bf c1be e807 4a3f
00000310: c93b c9be a0c1 80bf b710 bcbd 027e 7ebf
00000320: 1736 89bf add9 e53e 4102 55be 7dcb 3c3e
00000330: 47e4 0140 c782 da3e 4662 cd3f c654 613d
00000340: f938 b13f 64a6 e93d 479c acbf 31ec f13e
00000350: 9022 90bf be35 f4be a4d2 debc 7357 0abf
00000360: 2271 ad3f 9b5c 98be 53cb b43f 0e47 aa3f
00000370: c24c 02c0 02a0 8f3f 7ec4 9abf 86e0 85bf
00000380: 6cda cebe 9d85 97bd cb2e 323f 4fb6 fd3e
00000390: 0a30 b9bf 2ef9 81be 4319 b3bf 2167 29bf
000003a0: e2d8 a43f 6886 34bf a486 0ebf adf9 83bf
000003b0: e187 60bf fcc9 3ebf 8234 1abe 605b 9c3f
000003c0: 5fc1 67be 2615 9fbe 64d8 83bf d49b 8d3d
000003d0: eb0a 3c3e 7d7a 64bf f964 a53f 1860 80bf
000003e0: 1f1d 38bf 4418 cf3f 6049 cdbf d3bb 19bf
000003f0: 7b7f d7bf 6098 fa3e 37a8 5a3f a4c6 6d3f
