Alpha_1e-9/Retraining_3/4-PAM_SNN_MMSE_Equalizer_im_dd.pt (torch, 246267 bytes, 11 tensors)

weight f4 [80, 328]
000000 de 54 2d 3d 15 06 da bc a7 79 2c 3d 62 bb 36 3d
       0.042317264 -0.026614228 0.042108204 0.044612296
000010 d8 fd 08 bd a7 41 21 3d 6c 2a bd 3c 3f 6f ee 3c
       -0.03344521 0.03936925 0.023091517 0.02910578
000020 1b 0a 6e 3c 8f c5 c7 3b 2f c7 92 bc 80 72 7d 39
       0.0145287765 0.006096549 -0.017917244 0.00024170615
000030 91 c4 b9 bb a7 cf 05 bd 02 df eb 3c 57 d6 26 bd
       -0.0056691845 -0.032668736 0.028792862 -0.040731754
000040 b9 98 4b bd 17 47 56 bd 39 d7 e6 3c dc fb 92 bc
       -0.049706195 -0.05231389 0.028178798 -0.017942362
000050 93 8b 95 3b 73 3b 1a 3d e9 5c 24 3d a7 0f 10 3d
       0.0045637577 0.03765435 0.04012767 0.035171177
000060 cd 4e 92 3c 14 9b 54 3d 71 81 1c bd be 9b ba bb
       0.01785984 0.051905707 -0.038209382 -0.0056948354
000070 a0 88 5f 3c e7 e7 24 bd 87 9c e4 bc e0 26 02 bd
       0.013643414 -0.04026022 -0.02790667 -0.031775355
000080 2f 18 2c bd 48 a3 6f 3c cb c4 e4 3c 9c 53 2d bb
       -0.04201525 0.014626332 0.02792587 -0.002644754
000090 8c 72 3f bd 01 a9 54 bc 66 e6 0a 3c de b0 8a bc
       -0.0467401 -0.012979747 0.008477783 -0.01693004
0000a0 04 e8 91 bc c7 6d 13 bd e3 bc 12 bc 0d da 61 3d
       -0.017810829 -0.035993364 -0.008956167 0.05513959
0000b0 3e 50 12 bd 35 3a 31 3d 4e 5f 44 bd 7d e4 49 3d
       -0.035721056 0.0432684 -0.047942452 0.04929017
0000c0 50 c0 e3 3b c3 38 67 bc d8 6e a4 3c c3 0f 63 3c
       0.0069504157 -0.014112654 0.020072386 0.013858738
0000d0 4c b7 07 3d c9 3a fd bb 1c f4 b4 3c 8e 6e 85 bc
       0.03313379 -0.007727955 0.022089057 -0.016288068
0000e0 81 74 71 3c 3f 96 dd ba cd 67 58 3c f4 5a c7 bc
       0.014737249 -0.0016905739 0.013208342 -0.024335362
0000f0 bb d5 1d 3d b9 33 f3 3c a6 6e ff 3c c8 7d 67 3c
       0.038533907 0.02968775 0.031180691 0.01412911
000100 a2 b1 c8 bc 1b 55 e2 bc b7 e7 c6 bc 3a 6a ae 3b
       -0.024498764 -0.027628472 -0.024280412 0.005322722
000110 7e fd 31 3d 1d 44 e9 bc ee ec ad bc 69 0a 75 39
       0.04345464 -0.028474862 -0.021231141 0.00023368899
000120 a9 26 f6 3c fe 07 65 bc 6a 63 c2 bc 06 2e 59 3d
       0.030047731 -0.013978956 -0.023729045 0.053022407
000130 7c 4e df bb 6c 2f e6 bb 27 53 71 bb 59 5b 14 3d
       -0.006814776 -0.007024696 -0.0036823244 0.03621993
000140 ff d7 d6 3c b7 fa 1b 3c fc fe b4 bc c8 d5 93 3c
       0.026226042 0.009520224 -0.022094242 0.018046275
000150 50 6e ae ba c5 9b df bc de f6 b9 3b 46 fa a7 3c
       -0.0013308022 -0.027295956 0.005675181 0.020505082
000160 d2 83 44 3d 6f 37 2b bc d7 59 17 bd 98 75 9d bc
       0.047977276 -0.010450228 -0.036950912 -0.019221112
000170 8e 9c 15 bd c1 63 2c bc f9 53 1d bd 82 cd 45 3d
       -0.036526255 -0.01052183 -0.03841016 0.04829169
000180 69 43 16 bd c1 e6 f4 3c 18 f9 58 3d f1 dd cb 39
       -0.03668538 0.029895188 0.05297193 0.00038884536
000190 b2 f5 3c bd e4 82 05 bb 21 8f 81 bc a7 c4 7c bc
       -0.04613275 -0.0020372206 -0.01581532 -0.015427745
0001a0 71 c4 d0 3a 35 8b fb 3c 2a b3 c4 bc 11 9d 4f 3d
       0.0015927685 0.030706028 -0.024011213 0.0506869
0001b0 4b c3 74 3c 22 67 2a bc 01 64 94 3c b2 e3 50 3c
       0.01493914 -0.010400565 0.018114092 0.012749599
0001c0 a1 ce 56 3d e2 fa 40 bd 30 31 82 3c 7d ba 03 bd
       0.05244315 -0.04711426 0.015892595 -0.03216027
0001d0 40 81 bf 3b 72 88 30 3c c9 0d 06 bd 56 52 a2 bb
       0.005844265 0.010774719 -0.03272799 -0.004953663
0001e0 b7 37 e9 3c 12 33 c0 3c 9f 33 ed 3c 74 70 82 3c
       0.02846895 0.023461852 0.028955279 0.015922762
0001f0 49 44 3e 3c f1 28 05 3d 87 0e 3a 3c 1b 2c ee 3c
       0.01161296 0.032509748 0.011356003 0.029073766
000200 50 e6 27 bd 04 b7 02 bd 85 32 01 bc 11 74 95 bc
       -0.040991127 -0.03191282 -0.00788558 -0.018243821
000210 94 31 be 3c 17 0f f5 3c eb 61 2f bd b5 fc 8a bc
       0.023217 0.029914422 -0.04281799 -0.016966203
000220 fb 27 25 3c 72 4a cb 3c 8e 8e b1 bb 37 00 2d bd
       0.010080333 0.024815772 -0.005418605 -0.042236533
000230 e5 d0 c9 bb a3 d3 15 bd 1b 68 c7 bc d3 76 21 bc
       -0.0061589354 -0.036578786 -0.024341634 -0.00985499
000240 39 64 b3 bb da 31 04 3b 30 b8 62 bc 62 9c 20 3d
       -0.005474594 0.0020171315 -0.013837859 0.03921164
000250 2c 4b c0 bc af b8 57 3d 9a e8 18 bd bc 85 b8 3c
       -0.023473345 0.052666362 -0.0373312 0.022524707
000260 33 93 9b 3c 9d 1d 1c 3a ed 35 ae 3c 36 f7 61 3c
       0.018991088 0.00059553405 0.021265948 0.01379185
000270 b2 58 49 bd 79 38 1f bd 47 28 0a bd b7 49 3e bd
       -0.049156852 -0.038872216 -0.033729818 -0.04645702
000280 a9 a0 4c bd 38 b3 f7 3b 37 c9 7d 3c ec 41 0d 3d
       -0.049957905 0.0075592063 0.015489868 0.034486696
000290 62 e7 9a bc 74 19 81 3b 38 67 90 bc 05 cc b2 bc
       -0.01890916 0.003939802 -0.017627344 -0.0218258
0002a0 5d 23 0f bc 97 21 03 bd 38 9c bb 3b 09 26 50 3d
       -0.008736459 -0.032014456 0.00572541 0.050817523
0002b0 06 a2 f4 3c 8f 28 08 bd 57 71 08 bd 62 23 e9 3c
       0.029862415 -0.033241805 -0.033311214 0.028459255
0002c0 70 b5 57 3d 59 26 52 3d 8d d0 d7 bc 3b 5e 9c bc
       0.052663267 0.051306102 -0.026344562 -0.019087901
0002d0 55 54 80 3b 59 61 52 3b dd 5a 56 3d f9 82 53 3d
       0.003916303 0.003210148 0.052332748 0.051638577
0002e0 95 52 42 bd 2f 52 46 3d c3 94 f8 3c e5 aa f0 3c
       -0.047442038 0.04841822 0.030344373 0.029378364
0002f0 72 65 bb bb 89 3d 46 bd a0 5c 12 bd 2c 1a 51 bd
       -0.0057188803 -0.04839853 -0.035732865 -0.05105035
000300 50 f1 5f bd 67 2a 63 bc 25 9f ce bc 42 55 39 bd
       -0.054673493 -0.01386509 -0.02522237 -0.045247324
000310 cf 11 4b 3d eb 56 4b 3d 45 78 44 bd b9 6e b6 bc
       0.04957753 0.04964344 -0.04796626 -0.022269594
000320 c2 10 f5 3b 70 d4 01 bc 8b 10 41 bc 06 9d cd bb
       0.0074788043 -0.007924184 -0.011783729 -0.006274822
000330 f8 72 fd bc 51 43 2f 3d 6b 89 5f bd c8 fc 97 3b
       -0.03093861 0.042788807 -0.05457441 0.004638288
000340 0f 7f 8d 3c 45 56 27 bd 3b 6c 13 3d 38 a8 09 bd
       0.0172725 -0.040853757 0.03599189 -0.03360769
000350 dd 5c 77 bb ca 35 29 3d 41 e3 49 bd 5b 93 dc bc
       -0.003774456 0.041311063 -0.04928899 -0.026925733
000360 d9 32 be bc fa d9 33 3d 10 e1 08 3d 67 ff cb 3b
       -0.023217605 0.04390905 0.03341776 0.0062255147
000370 66 88 70 3b a4 1c d7 3c 69 f5 53 3d 9a c3 43 bd
       0.0036702394 0.026258774 0.051747713 -0.047793962
000380 b7 38 13 3d ca aa 21 bd 81 20 1b 3a d9 fc 42 bc
       0.03594276 -0.039469518 0.0005917624 -0.011901104
000390 f5 75 e7 3c 1f bb 60 bd 77 bc b4 bc a8 57 14 bd
       0.028254488 -0.054865953 -0.022062523 -0.036216408
0003a0 5b 72 39 3d 87 47 ed bb 50 65 11 3d 34 96 e2 3b
       0.045275073 -0.0072411927 0.03549701 0.0069148783
0003b0 4e 5f e2 bc 86 96 dd 3c 8c ff 4c bc fa eb 83 3c
       -0.027633335 0.027049314 -0.012512099 0.016103733
0003c0 53 8a 44 3d 73 31 ba bc 5f 5b 2a 3d 2d 53 0b 3b
       0.04798348 -0.022728657 0.041591045 0.0021259293
0003d0 99 49 df bc ad d0 aa 3c b8 af 3f 3d 8a 2c d8 bc
       -0.027256774 0.020851457 0.046798438 -0.026388425
0003e0 bb 93 36 3c c9 62 32 bd 23 84 79 bc 51 19 05 3d
       0.01114362 -0.04355124 -0.015229258 0.032494847
0003f0 8b cd 60 3c af c5 96 bc a8 2a 23 bd 83 5c b2 3c
       0.01372088 -0.01840481 -0.039835602 0.021772629

input_weights f4 [80, 80]
000000 0a 01 ca 3c 4f bf d7 3d 9a 2e 7f bd 34 d8 66 3e
       0.024658699 0.10534536 -0.062300302 0.22543412
000010 02 10 4a 3e 40 a3 15 be a2 4c f4 3e cc 65 c4 3d
       0.19732669 -0.14613056 0.47714716 0.09589729
000020 f8 51 4e be 88 4a 80 3e 61 18 a6 be 89 25 81 bd
       -0.20148456 0.25056863 -0.32440475 -0.063059874
000030 52 22 3a bd 51 9e c3 3b c7 9c 45 bd 9c 99 25 3e
       -0.045442887 0.0059698005 -0.048245218 0.16171879
000040 c0 f1 50 bd a1 d3 3b bd 6f e3 f0 3d 96 e4 97 3d
       -0.0510118 -0.045856122 0.117621295 0.07416646
000050 40 d3 45 3e 8e d9 09 3e b3 ed 9b be cf d6 48 bd
       0.19318867 0.13461897 -0.30454788 -0.049032982
000060 09 17 e7 3e 2c 7d f2 bc d5 4d 19 be 1f 68 1c be
       0.45134762 -0.029600702 -0.14971097 -0.15274094
000070 a2 df 8c bd bc 7c 53 be 00 85 4b 3d 95 3e ed 3d
       -0.06878592 -0.20653051 0.049687386 0.11584202
000080 fe 75 9c bd 6a 08 c0 bd f3 25 2f 3e cc 18 6c 3d
       -0.07639693 -0.09376605 0.1710432 0.057640836
000090 ee 90 9b bb 11 d5 61 3e 81 36 5b be ec 06 38 be
       -0.0047475016 0.22053935 -0.2140751 -0.1797139
0000a0 0f fd 5d be 65 ae 05 be 81 f3 a8 bd 96 41 5a bd
       -0.21678565 -0.13054807 -0.0824957 -0.053285204
0000b0 b1 c3 92 be bd 21 a1 be 26 81 ad be e9 ba 9a bd
       -0.28664926 -0.31471053 -0.33887595 -0.075551815
0000c0 a8 21 b3 be 7e c8 25 be 6b bd d7 3d 54 b3 32 3c
       -0.34986615 -0.16189763 0.105341755 0.010907013
0000d0 1f c5 d7 bc ca c9 83 bd e4 ba 9c bd fa f9 c6 bd
       -0.026339112 -0.064349726 -0.07652834 -0.09715648
0000e0 aa c8 0b be b7 3b f8 3d 18 e7 fc bd a0 6b ef bc
       -0.13650766 0.12120765 -0.12348765 -0.029226124
0000f0 f5 09 80 be 1f 1a 47 3e af c0 04 3e 5a 51 8d be
       -0.25007597 0.19443558 0.12964128 -0.2760113
000100 4c b4 9f 3d 8f e4 46 bc 44 3e 63 be e4 e8 23 3e
       0.07798061 -0.012139454 -0.22191721 0.1600681
000110 78 70 31 3e 32 b4 be be 8d 23 3c 3c 08 15 3c 3d
       0.1732806 -0.37246853 0.011483085 0.045918494
000120 ee ed 84 be 8d a8 1f 3e 7c 83 ea bc 01 19 74 3e
       -0.25962776 0.15591641 -0.02862715 0.23837663
000130 62 ce 7e 3d 62 0f 34 bd f2 9e 9d bd 6a 62 4c 3d
       0.06220854 -0.043959983 -0.07696332 0.049898542
000140 be 3b 7d 3e 9b 0e 51 3e 09 1a 64 3d 58 84 e1 bd
       0.24729821 0.20415728 0.05568889 -0.11011571
000150 68 d3 81 3e 7c d8 bb 3e 7b 7a 25 be 10 6a 68 be
       0.25356603 0.36688602 -0.16160004 -0.2269671
000160 61 d7 8c 3d 23 ed 75 3e 1b 57 83 bd 87 a3 2b 3d
       0.06877018 0.24016242 -0.064130984 0.041904
000170 ae 37 19 be 7e 19 94 3e aa a0 b6 3e eb 67 b7 bd
       -0.14962646 0.289257 0.35669452 -0.08955368
000180 5f 8d a3 be e4 af 09 3b 61 21 3b 3d c8 26 a1 bd
       -0.31943795 0.002100938 0.04568613 -0.07868725
000190 f4 2b 2e 3e 22 b0 c6 bd 50 5e 48 be 2a b3 99 3d
       0.17008954 -0.097015634 -0.19567227 0.07504876
0001a0 c6 a4 76 be 01 e3 d1 bd 1b f3 b1 be f5 29 ee bd
       -0.24086294 -0.10248376 -0.34755787 -0.116290964
0001b0 ce 8f b1 bc de 3f 82 bd 88 57 25 be 30 59 04 3e
       -0.021675017 -0.06359838 -0.16146672 0.12924647
0001c0 19 1b c3 bd 06 54 22 bd a4 26 43 3c 34 e0 7d be
       -0.09526653 -0.039630912 0.011911068 -0.24792558
0001d0 bc d4 c2 3d e8 26 2e be 9c 21 05 3d 01 af f4 bd
       0.09513232 -0.17007029 0.032502756 -0.11947442
0001e0 2e 25 04 be 68 3d 41 3e b9 34 f2 bc 5f 8a 38 3e
       -0.12904808 0.18871081 -0.029566156 0.18021534
0001f0 68 60 54 3e a6 0e 90 bc 99 1f 28 bc 16 59 86 be
       0.20739901 -0.01758511 -0.01026144 -0.26239842
000200 09 44 5c bd 35 98 10 3c ec 5f 25 be 71 c4 f0 3d
       -0.05377582 0.0088253515 -0.16149873 0.11756218
000210 78 b6 9f be f2 f1 73 be e0 1e 1e bd ea c4 88 3d
       -0.311939 -0.23822764 -0.038603663 0.066781834
000220 7b e6 ca 3c 48 9a f0 ba 42 58 e3 3c 47 0d 8c bd
       0.024768105 -0.0018356526 0.027752046 -0.0683847
000230 14 71 07 3e c3 c9 10 bc bc 44 a6 3e fe 98 69 3e
       0.1322673 -0.008837166 0.32474315 0.22812268
000240 e8 b9 69 bd f9 6b a9 3d 0e 4e 64 bd 60 13 7c 3d
       -0.05706206 0.08272547 -0.0557385 0.061541915
000250 f5 20 4b be a8 f8 ab bd 4a ce 63 be 94 63 10 be
       -0.19836791 -0.08397037 -0.22246662 -0.14100486
000260 b5 ea 44 bd b5 9f 0e 3e a6 d1 62 be ba 2d 81 be
       -0.048075397 0.13928111 -0.22150287 -0.252302
000270 8b 8f 73 3d 73 58 aa bd 30 8d 5b be e8 bc 22 bd
       0.059463065 -0.083176516 -0.21440578 -0.039730936
000280 8b 73 90 bd 94 23 03 3e 25 23 19 bd 0b 74 27 3e
       -0.07053288 0.1280654 -0.037387032 0.1635286
000290 3a 11 16 bd 3f 33 06 be 9a 96 4c be 11 1a 2a 3e
       -0.036637522 -0.13105486 -0.19979325 0.16611506
0002a0 24 30 b8 3d aa b8 32 3e f3 41 8c ba 28 ef 81 bd
       0.08993557 0.17453256 -0.0010700807 -0.063444436
0002b0 00 b7 76 be 02 bb d4 3c 29 1c d3 bb 2a 8e 07 3e
       -0.24093246 0.025968079 -0.006442566 0.13237825
0002c0 87 e5 13 be 8d 54 fc bc d2 f8 44 bd 47 84 92 3d
       -0.14443026 -0.030802036 -0.048088856 0.07154136
0002d0 a5 14 cf ba 91 dd 1a 3d a4 e4 96 3c c5 e7 eb 3d
       -0.0015798999 0.03780896 0.018419571 0.11518816
0002e0 78 d7 bc 3d 0b 52 1c 3d 83 d8 a6 bb 3f e6 fd bd
       0.09220785 0.03816418 -0.005091728 -0.123974316
0002f0 8b 65 3d 3e 57 06 36 be 41 f6 37 3d 7c 75 c2 3d
       0.18495767 -0.17775856 0.04491258 0.094950646
000300 15 53 a8 3c b4 6c 70 bd 6c b5 0d be d4 a8 82 3e
       0.02054743 -0.058697417 -0.13838738 0.2551943
000310 e2 37 3a be 0f 70 21 bd 02 67 4d 3e c3 5a 38 3e
       -0.1818538 -0.039413508 0.20058826 0.18003373
000320 a1 d9 34 bd 5b 4c dd 3c 0b 6e ba bd 9e 71 95 3e
       -0.04415286 0.027013948 -0.0910302 0.29188246
000330 e7 22 d1 3c 10 81 f0 3d 5e d5 01 be cc 4b cf 3d
       0.025529338 0.11743367 -0.1267905 0.10121879
000340 58 02 48 3d fc fc 02 3e 7d 7e d0 bc ad 66 7c bd
       0.04883036 0.12791818 -0.02545094 -0.061621357
000350 5c b4 46 bd 53 72 3f be 6e 6a d1 bc 8b 65 0a 3e
       -0.048511848 -0.18695955 -0.025563445 0.13515298
000360 dd e9 c3 3d 97 8e ce 3b 65 3c 81 be 87 52 3b 3d
       0.0956609 0.006303619 -0.2524139 0.045733
000370 8c 9b 93 3d a9 06 0d 3e 2c 1b 70 3d e0 02 84 bd
       0.072074026 0.13772072 0.058619663 -0.06445861
000380 8e 2b 53 be 7f 2a 29 3e 0c 91 f9 bd a3 4a 8d bd
       -0.20622084 0.16520117 -0.121858686 -0.068990014
000390 f9 59 4f 3e a4 f0 82 3d 92 e0 31 3e dd 93 06 be
       0.20249166 0.06393555 0.17370823 -0.13142343
0003a0 21 fa 27 3e 67 47 92 bd 33 c0 dd bb b5 30 ab 3e
       0.1640401 -0.07142525 -0.0067672967 0.33435598
0003b0 21 7d 2d be 99 ce f9 bd 8c 23 ad bd 61 7f 82 3e
       -0.16942264 -0.121976085 -0.08454046 0.25487807
0003c0 da 69 96 3e 2d 45 5a be 66 d0 42 3c 7f 2d 45 3e
       0.29377633 -0.21315451 0.011890506 0.19255637
0003d0 63 60 6c 3d c3 8f 0f 3e 64 e5 0b be 19 02 f2 3b
       0.05770911 0.14019684 -0.13661724 0.007385504
0003e0 f4 35 eb 3d 7a b9 20 3e 6b d7 07 be 19 3e a0 be
       0.114849 0.15695754 -0.13265769 -0.31297377
0003f0 78 f9 ad 3e 5f 96 8d 3d 37 27 f2 be fb 45 30 3e
       0.33979392 0.06913447 -0.47295544 0.17214195

recurrent_weights f4 [80, 80]
000000 00 00 00 00 46 3c d5 be 79 9f 5e 3d 78 16 06 bd
       0.0 -0.41647547 0.054351304 -0.03273627
000010 4f 6e 66 3d 49 89 2e 3e 96 47 57 3e 8e 90 02 be
       0.056257542 0.17044558 0.21023402 -0.12750456
000020 f8 aa 2f bc 5f 34 33 be 0b 6e 29 be b0 5c 3f 3e
       -0.0107219145 -0.17500447 -0.16545884 0.18687701
000030 3b b6 9f 3d dc 8d 0b 3e 29 d5 7e 3d 64 de 51 be
       0.077984296 0.13628334 0.062215004 -0.20494992
000040 14 d9 f2 3e 21 25 53 be 18 08 e3 3d 22 cb 18 3e
       0.47431242 -0.20619632 0.11085528 0.14921239
000050 cb 06 34 3e 3b 28 0c 3e 63 63 b4 3d 85 8e b4 bd
       0.17580716 0.13687222 0.08808019 -0.08816246
000060 d5 2c 03 3e ce 8d ed bd 7c c4 b0 3c 4d 33 c3 3e
       0.12810071 -0.11599313 0.021578066 0.38125077
000070 72 c5 47 3e 29 59 af 3e 4c 19 72 3e e1 0b ff 3d
       0.19508913 0.3424771 0.23642462 0.124534376
000080 02 fa e0 be 30 5e c4 3d e9 16 fb 3d 7c 8a 02 be
       -0.4394074 0.09588277 0.12260229 -0.1274814
000090 6b 8a 53 3e d8 3b 70 3d fc cb e4 bd ae 2b a9 be
       0.20658271 0.05865082 -0.111717194 -0.33041137
0000a0 69 40 06 be 48 f4 fb 3d eb eb 02 be 8d 0b 52 bd
       -0.13110508 0.12302452 -0.12785308 -0.051280547
0000b0 e5 ae 7f 3c 60 3d 88 bd 56 00 42 3e 90 f3 fb 3d
       0.015605663 -0.06652331 0.1894544 0.12302315
0000c0 5a 75 d2 bc f1 0f 30 bd 21 ed c7 3e de 14 20 be
       -0.025690723 -0.042983953 0.39048102 -0.1563296
0000d0 d6 20 c5 bd 80 5e a2 be b0 b5 4f 3d 47 b5 bb bd
       -0.096254036 -0.31712723 0.05071038 -0.09165435
0000e0 0c a7 e6 3c 1a b2 94 be f3 69 f2 3c 8b 1c 1d 3e
       0.028155826 -0.2904213 0.029591536 0.1534292
0000f0 03 af 8b 3d dc dc 29 bc fc 1a 71 be 11 3f 79 3e
       0.0682049 -0.010367598 -0.2354545 0.24340464
000100 db 6a 76 bd a7 3f 06 3e d6 ce bf 3d 30 2c 0e 3d
       -0.0601605 0.13110219 0.09365623 0.03471011
000110 c2 75 cd 3d a7 fd 65 be 97 e5 28 be a0 d0 6f bd
       0.10032226 -0.22460042 -0.16493832 -0.05854857
000120 5f 13 ac 3d 6e d4 3d 3e 5c 0a 3c be 5b 5b 5e be
       0.08402132 0.18538067 -0.18363327 -0.21714537
000130 57 03 7b 3e 7e e2 0f 3d 6a 48 4b be a8 01 8d 3d
       0.24512993 0.03512811 -0.19851843 0.068850815
000140 cb e2 04 bc 00 00 00 00 b7 5a 02 3e 78 4b 70 3e
       -0.008110712 0.0 0.12729917 0.23466289
000150 c1 af 57 be 35 22 c7 bc 7f ac a5 be ef e6 52 be
       -0.21063139 -0.024308303 -0.32358167 -0.20595907
000160 af f4 7e 3e b8 ea 3d be c4 66 5f 3e 8d cb 76 3e
       0.24898027 -0.1854657 0.21816546 0.24101086
000170 cf 0a c4 3d b4 fb ad 3d ab 75 55 be 3b 7a 41 3e
       0.09572374 0.08495274 -0.20845668 0.18894283
000180 cc 72 ca 3d ed 6b bc 3d bf 12 17 be 75 5c e7 bd
       0.09885177 0.09200273 -0.14753245 -0.11296932
000190 1c e9 8f be 7c bf d0 bd 30 77 02 3d c1 fe 64 3e
       -0.28107536 -0.10192773 0.031851947 0.22362806
0001a0 db 4a 10 be d2 f3 f7 3e 09 9b 64 be 96 02 61 be
       -0.14091055 0.48428208 -0.22324766 -0.21973643
0001b0 c1 3b 89 3b ca af 9b 3d 4d 9f 36 be 1b 84 9f 3d
       0.0041880314 0.076018885 -0.17834206 0.07788869
0001c0 2f 30 6a be 3f 19 bd 3d 97 c6 23 be bd 2e e9 be
       -0.22869943 0.09233331 -0.15993725 -0.4554347
0001d0 77 13 43 be f6 76 3b bd ac 29 34 3e 72 35 a2 3e
       -0.19050394 -0.045767747 0.17594022 0.316814
0001e0 93 50 4f 3d bd 13 b9 3d f4 81 3c 3d 16 92 af bd
       0.05061395 0.09036968 0.04602237 -0.085727856
0001f0 19 51 00 bd 3b ed cc bc 0c fb a6 bd 06 26 c3 bd
       -0.03132734 -0.025015464 -0.08153352 -0.09528737
000200 2e 91 4f 3d 7b 7a 7e 3d ba a0 08 be 0c 0e 1a 3e
       0.050675564 0.062128525 -0.13342562 0.15044421
000210 a9 34 77 be 00 c7 d0 3d 8e c5 e7 bd c7 17 27 bd
       -0.24141182 0.10194206 -0.113169774 -0.04079416
000220 c4 8a 22 3e 49 cc a0 bd 22 36 0d 3d d9 b1 c9 3d
       0.15873247 -0.07851464 0.034475453 0.09848375
000230 9f 22 82 be 33 12 d6 3c b4 b8 b6 3d e8 83 32 bd
       -0.2541704 0.026131725 0.08921948 -0.043582827
000240 bc 7c c7 3c 40 b0 9e be fb c9 bc be b0 ba 6e 3e
       0.02435147 -0.30993843 -0.3687285 0.23313403
000250 83 8f 08 3e 17 70 6a bd 8f 9f 87 3c fb 7d 9a be
       0.13335995 -0.057235803 0.016555576 -0.3017424
000260 5a c4 19 3e 42 9e 5c 3e d0 e3 12 3d 50 a2 3c bc
       0.15016308 0.21544746 0.03586179 -0.011513308
000270 59 f0 56 bb 18 70 2e be bf f1 03 be 4f 9e 6d 3e
       -0.0032797067 -0.17034948 -0.12885188 0.23204921
000280 42 69 15 3d 4c 97 3e 3e 00 00 00 00 5d 63 7a be
       0.036477335 0.18612403 0.0 -0.24451967
000290 c4 d3 07 3e ff e7 9f bd 6a 11 cb 3d 5d af 99 bd
       0.13264376 -0.078079216 0.09915431 -0.07504151
0002a0 27 a3 df bc 46 d3 23 bd 1b dc 8a bc b0 69 93 3d
       -0.027299477 -0.039996408 -0.016950658 0.07197893
0002b0 3c 2a 00 be 6d f7 8f ba 99 a4 5d 3e 0f b4 36 3e
       -0.12516111 -0.0010983773 0.2164482 0.17842124
0002c0 f9 da 97 bd e1 9f 1b 3e 27 a7 cb bd dd 47 50 be
       -0.074148126 0.15197708 -0.09943991 -0.20339914
0002d0 d7 e0 57 be 90 07 81 3e e4 15 93 be dc 1c d9 3d
       -0.21081863 0.25201082 -0.2872764 0.106012076
0002e0 3e 15 39 bd db 22 4a 3e 02 5a b0 3d 3e a2 17 be
       -0.045186274 0.19739859 0.08610918 -0.14807984
0002f0 77 04 5c 3e c2 55 39 be df 88 03 bd b0 99 d0 bc
       0.21486078 -0.1809912 -0.032112952 -0.025463909
000300 ba 08 62 bd 9b ed 7c 3e db f4 93 be ba 68 f5 3b
       -0.055184104 0.24700014 -0.28897747 0.007489291
000310 55 9e 6d bd 67 fe 27 be e8 80 97 3d a0 35 d9 3d
       -0.058012325 -0.1640564 0.07397634 0.10605931
000320 97 38 96 be 60 3b 66 3d a4 fe bb 3b f2 48 5c 3d
       -0.2934005 0.05620897 0.0057371426 0.053780504
000330 22 72 6c 3d 60 59 f0 bd f8 db 47 3c bb d3 50 bc
       0.057726033 -0.11735797 0.012198441 -0.012745793
000340 88 6d 10 3d 05 d8 2e be a1 ad 3d 3e 60 51 70 3d
       0.035260707 -0.17074592 0.18523265 0.058671355
000350 3d b7 2f be ad d4 9a bd 73 00 c1 bd 6d d8 5a 3e
       -0.17159744 -0.07560096 -0.09423914 0.21371622
000360 4e 6c 6c bc 02 d7 57 be 4c af 1a 3e 39 fe 3a be
       -0.014430119 -0.21078113 0.15105933 -0.18261041
000370 22 26 50 bc bb ff bf 3d 14 18 0d 3e a8 11 b6 be
       -0.012704404 0.093749486 0.13778716 -0.35560346
000380 5a 2b 42 bc 87 eb 28 be 04 b6 94 bd 3d fb 91 be
       -0.011851156 -0.16496097 -0.07261279 -0.28511992
000390 fe 4c 46 be 3f 96 b0 3c c5 ae 82 be f4 27 a2 bd
       -0.19365308 0.021556018 -0.25523964 -0.07917777
0003a0 32 1b 63 3e 8f 8e cf bd 47 d8 05 3e da cb 90 bd
       0.22178343 -0.10134613 0.13070785 -0.070701316
0003b0 11 2e d2 bd f3 0a 22 3d 11 fb 58 3e 53 3d b6 bd
       -0.10262693 0.039561223 0.21189524 -0.088984154
0003c0 02 a5 98 3c 3b fe 99 bd 46 ea eb bd 00 00 00 00
       0.01863337 -0.07519194 -0.115192935 0.0
0003d0 e8 92 91 3b 90 fd 7e 3e 04 fe ca 3d d4 5b c5 be
       0.0044425614 0.24901414 0.09911731 -0.38546622
0003e0 40 c7 f2 bc e2 af 99 3d c9 c6 83 bd 2e 4f 6e bd
       -0.029636025 0.0750425 -0.064344 -0.05818098
0003f0 55 30 00 3d 82 30 b3 3d 71 c4 9c 3d a1 1f c3 3e
       0.031296093 0.087494865 0.07654656 0.38110068

p f4 [80]
000000 00 00 48 43 00 00 48 43 00 00 48 43 00 00 48 43
       200.0 200.0 200.0 200.0
000010 00 00 48 43 00 00 48 43 00 00 48 43 00 00 48 43
       200.0 200.0 200.0 200.0
000020 00 00 48 43 00 00 48 43 00 00 48 43 00 00 48 43
       200.0 200.0 200.0 200.0
000030 00 00 48 43 00 00 48 43 00 00 48 43 00 00 48 43
       200.0 200.0 200.0 200.0
000040 00 00 48 43 00 00 48 43 00 00 48 43 00 00 48 43
       200.0 200.0 200.0 200.0
000050 00 00 48 43 00 00 48 43 00 00 48 43 00 00 48 43
       200.0 200.0 200.0 200.0
000060 00 00 48 43 00 00 48 43 00 00 48 43 00 00 48 43
       200.0 200.0 200.0 200.0
000070 00 00 48 43 00 00 48 43 00 00 48 43 00 00 48 43
       200.0 200.0 200.0 200.0
000080 00 00 48 43 00 00 48 43 00 00 48 43 00 00 48 43
       200.0 200.0 200.0 200.0
000090 00 00 48 43 00 00 48 43 00 00 48 43 00 00 48 43
       200.0 200.0 200.0 200.0
0000a0 00 00 48 43 00 00 48 43 00 00 48 43 00 00 48 43
       200.0 200.0 200.0 200.0
0000b0 00 00 48 43 00 00 48 43 00 00 48 43 00 00 48 43
       200.0 200.0 200.0 200.0
0000c0 00 00 48 43 00 00 48 43 00 00 48 43 00 00 48 43
       200.0 200.0 200.0 200.0
0000d0 00 00 48 43 00 00 48 43 00 00 48 43 00 00 48 43
       200.0 200.0 200.0 200.0
0000e0 00 00 48 43 00 00 48 43 00 00 48 43 00 00 48 43
       200.0 200.0 200.0 200.0
0000f0 00 00 48 43 00 00 48 43 00 00 48 43 00 00 48 43
       200.0 200.0 200.0 200.0
000100 00 00 48 43 00 00 48 43 00 00 48 43 00 00 48 43
       200.0 200.0 200.0 200.0
000110 00 00 48 43 00 00 48 43 00 00 48 43 00 00 48 43
       200.0 200.0 200.0 200.0
000120 00 00 48 43 00 00 48 43 00 00 48 43 00 00 48 43
       200.0 200.0 200.0 200.0
000130 00 00 48 43 00 00 48 43 00 00 48 43 00 00 48 43
       200.0 200.0 200.0 200.0

p f4 [80]
000000 00 00 c8 42 00 00 c8 42 00 00 c8 42 00 00 c8 42
       100.0 100.0 100.0 100.0
000010 00 00 c8 42 00 00 c8 42 00 00 c8 42 00 00 c8 42
       100.0 100.0 100.0 100.0
000020 00 00 c8 42 00 00 c8 42 00 00 c8 42 00 00 c8 42
       100.0 100.0 100.0 100.0
000030 00 00 c8 42 00 00 c8 42 00 00 c8 42 00 00 c8 42
       100.0 100.0 100.0 100.0
000040 00 00 c8 42 00 00 c8 42 00 00 c8 42 00 00 c8 42
       100.0 100.0 100.0 100.0
000050 00 00 c8 42 00 00 c8 42 00 00 c8 42 00 00 c8 42
       100.0 100.0 100.0 100.0
000060 00 00 c8 42 00 00 c8 42 00 00 c8 42 00 00 c8 42
       100.0 100.0 100.0 100.0
000070 00 00 c8 42 00 00 c8 42 00 00 c8 42 00 00 c8 42
       100.0 100.0 100.0 100.0
000080 00 00 c8 42 00 00 c8 42 00 00 c8 42 00 00 c8 42
       100.0 100.0 100.0 100.0
000090 00 00 c8 42 00 00 c8 42 00 00 c8 42 00 00 c8 42
       100.0 100.0 100.0 100.0
0000a0 00 00 c8 42 00 00 c8 42 00 00 c8 42 00 00 c8 42
       100.0 100.0 100.0 100.0
0000b0 00 00 c8 42 00 00 c8 42 00 00 c8 42 00 00 c8 42
       100.0 100.0 100.0 100.0
0000c0 00 00 c8 42 00 00 c8 42 00 00 c8 42 00 00 c8 42
       100.0 100.0 100.0 100.0
0000d0 00 00 c8 42 00 00 c8 42 00 00 c8 42 00 00 c8 42
       100.0 100.0 100.0 100.0
0000e0 00 00 c8 42 00 00 c8 42 00 00 c8 42 00 00 c8 42
       100.0 100.0 100.0 100.0
0000f0 00 00 c8 42 00 00 c8 42 00 00 c8 42 00 00 c8 42
       100.0 100.0 100.0 100.0
000100 00 00 c8 42 00 00 c8 42 00 00 c8 42 00 00 c8 42
       100.0 100.0 100.0 100.0
000110 00 00 c8 42 00 00 c8 42 00 00 c8 42 00 00 c8 42
       100.0 100.0 100.0 100.0
000120 00 00 c8 42 00 00 c8 42 00 00 c8 42 00 00 c8 42
       100.0 100.0 100.0 100.0
000130 00 00 c8 42 00 00 c8 42 00 00 c8 42 00 00 c8 42
       100.0 100.0 100.0 100.0

p f4 [80]
000000 00 00 80 3f 00 00 80 3f 00 00 80 3f 00 00 80 3f
       1.0 1.0 1.0 1.0
000010 00 00 80 3f 00 00 80 3f 00 00 80 3f 00 00 80 3f
       1.0 1.0 1.0 1.0
000020 00 00 80 3f 00 00 80 3f 00 00 80 3f 00 00 80 3f
       1.0 1.0 1.0 1.0
000030 00 00 80 3f 00 00 80 3f 00 00 80 3f 00 00 80 3f
       1.0 1.0 1.0 1.0
000040 00 00 80 3f 00 00 80 3f 00 00 80 3f 00 00 80 3f
       1.0 1.0 1.0 1.0
000050 00 00 80 3f 00 00 80 3f 00 00 80 3f 00 00 80 3f
       1.0 1.0 1.0 1.0
000060 00 00 80 3f 00 00 80 3f 00 00 80 3f 00 00 80 3f
       1.0 1.0 1.0 1.0
000070 00 00 80 3f 00 00 80 3f 00 00 80 3f 00 00 80 3f
       1.0 1.0 1.0 1.0
000080 00 00 80 3f 00 00 80 3f 00 00 80 3f 00 00 80 3f
       1.0 1.0 1.0 1.0
000090 00 00 80 3f 00 00 80 3f 00 00 80 3f 00 00 80 3f
       1.0 1.0 1.0 1.0
0000a0 00 00 80 3f 00 00 80 3f 00 00 80 3f 00 00 80 3f
       1.0 1.0 1.0 1.0
0000b0 00 00 80 3f 00 00 80 3f 00 00 80 3f 00 00 80 3f
       1.0 1.0 1.0 1.0
0000c0 00 00 80 3f 00 00 80 3f 00 00 80 3f 00 00 80 3f
       1.0 1.0 1.0 1.0
0000d0 00 00 80 3f 00 00 80 3f 00 00 80 3f 00 00 80 3f
       1.0 1.0 1.0 1.0
0000e0 00 00 80 3f 00 00 80 3f 00 00 80 3f 00 00 80 3f
       1.0 1.0 1.0 1.0
0000f0 00 00 80 3f 00 00 80 3f 00 00 80 3f 00 00 80 3f
       1.0 1.0 1.0 1.0
000100 00 00 80 3f 00 00 80 3f 00 00 80 3f 00 00 80 3f
       1.0 1.0 1.0 1.0
000110 00 00 80 3f 00 00 80 3f 00 00 80 3f 00 00 80 3f
       1.0 1.0 1.0 1.0
000120 00 00 80 3f 00 00 80 3f 00 00 80 3f 00 00 80 3f
       1.0 1.0 1.0 1.0
000130 00 00 80 3f 00 00 80 3f 00 00 80 3f 00 00 80 3f
       1.0 1.0 1.0 1.0

p f4 [80]
000000 00 00 00 00 00 00 00 00 00 00 00 00 00 00 00 00
       0.0 0.0 0.0 0.0
000010 00 00 00 00 00 00 00 00 00 00 00 00 00 00 00 00
       0.0 0.0 0.0 0.0
000020 00 00 00 00 00 00 00 00 00 00 00 00 00 00 00 00
       0.0 0.0 0.0 0.0
000030 00 00 00 00 00 00 00 00 00 00 00 00 00 00 00 00
       0.0 0.0 0.0 0.0
000040 00 00 00 00 00 00 00 00 00 00 00 00 00 00 00 00
       0.0 0.0 0.0 0.0
000050 00 00 00 00 00 00 00 00 00 00 00 00 00 00 00 00
       0.0 0.0 0.0 0.0
000060 00 00 00 00 00 00 00 00 00 00 00 00 00 00 00 00
       0.0 0.0 0.0 0.0
000070 00 00 00 00 00 00 00 00 00 00 00 00 00 00 00 00
       0.0 0.0 0.0 0.0
000080 00 00 00 00 00 00 00 00 00 00 00 00 00 00 00 00
       0.0 0.0 0.0 0.0
000090 00 00 00 00 00 00 00 00 00 00 00 00 00 00 00 00
       0.0 0.0 0.0 0.0
0000a0 00 00 00 00 00 00 00 00 00 00 00 00 00 00 00 00
       0.0 0.0 0.0 0.0
0000b0 00 00 00 00 00 00 00 00 00 00 00 00 00 00 00 00
       0.0 0.0 0.0 0.0
0000c0 00 00 00 00 00 00 00 00 00 00 00 00 00 00 00 00
       0.0 0.0 0.0 0.0
0000d0 00 00 00 00 00 00 00 00 00 00 00 00 00 00 00 00
       0.0 0.0 0.0 0.0
0000e0 00 00 00 00 00 00 00 00 00 00 00 00 00 00 00 00
       0.0 0.0 0.0 0.0
0000f0 00 00 00 00 00 00 00 00 00 00 00 00 00 00 00 00
       0.0 0.0 0.0 0.0
000100 00 00 00 00 00 00 00 00 00 00 00 00 00 00 00 00
       0.0 0.0 0.0 0.0
000110 00 00 00 00 00 00 00 00 00 00 00 00 00 00 00 00
       0.0 0.0 0.0 0.0
000120 00 00 00 00 00 00 00 00 00 00 00 00 00 00 00 00
       0.0 0.0 0.0 0.0
000130 00 00 00 00 00 00 00 00 00 00 00 00 00 00 00 00
       0.0 0.0 0.0 0.0

super f4 [80]
000000 00 00 c8 42 00 00 c8 42 00 00 c8 42 00 00 c8 42
       100.0 100.0 100.0 100.0
000010 00 00 c8 42 00 00 c8 42 00 00 c8 42 00 00 c8 42
       100.0 100.0 100.0 100.0
000020 00 00 c8 42 00 00 c8 42 00 00 c8 42 00 00 c8 42
       100.0 100.0 100.0 100.0
000030 00 00 c8 42 00 00 c8 42 00 00 c8 42 00 00 c8 42
       100.0 100.0 100.0 100.0
000040 00 00 c8 42 00 00 c8 42 00 00 c8 42 00 00 c8 42
       100.0 100.0 100.0 100.0
000050 00 00 c8 42 00 00 c8 42 00 00 c8 42 00 00 c8 42
       100.0 100.0 100.0 100.0
000060 00 00 c8 42 00 00 c8 42 00 00 c8 42 00 00 c8 42
       100.0 100.0 100.0 100.0
000070 00 00 c8 42 00 00 c8 42 00 00 c8 42 00 00 c8 42
       100.0 100.0 100.0 100.0
000080 00 00 c8 42 00 00 c8 42 00 00 c8 42 00 00 c8 42
       100.0 100.0 100.0 100.0
000090 00 00 c8 42 00 00 c8 42 00 00 c8 42 00 00 c8 42
       100.0 100.0 100.0 100.0
0000a0 00 00 c8 42 00 00 c8 42 00 00 c8 42 00 00 c8 42
       100.0 100.0 100.0 100.0
0000b0 00 00 c8 42 00 00 c8 42 00 00 c8 42 00 00 c8 42
       100.0 100.0 100.0 100.0
0000c0 00 00 c8 42 00 00 c8 42 00 00 c8 42 00 00 c8 42
       100.0 100.0 100.0 100.0
0000d0 00 00 c8 42 00 00 c8 42 00 00 c8 42 00 00 c8 42
       100.0 100.0 100.0 100.0
0000e0 00 00 c8 42 00 00 c8 42 00 00 c8 42 00 00 c8 42
       100.0 100.0 100.0 100.0
0000f0 00 00 c8 42 00 00 c8 42 00 00 c8 42 00 00 c8 42
       100.0 100.0 100.0 100.0
000100 00 00 c8 42 00 00 c8 42 00 00 c8 42 00 00 c8 42
       100.0 100.0 100.0 100.0
000110 00 00 c8 42 00 00 c8 42 00 00 c8 42 00 00 c8 42
       100.0 100.0 100.0 100.0
000120 00 00 c8 42 00 00 c8 42 00 00 c8 42 00 00 c8 42
       100.0 100.0 100.0 100.0
000130 00 00 c8 42 00 00 c8 42 00 00 c8 42 00 00 c8 42
       100.0 100.0 100.0 100.0

weight f4 [4, 80]
000000 42 a0 12 bd c3 9c 6c bd af ae d0 3c 4d 2d da bd
       -0.035797365 -0.057766687 0.02547392 -0.10653172
000010 82 42 2e 3c ef ef 32 3d 3d 73 e3 3c 2b 8e dc bc
       0.010635974 0.04368585 0.02776491 -0.02692326
000020 d6 56 b8 bd e8 fb 5e 3d 7e 7f f9 3c f5 cb 02 3d
       -0.09000938 0.054439455 0.0304563 0.03193279
000030 f6 4b a2 bd b8 ea 99 3d 8e 43 88 bc 88 12 b7 bd
       -0.07924645 0.07515472 -0.016633775 -0.089390814
000040 5b c6 41 3d 5f 59 6c 3c 4c b9 cc 3b 1a 60 0d bd
       0.047308307 0.014425605 0.006247675 -0.034515478
000050 89 17 65 3d d2 84 ba 3d 22 f8 5d bc c8 49 67 3d
       0.055930648 0.09107365 -0.013547929 0.056466848
000060 55 16 94 bd d3 85 08 bd 20 f0 c2 bd 83 a8 9f 3d
       -0.07230822 -0.03333075 -0.095184565 0.07795813
000070 d4 50 4b 3d 5a 76 cb 3d e3 53 3b bc a6 83 c6 3c
       0.04963763 0.09934683 -0.011433574 0.024232697
000080 1a 26 e3 3d be 2e c7 bd 54 5d 65 3d e0 67 6b 3c
       0.11091252 -0.09725712 0.055997208 0.014368027
000090 cc 5b cb 3c 57 16 a0 bd 58 33 af 3d 79 81 cd 3d
       0.024824046 -0.07816761 0.08554715 0.100344606
0000a0 be e0 ba bd 14 ec be 3d 3b b2 3f 3d 69 28 79 bd
       -0.091248974 0.09322372 0.046800833 -0.060829554
0000b0 84 e2 d6 bb f2 bd 85 bc 17 8f c9 bd 6f 6b c2 3c
       -0.0065577645 -0.016325925 -0.09841745 0.023732869
0000c0 8c 68 08 3d e7 a6 79 3d e9 83 90 bc 2a 8b 8f 3d
       0.03330283 0.060950186 -0.017641025 0.07008965
0000d0 66 38 06 3d 27 83 33 3d 1f 23 e1 bd 1e a4 96 3d
       0.03276863 0.04382625 -0.10993027 0.073555216
0000e0 78 87 60 3d 1e 75 32 bd a7 62 ca 3d 5c 4d b6 bd
       0.054816693 -0.043568723 0.09882098 -0.08901474
0000f0 4e 0c f8 3c ae ae 7d bd 20 16 92 3b 4d c3 bc bd
       0.030279305 -0.061934166 0.004458204 -0.09216938
000100 d1 4b b4 3d 7c 7b 84 3d 4d 08 4e bd f4 76 c4 bd
       0.08803523 0.06468865 -0.050300885 -0.09593001
000110 ec a3 93 3d 16 ff 0c 3d d2 f6 09 bd 84 03 1d bd
       0.07209 0.034422956 -0.03368265 -0.03833343
000120 d8 93 26 3d 41 5b a4 bc c0 85 ab bd 65 21 53 3c
       0.04066834 -0.020063045 -0.0837512 0.01288638
000130 69 3e b5 3d fe 3b 73 bd e9 d1 a7 3d 55 f3 b6 bd
       0.088497944 -0.059383385 0.08194334 -0.08933131
000140 62 8b 33 3c c8 4a 7b 3d bc ae d1 bd 1e e1 b8 bc
       0.010958524 0.061350614 -0.10238406 -0.022568282
000150 d0 da dd bc 97 e9 d5 bd a5 6f cf bd 3c de c4 3d
       -0.027081877 -0.10444944 -0.101287164 0.096127
000160 8d 88 81 bd f5 3c 96 3c de 6f db bd 5e 79 a6 bd
       -0.06324873 0.018339613 -0.10714696 -0.08128618
000170 59 51 2d bd 8c 2e 9e 3c c6 0f 6a bd cf dc 4d 3d
       -0.042313907 0.019309305 -0.05714395 0.050259408
000180 4f 84 df 3d b5 3c 4c 3d ce 23 d6 bc 7e 72 c2 3d
       0.10913908 0.049862582 -0.02614012 0.09494494
000190 5e b0 b2 bd 0d bc c6 3c 85 f2 a3 bd a3 7b 35 bd
       -0.087250456 0.024259591 -0.08005241 -0.044307362
0001a0 59 cb 9c 3d 69 60 ce bd aa 84 53 bd a7 c6 68 3c
       0.07655973 -0.100769825 -0.05164019 0.014207519
0001b0 14 a7 1a bd 38 1b 2d bd 63 51 5a 3d d3 bf c5 bc
       -0.037756994 -0.042262286 0.053300273 -0.02413932
0001c0 ef e0 0a bd 47 14 b0 bd d1 e3 67 3d af 17 cc bc
       -0.03390592 -0.085976176 0.056613747 -0.024913637
0001d0 f0 a6 ed bc 13 36 88 3d 1f 27 48 bd d9 22 95 3d
       -0.029010266 0.06650939 -0.048865434 0.07282037
0001e0 51 e3 e1 3d 0c ad b8 bd 8e df c9 bc 52 84 92 bd
       0.11029685 -0.09017381 -0.024642732 -0.07154144
0001f0 1f a0 c2 bc 0c f2 f0 3b 00 d1 a0 bc e8 31 fc bc
       -0.023757992 0.007353073 -0.019630909 -0.030785516
000200 25 e9 95 3d c9 22 bf 3d 3a ce 05 bd ea 4c ca 3d
       0.073198594 0.093328066 -0.032667376 0.098779514
000210 e3 70 98 3d e8 32 e2 bd 82 91 d8 bd 16 93 44 3d
       0.074434064 -0.11044866 -0.105746284 0.047991835
000220 01 df eb 3c 5e b7 d7 3d 1d a1 90 3d 70 f4 79 bb
       0.02879286 0.105330214 0.0706198 -0.003814008
000230 d9 c1 07 3d 0b 66 99 bd 3b 3e 46 bd 0c 15 98 3c
       0.033143852 -0.07490166 -0.04839919 0.018564723
000240 bc 87 f8 3c b4 cc 84 3c c5 1f b9 3d 42 42 ab 3d
       0.03033816 0.016210891 0.09039263 0.08362247
000250 b7 11 ca 3d 46 ed b0 3d a4 53 90 3c b8 5c 69 3d
       0.0986666 0.08639006 0.017618008 0.05697319
000260 f7 e5 dd 3b ec 09 d5 bc d4 22 d7 3c 46 3b 42 bd
       0.0067717987 -0.026005708 0.026261725 -0.04741981
000270 41 55 2a bd 12 1d ce 3d d5 c5 83 bd 0e 39 cb bc
       -0.04158521 0.100641385 -0.06434218 -0.02480748
000280 40 06 fe 3c a2 aa bf bd 58 44 0c bd b1 bc 71 bc
       0.03100884 -0.093587175 -0.034244865 -0.01475446
000290 ee 16 73 3d ed 98 cb bc c3 e9 6a bd be 41 d6 3b
       0.05934804 -0.024853194 -0.05735184 0.006538599
0002a0 c4 74 ed bc 9a 8a e1 bd d6 3d 5b 3d a7 45 a4 bd
       -0.028986342 -0.11012764 0.05352577 -0.08021098
0002b0 7a 65 31 bc 6d 75 70 3d c5 e8 a5 39 ce e4 a7 bd
       -0.010827417 0.058705736 0.0003164468 -0.08197938
0002c0 8e 98 64 bd 15 90 92 bd 6d bd e7 3c f3 72 b1 bb
       -0.05580955 -0.07156388 0.028288567 -0.0054153143
0002d0 e4 c3 0f bb aa a2 80 3d 9f 4f 7e 3c 31 76 95 bd
       -0.0021936828 0.06281026 0.015521913 -0.07297934
0002e0 f7 a0 d0 bd 09 35 84 bd c9 c4 9f bd 86 3a d0 bd
       -0.101869516 -0.06455428 -0.07801206 -0.101674125
0002f0 3e db d0 3d 70 2d e4 bd 7b 70 e8 3c 3d 5c 9c 3d
       0.10198067 -0.11141479 0.028373947 0.076347806
000300 58 12 34 bd 95 5b 03 bd 19 90 64 bd dd da 72 3d
       -0.043962806 -0.03206976 -0.055801485 0.059290756
000310 4d 63 8d bd 48 a0 2f bc ee 03 ef 3c 04 15 1e bd
       -0.06903706 -0.010719366 0.029176679 -0.03859426
000320 ab 4b bb 3c 5e da b1 bd 67 c8 07 3d e3 c2 ac 3d
       0.02286323 -0.08684228 0.033150103 0.08435609
000330 6f 4e db bd 19 33 c4 bd 74 db a3 3d 18 b5 29 bd
       -0.107083194 -0.095800586 0.08000842 -0.04143247
000340 10 8e ee bc e9 82 03 3c 1b 93 82 bd f2 02 8f 3c
       -0.029120475 0.008026817 -0.063757144 0.01745746
000350 0a 62 6e 3c 94 f7 58 3d 6e 93 0b bd 3e 32 a4 bd
       0.0145497415 0.052970484 -0.034076147 -0.080173954
000360 67 3c 82 3d 4e 53 b3 3d 6e 24 9a 3d 48 7d d2 bd
       0.06359177 0.087561235 0.0752648 -0.10277802
000370 e1 0a 77 3c 47 98 75 bd 91 c1 4a 3d ea fc 83 3d
       0.015078277 -0.059959676 0.049501006 0.06444724
000380 f2 37 0b 3d 30 33 8e 3c c1 81 bb bc be a5 43 bd
       0.0339889 0.017358392 -0.02288902 -0.047765486
000390 8f d2 a0 3d da ba 99 bd 9b 05 92 3d 60 39 b2 3c
       0.07852661 -0.07506342 0.071299754 0.021755874
0003a0 48 7f b7 bd ba cb 85 bd f5 59 be 3d 23 ae e7 bb
       -0.08959824 -0.065329984 0.09294502 -0.0070703193
0003b0 76 d2 70 bd 79 81 e0 bd 66 d6 31 3d 16 05 d6 bc
       -0.05879446 -0.10962195 0.043417357 -0.026125472
0003c0 5f 32 23 3d d0 dc e5 bb 3d c8 27 3d 8a 08 29 3d
       0.03984296 -0.0070148483 0.040962446 0.04126791
0003d0 a5 8e 9f 3d 4c 97 64 3d bf 06 36 3d 64 c9 85 bd
       0.07790879 0.05580835 0.044440027 -0.06532553
0003e0 ab 77 7b 3d 11 2f 7a 3d cc 2b 46 3d c4 96 90 3d
       0.06139342 0.061080042 0.04838161 0.07060006
0003f0 54 8f c5 bd c4 73 94 3d 39 18 e4 3d c4 aa 7d 3c
       -0.09646478 0.07248643 0.111374326 0.015482608

bias f4 [4]
000000 88 b8 81 bd 4e 65 1e bc 29 f6 b9 3d 3d 7a 4c 3c
       -0.06334025 -0.009667708 0.090801544 0.012480316

weight f4 [256, 80]
000000 fa b0 9d 3f 43 73 f5 3d ca 8d 19 3d 3d 74 69 3e
       1.2319634 0.11984875 0.037488736 0.22798248
000010 5d 1d 8d 3f 37 cb e3 3e 31 a3 d4 bf 97 41 b9 bf
       1.1024586 0.44490978 -1.6612302 -1.4473141
000020 4f 93 d3 bd 66 86 7b 3e 0f 24 58 3f 02 26 e2 3e
       -0.10330831 0.24562988 0.8443002 0.44169623
000030 b8 e6 bd 3d d8 f4 47 3e 06 cd 10 3e 12 4d 96 3e
       0.09272522 0.19526994 0.1414071 0.29355675
000040 9b 88 a5 bf 3b 8c 9f be 1f d7 a1 3e c2 87 9b 3f
       -1.2932314 -0.31161675 0.31609437 1.2150805
000050 14 15 b4 bc 51 e7 d7 be 13 c1 e2 be 73 af 76 be
       -0.021982707 -0.42168668 -0.4428793 -0.24090366
000060 6f b0 92 be 74 c8 fd be d6 55 40 3f b5 7e 36 3f
       -0.28650233 -0.49566996 0.75130975 0.7128709
000070 e0 18 85 3e 76 50 6b 3f 7b 06 53 3f 03 f4 43 bd
       0.2599554 0.9191965 0.82431763 -0.04784013
000080 3a 5e a1 3e 53 b3 91 be fa 4f b8 3e 82 bb 17 3e
       0.31517202 -0.28457126 0.35998517 0.14817622
000090 2c c5 a8 3f 3f 60 c6 be 4b dc 22 bf 1d 90 6b bf
       1.3185172 -0.38745305 -0.6361739 -0.92016774
0000a0 48 c7 e7 3f 28 80 0b 3e 17 3d 52 3f d7 e5 3d 3e
       1.8107691 0.13623106 0.82124466 0.18544708
0000b0 1d ca 62 3e 15 33 f2 3c 8b ea 6a 3f a8 6e 5f be
       0.22147413 0.029565373 0.91764134 -0.21819556
0000c0 38 4d ea be 2a 40 94 3e dc 90 83 3f 25 dd 04 40
       -0.45762038 0.28955203 1.0278583 2.0759976
0000d0 12 f4 7f bf c5 50 af 3f 7a ee 1d 3e 8f df 26 3f
       -0.99981797 1.3696524 0.15423003 0.65184873
0000e0 e8 ec 0d 3e 96 5e 3e be 18 44 d1 be 66 5f 2f be
       0.13859904 -0.18590769 -0.40872264 -0.17126235
0000f0 9f af 71 3e 56 56 9b 3f 8a 69 8f be f9 8c 30 bf
       0.2360215 1.2135723 -0.28010207 -0.6896511
000100 82 f7 ff bf b1 ba 90 bf 76 ff 2d 3f f5 b1 31 bf
       -1.9997408 -1.1306974 0.6796793 -0.69412166
000110 ec e9 f2 3e 00 8a 29 bf 30 65 5a 3f 53 8e 7c 3f
       0.47444093 -0.66226196 0.8531065 0.9865467
000120 84 d6 aa 3e 21 0e 57 3f d5 0f e2 3f 57 a1 51 3f
       0.33366787 0.84005934 1.7661082 0.8188681
000130 1b 78 95 bf 1f e1 a6 bd 4d e9 06 3e 6e 38 3a bf
       -1.1677278 -0.08148407 0.13174935 -0.72742355
000140 41 1f bb 3e 9b 87 b8 bf 9a e7 62 bf 41 31 f8 3f
       0.36547282 -1.4416384 -0.88634646 1.9390031
000150 df e2 25 3f ae 57 c7 bf 70 28 13 bf 0d 30 0e 3f
       0.647993 -1.5573633 -0.5748358 0.5554207
000160 e2 6a 05 c0 25 b0 3a 3f af 53 85 3f a1 a2 4b 3e
       -2.0846486 0.72925025 1.0416163 0.19886257
000170 71 d1 0f 40 91 2a e8 3e 74 0a c8 be a5 a0 51 3f
       2.2471583 0.45344976 -0.39070475 0.8188575
000180 95 a6 88 bf 7b 9f f0 bd b9 da 99 bf 8e 44 ad be
       -1.0675837 -0.117491685 -1.2019874 -0.33841366
000190 2b ba 80 3f 4b 8e 07 c0 84 16 ab 3e 9d 9f ce 3f
       1.0056814 -2.1180599 0.33415616 1.614246
0001a0 3d fe b1 be 63 64 04 c0 ec 74 d7 be 6e 12 e2 3e
       -0.3476428 -2.068627 -0.42081392 0.44154686
0001b0 5f 53 09 3f 2e c7 f3 bf b2 e8 41 bf 30 a2 72 3f
       0.5364284 -1.904516 -0.7574569 0.9477873
0001c0 db 54 72 be c0 97 03 3d 01 f2 09 40 ea 2b bd 3f
       -0.23665182 0.032127142 2.1553957 1.4779027
0001d0 c3 56 bc bd 52 11 3f bf 3c 2d b7 3e 4f 12 b8 bf
       -0.09196236 -0.74635804 0.357767 -1.4380587
0001e0 41 95 4b bf cc bf 27 3f df 5e 16 3f 36 4e f2 3f
       -0.7952462 0.65527034 0.5873851 1.8930118
0001f0 03 ec 90 3f 0d 4e 4d bf 4f 4e 87 be 5f 1e 93 3f
       1.1322025 -0.8019722 -0.26426932 1.1493644
000200 be 38 70 bf 73 b4 c2 3f b3 27 c2 be 93 d4 04 3e
       -0.9383658 1.5211319 -0.37920913 0.12971716
000210 f9 1d 77 3f 5d c0 5b bf c2 83 86 3e 92 70 96 bf
       0.9653011 -0.858404 0.26272398 -1.1753104
000220 2b c0 6c 3f 02 d4 5c 3f a8 6e f0 bd 7e 3b c2 be
       0.92480725 0.86261 -0.11739856 -0.37936014
000230 60 be 78 3f d2 9a c1 bf 55 3f 96 bf 9a cb e5 be
       0.9716549 -1.5125372 -1.1738077 -0.44881898
000240 9c 29 a7 3d 2f 61 b3 bf 56 97 9b 3f e4 89 1c 3f
       0.08162233 -1.4014033 1.2155559 0.61147904
000250 a6 b8 1e 3e 53 04 b1 be 7b bd 65 bf 57 4e 82 bd
       0.15500125 -0.34573612 -0.8974225 -0.063625984
000260 50 15 2a be c0 87 91 3e ba f5 1a 3f 2f 62 0f bf
       -0.16609693 0.28423882 0.605312 -0.5600919
000270 02 11 17 bf 80 ce 37 bf 73 3b 14 3f 5b d2 8e 3e
       -0.59010327 -0.7179947 0.5790321 0.27894863
000280 bf c6 06 bf 57 1e 97 3f ac c5 6c bf c8 6a d1 3d
       -0.5264701 1.1806134 -0.92489123 0.10225445
000290 b1 43 a5 bf 2e 75 3b 3f 90 ea 02 3f ab 65 10 40
       -1.2911283 0.73225677 0.51139164 2.2562053
0002a0 c1 2a 8a 3f 7b a7 42 3f 50 ce f7 bf 6f 8c 87 3e
       1.0794297 0.76036805 -1.9359837 0.2647433
0002b0 ce b9 62 be c0 e9 ba 3e 64 78 c7 bf f1 e2 4d bf
       -0.22141191 0.36506462 -1.5583615 -0.8042441
0002c0 b4 5b 15 3e b8 46 8d 3e 1d b4 a1 bf e2 36 c5 3f
       0.14585763 0.27593017 -1.2633091 1.5407374
0002d0 07 37 c3 bf 7c b9 25 bf 38 94 60 3f 42 b9 e2 3e
       -1.5251168 -0.6473615 0.87726164 0.44281965
0002e0 92 5a b6 3e 15 4d 44 3f ab 1d 72 bf 61 ac ff be
       0.35615975 0.7668012 -0.9457652 -0.49936202
0002f0 83 32 bf 3e 43 99 80 bf 5a 84 32 bf 83 6c ca 3f
       0.37343225 -1.0046772 -0.697332 1.5814365
000300 29 48 37 bf 89 47 db bf 7e 2d ef be 77 0b 85 3f
       -0.7159448 -1.7131206 -0.46714395 1.0394124
000310 dd 45 ba 3f 8d 73 5f 3c 80 42 c5 3e 1f 4f 86 3f
       1.455257 0.013638389 0.38527298 1.0492896
000320 a6 d2 e0 be fd 80 d5 bf 74 e5 fe be e5 6c 8d 3f
       -0.43910712 -1.6679989 -0.49784434 1.1048857
000330 e1 69 ac bf ac 20 73 bf ba 20 cc 3f 8c 2c e6 3d
       -1.3469812 -0.9497173 1.5947487 0.112389654
000340 71 82 61 bf 1c 2d be bd 51 3d af 3e f4 4f 34 3f
       -0.8808966 -0.09285948 0.34226468 0.704345
000350 cc 0f 8f bf c3 a5 59 bf a9 6a cf 3f a5 e5 f2 bf
       -1.1176696 -0.8501856 1.6204425 -1.8976332
000360 d5 01 ce 3e 79 7f d8 3f 5c 3f 16 bf fe 91 b3 3e
       0.40235773 1.6913902 -0.5869043 0.3507232
000370 56 cb d9 3f b6 25 9d bf 83 91 55 3c c9 86 6a 3e
       1.7015178 -1.2277133 0.013035181 0.22902979
000380 e3 2d 73 bf 1b 7b b8 be 36 83 a3 be 90 69 2b 3f
       -0.9499189 -0.36031422 -0.31936044 0.6695795
000390 62 2c a7 bf 3e bd 88 be 0c 52 90 be 8f 33 d5 3f
       -1.306042 -0.2670688 -0.28187597 1.665636
0003a0 ec aa 08 3f 94 a8 bc 3e b8 16 d8 bf ba 71 75 be
       0.53385806 0.36847365 -1.6881933 -0.23969164
0003b0 5a 37 00 3e 6b e4 1c 3e 0b 1f 84 3f f9 d8 61 3f
       0.12521115 0.1532151 1.0321974 0.882217
0003c0 90 95 40 bf fb c7 76 bf 69 f5 67 bf 66 88 f3 be
       -0.75228214 -0.96398896 -0.9060884 -0.47565
0003d0 05 e1 9f 3f 2e 59 51 3f 12 2f 69 3f 36 7e 62 bf
       1.2490546 0.817767 0.9108745 -0.8847383
0003e0 c8 6d 50 3f af 14 de 3e 68 49 6b 3f d5 ef 98 3e
       0.8141751 0.43375155 0.91908884 0.29870477
0003f0 e0 97 8b bf c6 25 13 3f ff be 92 3f e2 36 38 bf
       -1.0905724 0.5747951 1.1464537 -0.71958745
