Alpha_1e-9/Retraining_1/4-PAM_SNN_MMSE_Equalizer_im_dd.pt (torch, 246267 bytes, 11 tensors)

weight f4 [80, 328]
0	0x3d4b1abc	0.049586043
1	0xbd3dc909	-0.0463343
2	0xbcf11c76	-0.029432517
3	0xbd4abadf	-0.04949462
4	0x3d16a2df	0.03677642
5	0x3d2b79b0	0.041864097
6	0xbd478aa3	-0.0487162
7	0xbbf31176	-0.007417853
8	0x3d1e0c95	0.038586218
9	0xbcec5f97	-0.028854175
10	0xbd31f320	-0.043444753
11	0x3c0824f0	0.008309588
12	0x3c9c4c25	0.019079277
13	0xbb37e9d2	-0.0028062952
14	0xbc07d16c	-0.008289676
15	0xbc81d308	-0.015847698
16	0xbd0e6199	-0.034761045
17	0xbd3b4147	-0.04571655
18	0x3d20340c	0.039112136
19	0xbc909b50	-0.017652184
20	0xbc35b422	-0.01109031
21	0xbccdb6da	-0.025111604
22	0xbd22be7d	-0.039732445
23	0xbbe7327f	-0.00705558
24	0x3cc7a3ba	0.024370063
25	0xbd54c5f9	-0.051946614
26	0xbd504980	-0.050851345
27	0xbc440b67	-0.011965609
28	0xbd2599dd	-0.04042994
29	0x3d117a7f	0.035517212
30	0xbcfe4742	-0.031039838
31	0x3bc8a1d1	0.0061228056
32	0x3d0c0e76	0.03419348
33	0xbd5f5ff4	-0.054534867
34	0x3d1f43f1	0.038883153
35	0xbd133a8b	-0.035944503
36	0x3c20e4cf	0.009820177
37	0xbd531c4f	-0.05154067
38	0xbd52bf83	-0.05145217
39	0x3b9bd42d	0.004755518
40	0x3d3b1325	0.045672555
41	0xbbd30490	-0.006439753
42	0xbcb3d7bc	-0.021953456
43	0xbc2b10c8	-0.010441013
44	0x3cc30e84	0.023810633
45	0xbcdbf1f5	-0.026848773
46	0xbca168f0	-0.019703358
47	0xbd397ebd	-0.045286883
48	0x3c9e8592	0.0193508
49	0x3b50282f	0.0031762233
50	0x3d26654e	0.040623955
51	0xbab455ae	-0.0013758445
52	0xb8d36bd1	-0.000100813464
53	0x3d1afa92	0.03783662
54	0xbc8b397c	-0.016995184
55	0xbc8609d3	-0.016362106
56	0x3cd3f386	0.025872957
57	0xbc09a12e	-0.008400245
58	0x3d382a2e	0.0449621
59	0xbd081104	-0.033219352
60	0x3b32eee3	0.0027303032
61	0x3d550622	0.0520078
62	0x39bf59a9	0.0003649716
63	0x3c8114cd	0.015756989
64	0xbd5e6a9a	-0.054300882
65	0xbd223b5a	-0.039607383
66	0xbbca1b0d	-0.0061677755
67	0xbd4f8879	-0.05066726
68	0xbcf66075	-0.030075291
69	0x3d2502ed	0.040285993
70	0x3c4532ba	0.01203602
71	0x3d32b966	0.04363384
72	0x3d1e1f97	0.038604345
73	0xbd59975e	-0.05312287
74	0x3d3a138f	0.04542881
75	0x3cf4d6fa	0.029887665
76	0xbcc4714e	-0.02397981
77	0xbd4115ad	-0.047139812
78	0xbd238105	-0.039917964
79	0x3cf26207	0.029587759
80	0xbc6ce4b8	-0.014458828
81	0xbb06db8c	-0.0020577637
82	0x3cb0b5fc	0.021571152
83	0x3bf4c5aa	0.0074698525
84	0xbc7009d8	-0.014650784
85	0xbc51954c	-0.012791943
86	0xbcbc2d0d	-0.0229707
87	0x3d2f5472	0.042805143
88	0x3c21ab5d	0.009867516
89	0xbd065ec4	-0.03280522
90	0x3d603e42	0.054746874
91	0xbd1112ad	-0.0354182
92	0xbb45aa28	-0.0030161235
93	0x3d166280	0.03671503
94	0x3c0a4df3	0.008441436
95	0x3d31a100	0.043366432
96	0x3d17d2b5	0.03706618
97	0xbd4c5db9	-0.04989407
98	0x3cdd43e8	0.02700992
99	0xbd23490e	-0.039864592
100	0xbd50db0a	-0.050990142
101	0x3d045c21	0.032314423
102	0x3ce9a29a	0.028519917
103	0x3d224b78	0.039622754
104	0x3cdc34d3	0.026880657
105	0x3ca21b5b	0.019788435
106	0xbd17cdcb	-0.037061494
107	0xbb4cc053	-0.0031242564
108	0xbceb9eb9	-0.028762208
109	0x3a9dcf63	0.0012039955
110	0x3d56b183	0.052415382
111	0x3d13f0e8	0.036118418
112	0xbba245a3	-0.004952149
113	0x3d130943	0.035897505
114	0xbd094340	-0.0335114
115	0xbd01bed3	-0.031676125
116	0x3d07543c	0.033039317
117	0x3cbfef4b	0.023429533
118	0xbd548aeb	-0.051890295
119	0xbd1f3daf	-0.038877185
120	0x3d12cf9e	0.03584253
121	0xbd3bd549	-0.0458577
122	0x3d1deadf	0.03855407
123	0x3d2a9f9c	0.04165612
124	0xbc879e08	-0.016554847
125	0xbc983a5d	-0.018582517
126	0xbc8be9c7	-0.017079247
127	0xbd4afd45	-0.049557943
128	0x3d0254f1	0.031819288
129	0x3b794f92	0.0038041812
130	0x3d435a0d	0.0476933
131	0xbd19d015	-0.037551958
132	0xbd3ad8f4	-0.04561706
133	0xbb36e36f	-0.0027906557
134	0x3d5eb42b	0.05437104
135	0x3d071d4d	0.032986928
136	0x3d54c5a1	0.051946286
137	0x3ca499f0	0.020092934
138	0xbc880218	-0.01660256
139	0xbd3e076f	-0.046393808
140	0x3d00d700	0.03145504
141	0x3c564ec5	0.013080304
142	0x3d30c996	0.043160997
143	0xbc8485f9	-0.016177164
144	0xbd462466	-0.048374556
145	0x3cb0fcd4	0.021604933
146	0xbd0aa7ec	-0.03385155
147	0xbb62eb4b	-0.0034625109
148	0xb9b0594b	-0.00033635864
149	0xbd3cbab5	-0.046076495
150	0xbd50fecb	-0.05102424
151	0xbc9a5545	-0.018839488
152	0x3d101e9a	0.035185434
153	0xbc3777a9	-0.011197963
154	0x3c6473f5	0.013943662
155	0x3bec806b	0.007217457
156	0xbd216534	-0.039403155
157	0xbd21ccda	-0.039502002
158	0xbd058da1	-0.03260577
159	0xbca8e08d	-0.020614887
160	0x3cdbf01c	0.026847892
161	0xb91c49c9	-0.00014904806
162	0xbd2063f8	-0.039157838
163	0xbd204ad8	-0.039133877
164	0xbd61b8cc	-0.055107877
165	0xbd13e885	-0.03611042
166	0x3d5b3249	0.053514753
167	0xbd06a50b	-0.03287224
168	0xbd46b46c	-0.048511907
169	0xbbe929d8	-0.007115584
170	0xbd008ae8	-0.03138247
171	0x39dc2d23	0.000419953
172	0x3d2e21e5	0.042512793
173	0xbc99e649	-0.018786566
174	0x3cb1a1c9	0.02168359
175	0x3cb1972b	0.021678528
176	0x3c6e6756	0.014551004
177	0x3bdd4939	0.0067531136
178	0x3c73c50d	0.014878524
179	0x3ccf2fe1	0.025291385
180	0xbd60e83d	-0.05490898
181	0xbd0b3ecd	-0.03399544
182	0xbcc47898	-0.023983285
183	0xbd21871f	-0.039435502
184	0x3cc37373	0.023858761
185	0x3cf818c7	0.030285252
186	0xbd2216ec	-0.03957264
187	0x3d33b93f	0.043877836
188	0x3cb77357	0.022393866
189	0x3d2e24d4	0.04251559
190	0xbd3ecce3	-0.046582114
191	0xbd159036	-0.036514483
192	0x3d0794da	0.03310094
193	0xbbdbe1a8	-0.00671025
194	0x3d152dde	0.036420695
195	0x3cc93ab9	0.024564134
196	0x3cc96abf	0.024587033
197	0x3d0664ec	0.03281109
198	0xbd0f93fb	-0.035053235
199	0xbd1320a9	-0.03591982
200	0x3d40da5d	0.047083247
201	0xbd4c592f	-0.04988974
202	0x3d34b16a	0.044114508
203	0xbd25e3f7	-0.040500607
204	0xbd0845d8	-0.033269733
205	0x3a914cdf	0.0011085531
206	0xbd52a1f1	-0.05142397
207	0x3c20a24d	0.0098043205
208	0x3d17b95d	0.03704201
209	0x3d115c8c	0.03548865
210	0xbd03e6cf	-0.032202538
211	0xbcf3c271	-0.029755803
212	0xbd03a389	-0.03213838
213	0xbd1a9d3c	-0.037747607
214	0xbc13fa92	-0.009031909
215	0x3c74fdc4	0.014953081
216	0x3d0ba83e	0.034095995
217	0xbd3605ee	-0.04443925
218	0x3d01917a	0.031632878
219	0x3d52ef99	0.05149803
220	0xbd42a41a	-0.04751978
221	0x3ce201d7	0.027588768
222	0x3cc64b55	0.024205843
223	0x3d5fe3a2	0.054660447
224	0x3d3e7bd1	0.0465048
225	0xbb9427c4	-0.004521342
226	0x3d39523a	0.045244433
227	0xbc8afd06	-0.016966354
228	0x3be4e845	0.0069856965
229	0x3d21109a	0.039322473
230	0x3d0d2c89	0.0344663
231	0xbbf300bb	-0.0074158586
232	0x3d19102c	0.03736894
233	0x3cc4eba6	0.024038147
234	0xbd4358ef	-0.047692236
235	0xbd3a6601	-0.045507435
236	0xbd15815a	-0.036500312
237	0xbcb77e3b	-0.022399059
238	0xbc938a9b	-0.018010428
239	0xbcf714bd	-0.030161256
240	0xbd057eaa	-0.0325915
241	0x3c6ccaf5	0.014452686
242	0x3d52ac90	0.0514341
243	0x3d42686d	0.04746287
244	0x3c857265	0.0162899
245	0x3d19684d	0.037452985
246	0x3c412bc3	0.011790219
247	0x3bb64659	0.0055625853
248	0x3d072181	0.032990936
249	0xbbf5bf84	-0.007499637
250	0x3cb50469	0.02209683
251	0x3d597bcd	0.05309658
252	0xbb7e9ffa	-0.0038852678
253	0x3d52d3b3	0.051471423
254	0x3cd3848a	0.025820035
255	0xb960ba69	-0.00021431748

input_weights f4 [80, 80]
0	0xbda74c43	-0.08168843
1	0x3e87cf3e	0.265253
2	0xbddeb600	-0.108745575
3	0x3e9ba08b	0.30395922
4	0xbdac03ab	-0.08399137
5	0xbe3b8fab	-0.18316524
6	0xbe83a8c0	-0.25714684
7	0x3d1bb257	0.038011875
8	0xbe2cd677	-0.16878687
9	0x3d64ade8	0.055829912
10	0xbe573c42	-0.2101908
11	0x3e84e579	0.25956324
12	0x3eb29e39	0.3488634
13	0xbd05660e	-0.03256803
14	0x3e0b5287	0.136057
15	0x3d9aabd3	0.07552304
16	0xbd9b554f	-0.07584631
17	0xbd26c540	-0.040715456
18	0x3e6b7e83	0.22997479
19	0xbd8045d6	-0.0626332
20	0x3cce592e	0.025189009
21	0xbe3b26fe	-0.18276593
22	0xba5790e4	-0.00082231895
23	0xbda92427	-0.08258849
24	0x3d8972d9	0.067113586
25	0xbe46a86b	-0.19400184
26	0xbe6fdbed	-0.23423739
27	0xbdd3cbc6	-0.10341601
28	0xbe2e0431	-0.16993786
29	0x3dcaedf6	0.09908669
30	0xbe0cc3e2	-0.13746598
31	0xbe6b1cc4	-0.22960192
32	0xbda0c811	-0.0785066
33	0x3d7d80f9	0.061890576
34	0xbe0a6a34	-0.13517076
35	0xbea55bdd	-0.3229665
36	0xbe8ab311	-0.27089742
37	0x3e322499	0.17396773
38	0xbdf37ac9	-0.11888654
39	0xbdc6ae79	-0.09701247
40	0xbd8e8c4c	-0.06960353
41	0x3db1e257	0.08685749
42	0x3ec45325	0.38344684
43	0xbd0eaf50	-0.03483516
44	0xbe0effc4	-0.13964754
45	0xbd710dc6	-0.058851026
46	0xbda54fb8	-0.08071846
47	0x3e06f98a	0.13181129
48	0x3d879a31	0.066212066
49	0xbe41c99e	-0.18924567
50	0x3d93ad4b	0.072107874
51	0xbdcbcb18	-0.099508464
52	0xbdff207e	-0.12457369
53	0x3e86fb3c	0.26363552
54	0xbd2eaea8	-0.042647034
55	0x3d9f261f	0.07770943
56	0xbd822281	-0.06354237
57	0xbd2f60fa	-0.042817093
58	0x3c05b71c	0.008161332
59	0xbd3ef033	-0.04661579
60	0x3c94214d	0.018082285
61	0x3e81fb08	0.25386834
62	0xbe610bf7	-0.2197722
63	0x3e295cf2	0.16539362
64	0x3da54cae	0.08071266
65	0xbe9fa754	-0.3118235
66	0xbdb7714c	-0.089571565
67	0x3d31b3ec	0.043384477
68	0xbded8637	-0.11597865
69	0xbdafed65	-0.08590201
70	0xbdb89254	-0.09012285
71	0xbd36ec05	-0.04465868
72	0xbdd84fbe	-0.105620846
73	0x3e2ba337	0.1676148
74	0x3de7d92e	0.113207206
75	0x3e77d41e	0.2420201
76	0x3ea499f4	0.32148707
77	0x3dc86554	0.09784952
78	0xbd8306c1	-0.063977726
79	0x3df122d9	0.11774225
80	0xbe1957ca	-0.14974895
81	0xbe732c04	-0.2374726
82	0xbd8cb4d5	-0.068704285
83	0xbd7d43de	-0.0618323
84	0x3e0d91d0	0.13825154
85	0x3bdc914a	0.006731187
86	0xbd77f17b	-0.060533028
87	0x3e6992f4	0.22809964
88	0x3c9fe5c2	0.019518737
89	0xbd87c3e5	-0.06629161
90	0x3dbec43c	0.093147725
91	0x3e0a732c	0.13520497
92	0xbc5af689	-0.013364443
93	0xbe999ad9	-0.30000952
94	0x3b4195a0	0.0029538646
95	0x3e470b8c	0.19437999
96	0x3c82929d	0.015939051
97	0x3de2e2e8	0.11078435
98	0xbc73f5f5	-0.014890184
99	0x3e41a8da	0.18912068
100	0x3e28c815	0.16482575
101	0x3d95a165	0.07306174
102	0x3e5a1a53	0.21299104
103	0x3e5e17c7	0.21688758
104	0x3ce09238	0.027413473
105	0x3e36a27b	0.17835419
106	0xbd53da30	-0.05172175
107	0xbe8f8bc8	-0.28036332
108	0x3d3e41bb	0.046449404
109	0xbe3f44b4	-0.18678552
110	0xbc3c761d	-0.01150277
111	0x3e771074	0.2412737
112	0xbbf1cbf6	-0.0073790504
113	0xbdbbc4a4	-0.091683656
114	0xbaa52ef4	-0.0012602494
115	0x3e96c0c6	0.2944395
116	0x3d31a42c	0.043369457
117	0x3e0dded0	0.13854527
118	0x3e978201	0.29591373
119	0x3e5d6ee1	0.21624328
120	0xbe8cd3fe	-0.27505487
121	0x3e74ad42	0.23894218
122	0xbc0e761e	-0.0086951535
123	0xbe4c0542	-0.1992388
124	0xbda89a25	-0.08232526
125	0x3e982159	0.29712942
126	0xbe386dce	-0.18010637
127	0x3cf53efb	0.029937258
128	0x3cf896f2	0.030345414
129	0xbd2e029c	-0.042482957
130	0xbdb2f00b	-0.08737191
131	0x3e4a75bb	0.19771473
132	0xbe10b22d	-0.14130469
133	0x3c6ffcf1	0.014647708
134	0xbeb558f7	-0.35419437
135	0x3da01076	0.0781564
136	0x3d31f5e8	0.043447405
137	0xbe3290bc	-0.17438024
138	0xbd97fb41	-0.0742097
139	0x3d34c1bb	0.04413007
140	0x3d092765	0.033484835
141	0x3cdef969	0.027218537
142	0xbd1eb699	-0.038748357
143	0xbe38d84a	-0.18051258
144	0x3e88239f	0.26589677
145	0xbc837630	-0.016047567
146	0xbd87ce4f	-0.06631147
147	0x3dce4419	0.10071582
148	0x3daaee2c	0.08346209
149	0x3c8916dc	0.016734533
150	0x3d182eae	0.037153892
151	0xbdb47091	-0.08810533
152	0x3d414975	0.047189195
153	0xbe6a1ce7	-0.22862588
154	0xbf060f81	-0.5236741
155	0x3dcdfb69	0.10057718
156	0x3e8d82d8	0.27638888
157	0x3e8fcfd9	0.28088263
158	0xbd9511f0	-0.07278812
159	0x3d64fa42	0.055902727
160	0x3c5187c5	0.012788718
161	0xbe9477f5	-0.2899777
162	0x3cafa1a9	0.02143939
163	0x3e0ec08e	0.13940641
164	0xbdd202f1	-0.10254467
165	0x3d934a2c	0.071918815
166	0x3e6c592a	0.23080888
167	0xbbb239fc	-0.005439041
168	0xbe02500d	-0.1272585
169	0x3c40b261	0.011761279
170	0xbe30f21b	-0.17279856
171	0x3caa74cf	0.020807652
172	0x3ccea26c	0.025223933
173	0x3ea2acb4	0.31772387
174	0xbd6b2cda	-0.05741582
175	0x3ddd656a	0.10810359
176	0x3cb463b3	0.022020197
177	0x3da131c9	0.07870824
178	0x3bdbc0e5	0.0067063444
179	0xbd5a5b7e	-0.05330991
180	0xbe134efb	-0.14385597
181	0xbd3d7ad9	-0.046259735
182	0xbc97e19d	-0.018540198
183	0x3e9ff3e0	0.3124075
184	0x3de95c94	0.11394611
185	0x3dfc7e38	0.12328762
186	0xbdc84a5b	-0.09779807
187	0xbd004026	-0.031311177
188	0x3d4acb6c	0.049510404
189	0xbb4e5f0d	-0.003148976
190	0xbdacffff	-0.08447265
191	0xbdd92e5a	-0.10604544
192	0xbe6d21c6	-0.23157415
193	0x3e11d6c2	0.1424208
194	0x3daa5fbe	0.083190426
195	0xbe0b4284	-0.13599592
196	0x3dab715b	0.0837123
197	0x3d6513d0	0.055927098
198	0xbdeae671	-0.114697345
199	0x3dc52ab3	0.09627285
200	0xbe835371	-0.25649598
201	0xbdec77a2	-0.11546256
202	0xbd9d127a	-0.0766954
203	0xbdefe4ed	-0.11713586
204	0x3d07e049	0.03317288
205	0xbec84c13	-0.3912054
206	0xbe0ee771	-0.13955475
207	0xbe952bce	-0.29134983
208	0x3da3ecfa	0.08004184
209	0xbe982609	-0.2971652
210	0x3e2b90a3	0.16754393
211	0xbca3b868	-0.019985393
212	0x3d8cacbb	0.06868883
213	0x3e8ab8e6	0.2709419
214	0xbe4eea75	-0.20206626
215	0xbe8b0fcf	-0.27160498
216	0x3e22c266	0.1589447
217	0x3d3c3e06	0.045957588
218	0x3d80d0e0	0.0628984
219	0xbe38d13a	-0.18048564
220	0xbe2ea856	-0.17056403
221	0x3e26fd0f	0.16307472
222	0x3dfedbba	0.12444253
223	0xbe781b40	-0.24229145
224	0xbd85ec22	-0.065391794
225	0x3e5c9711	0.21542002
226	0xbe7c5257	-0.24640785
227	0x3e245f8e	0.16052076
228	0x3e695add	0.22788568
229	0xbe10d5e3	-0.14144091
230	0xbd812227	-0.06305342
231	0x3c892480	0.016741037
232	0xbdf5954b	-0.11991366
233	0x3e15b5bc	0.14620107
234	0xbe03ea5f	-0.12882374
235	0x3e405752	0.1878331
236	0xbe051503	-0.12996297
237	0xbd822970	-0.0635556
238	0xbe8514cf	-0.25992438
239	0xbe8fd354	-0.28090918
240	0xbde13bf8	-0.10997766
241	0x3e0abe9c	0.13549274
242	0xbd756713	-0.059912752
243	0xbd7576d3	-0.059927773
244	0xbcf59b35	-0.029981235
245	0xbd6cdbdc	-0.05782686
246	0x3ce8ac3e	0.028402444
247	0xbec40620	-0.38285923
248	0x3ce6b5a9	0.028162794
249	0xbe8a2750	-0.26983118
250	0x3c26ad76	0.010173192
251	0xbed2843b	-0.4111651
252	0x3e2b3c10	0.16722131
253	0x3ed2e9bd	0.41193953
254	0xbdc94170	-0.09826934
255	0xbe06f04e	-0.13177606

recurrent_weights f4 [80, 80]
0	0x00000000	0.0
1	0xbe1f91c0	-0.15582943
2	0x3e163a27	0.14670621
3	0x3da695c9	0.08134038
4	0x3e0b6bb6	0.13615307
5	0x3cb18451	0.021669539
6	0x3e6186f4	0.22024137
7	0xbc83b3ec	-0.016077004
8	0xbe150da5	-0.14555986
9	0xbed11abd	-0.40840712
10	0x3da6979a	0.081343845
11	0x3d0b3695	0.0339876
12	0xbddd780d	-0.108139135
13	0xbdb2d88c	-0.08732709
14	0x3ef752c9	0.48305348
15	0x3e891ae1	0.2677832
16	0xbe3ede61	-0.18639518
17	0xbd14fd39	-0.036374304
18	0x3d5f68b6	0.05454322
19	0x3e8fd05a	0.28088647
20	0xba8b4af0	-0.0010627192
21	0xbe432fc2	-0.19061187
22	0xbe351af0	-0.17686057
23	0xbbfb87fd	-0.007676123
24	0xbe5629ee	-0.20914432
25	0x3db2cf75	0.087309755
26	0xbda76667	-0.081738286
27	0xbdcb9ca4	-0.09941986
28	0x3d0bd05f	0.034134265
29	0x3d4faaa0	0.05069983
30	0x3dc7216b	0.09723171
31	0xbde9104b	-0.11380061
32	0x3e061fd8	0.13098085
33	0x3b76b42e	0.0037644017
34	0x3e3b57ae	0.18295166
35	0xbd0a7bfc	-0.033809647
36	0xbdfbaba9	-0.12288601
37	0xbc8dc91f	-0.017307816
38	0x3d23b898	0.039970964
39	0x3df4a4d7	0.11945503
40	0xbeb00338	-0.34377456
41	0xbc28d8db	-0.010305609
42	0x3dbcc8cf	0.09217989
43	0x3db2350a	0.08701523
44	0x3e3200ce	0.1738312
45	0xbe288163	-0.16455607
46	0xbc8b3786	-0.01699425
47	0x3d9c495e	0.07631181
48	0x3dd507e7	0.10401898
49	0xbdd55c37	-0.10417979
50	0xbe017008	-0.12640393
51	0xbe038f7f	-0.12847708
52	0x3df96695	0.12177769
53	0x3dd2ade5	0.10287074
54	0xbdd1f88f	-0.10252487
55	0xbe4211c8	-0.18952096
56	0xbe8cbcdf	-0.27487847
57	0x3d8f2d48	0.069910586
58	0xbe597fda	-0.21240178
59	0xbd876708	-0.066114485
60	0xbe25832f	-0.16163324
61	0x3d2aea25	0.041727204
62	0xbda80e0d	-0.08205805
63	0x3efc2231	0.49244836
64	0x3d991a9e	0.0747578
65	0x3d43da4c	0.047815606
66	0x3e3b9ba8	0.18321097
67	0xbdaff7f6	-0.08592217
68	0xbe0354cb	-0.12825315
69	0xbcf24409	-0.029573457
70	0xbe7f6fdd	-0.24945016
71	0x3df24594	0.11829677
72	0xbdc804ec	-0.09766564
73	0x3e40fc5a	0.18846264
74	0xbc2773fc	-0.010220524
75	0xbe25a5d1	-0.16176535
76	0x3e518782	0.20461848
77	0x3ea4be76	0.3217656
78	0xbd403652	-0.046926804
79	0xbd36789d	-0.04454862
80	0x3b10367b	0.002200513
81	0x00000000	0.0
82	0xbdd13282	-0.10214712
83	0xbe56b9c0	-0.20969296
84	0x3d6e4f3d	0.058181036
85	0xbe14d498	-0.14534223
86	0xbd8786dd	-0.0661752
87	0xbea0a7fd	-0.31378165
88	0xbcf95f82	-0.03044105
89	0xbe1284ed	-0.1430852
90	0x3d89d0d8	0.06729287
91	0xbeb08dd6	-0.34483212
92	0xbe4dfcbb	-0.2011594
93	0x3e4709c9	0.19437326
94	0x3d9f37b0	0.077742934
95	0x3d91116a	0.070833996
96	0xbd463e57	-0.048399296
97	0xbd99f480	-0.07517338
98	0x3c416363	0.011803481
99	0xbe006f37	-0.12542425
100	0x3e6f782e	0.23385689
101	0x3e5d827d	0.21631809
102	0x3cd247d0	0.025669008
103	0xbc76b94c	-0.015058827
104	0x3e806690	0.2507825
105	0xbc8ba1bd	-0.017044896
106	0x3e64d080	0.22345161
107	0x3e12ab8d	0.14323254
108	0x3e2ab744	0.16671473
109	0x3e0e94f9	0.13924016
110	0x3ebbe732	0.36699826
111	0xbdb5118a	-0.08841236
112	0xbe346629	-0.17617096
113	0x3e836f1a	0.256707
114	0xbdbb2c3c	-0.091392964
115	0xbcd394e4	-0.025827833
116	0x3dd71caf	0.10503518
117	0x3c8da16a	0.017288882
118	0x3d37cfe9	0.044876013
119	0x3e68f180	0.22748375
120	0x3d08ccf6	0.03339859
121	0xbd6bf46a	-0.05760614
122	0x3df57064	0.119843274
123	0xbeab40f1	-0.33447984
124	0x3e1fba79	0.15598477
125	0xbe1e4d78	-0.1545924
126	0xbe830e13	-0.25596675
127	0x3dacfcdb	0.08446666
128	0xbe8ed746	-0.27898616
129	0x3d374c77	0.044750657
130	0xbe3aaaed	-0.18229266
131	0x3bc1e2f9	0.00591695
132	0xbd3e2f6a	-0.046431936
133	0xbdeddd2e	-0.11614452
134	0x3e62124a	0.22077289
135	0x3deb7854	0.1149756
136	0xbd0dbc82	-0.034603603
137	0x3ccd7663	0.025080865
138	0xbe1b1453	-0.15144472
139	0xbd91eae2	-0.071248785
140	0xbe1b8279	-0.1518649
141	0xbe773981	-0.2414303
142	0x3e462746	0.19350919
143	0x3dfb3290	0.122655034
144	0xbe039a72	-0.12851885
145	0x3e4f88d8	0.20267045
146	0x3d30b537	0.04314157
147	0x3e190345	0.14942653
148	0xbe01c844	-0.12674052
149	0x3d1bb7a3	0.038016926
150	0xbcb18a78	-0.021672472
151	0xbe813d11	-0.25241902
152	0x3d1b8f1a	0.03797827
153	0xbe32e47a	-0.1746997
154	0x3e40f2b8	0.1884259
155	0x3e44c460	0.19215536
156	0xbc92a85b	-0.017902544
157	0x3dbeb3a4	0.093116075
158	0xbdaf090e	-0.08546649
159	0x3cc4e81e	0.024036463
160	0x3e02f652	0.12789276
161	0xbe1a320b	-0.15058152
162	0x00000000	0.0
163	0x3e3f1ea9	0.1866404
164	0x3d831108	0.06399733
165	0xbdbaaeaf	-0.091153495
166	0xbde76970	-0.112994075
167	0xbe4c618f	-0.1995909
168	0xbe990c50	-0.29892206
169	0xbdf34311	-0.11878026
170	0xbd6dbb04	-0.05803968
171	0xbc009659	-0.007848346
172	0x3dcda4f2	0.100412264
173	0x3e010ee0	0.1260333
174	0x3e13272b	0.1437041
175	0xbd9c550f	-0.07633411
176	0x3e156559	0.14589442
177	0x3c363c71	0.011122809
178	0xbe07b080	-0.13250923
179	0xbd2a978a	-0.041648425
180	0xbd857c64	-0.06517866
181	0xbe1d28b1	-0.15347554
182	0xbe8ef417	-0.279206
183	0xbe3065c4	-0.1722632
184	0xbdb837b5	-0.08995
185	0xbe7954b9	-0.24348725
186	0x3e84401d	0.25830165
187	0xbc8217d2	-0.015880499
188	0xbe722966	-0.23648605
189	0x3cf4c253	0.029877817
190	0x3c9ead6b	0.019369802
191	0x3e582d79	0.21111096
192	0xbd662337	-0.056185927
193	0x3c47dbe6	0.012198424
194	0x3da8c276	0.082402155
195	0x3e1799f9	0.1480483
196	0xbc6f44c6	-0.014603799
197	0x3c811b56	0.015760105
198	0x3d963b52	0.07335533
199	0xbeb0fdc4	-0.34568608
200	0xbd3ab0cd	-0.045578767
201	0xbd3d0b9a	-0.046153642
202	0xbdecc029	-0.11560089
203	0x3e19292a	0.14957109
204	0xbe9a6f46	-0.3016302
205	0x3e8feed6	0.28111905
206	0x3def98bf	0.11699056
207	0xbd986134	-0.07440415
208	0xbc99b54b	-0.018763205
209	0xbc6413ec	-0.013920765
210	0xbd6a5cf4	-0.057217553
211	0x3dabc00d	0.0838624
212	0x3de786cf	0.113050096
213	0x3d996832	0.07490577
214	0xbe10a4ea	-0.1412541
215	0x3de3ba73	0.11119547
216	0xbe0066fb	-0.12539284
217	0xbda5fdf7	-0.081050806
218	0xbc8047ae	-0.01565918
219	0xbd66d45b	-0.05635486
220	0x3defb6d0	0.117047906
221	0xbda2e171	-0.07953156
222	0x3f003c0b	0.5009162
223	0xbe0ddad7	-0.13853012
224	0x3dcac20d	0.099002935
225	0xbe1c570a	-0.15267578
226	0xbe1edd3c	-0.15514082
227	0xbe71d62c	-0.23616856
228	0xbe200837	-0.15628134
229	0x3db6e51e	0.089304194
230	0x3d6454eb	0.055745047
231	0xbdef750a	-0.11692245
232	0x3d9540ad	0.072877266
233	0x3e7ac70b	0.24489991
234	0x3daccf31	0.08437956
235	0x3e27c6c4	0.16384417
236	0x3c492b42	0.01227838
237	0x3d500d63	0.050794017
238	0x3d24c484	0.040226474
239	0x3d80ed69	0.062952824
240	0xbdf5a39a	-0.11994095
241	0x3d95cae3	0.07314088
242	0xbe502771	-0.20327546
243	0x00000000	0.0
244	0xbe467fa7	-0.19384633
245	0xbc9c28ac	-0.019062363
246	0xbda024ea	-0.07819541
247	0xbe4d4643	-0.20046334
248	0xbd71a026	-0.05899062
249	0xbe2c1da5	-0.16808183
250	0x3e146837	0.1449288
251	0xbdaad9e4	-0.083423406
252	0xbe95efda	-0.29284555
253	0x3d97e3c3	0.07416489
254	0x3d8d05d5	0.06885878
255	0x3d29e7b0	0.04148072

p f4 [80]
0	0x43480000	200.0
1	0x43480000	200.0
2	0x43480000	200.0
3	0x43480000	200.0
4	0x43480000	200.0
5	0x43480000	200.0
6	0x43480000	200.0
7	0x43480000	200.0
8	0x43480000	200.0
9	0x43480000	200.0
10	0x43480000	200.0
11	0x43480000	200.0
12	0x43480000	200.0
13	0x43480000	200.0
14	0x43480000	200.0
15	0x43480000	200.0
16	0x43480000	200.0
17	0x43480000	200.0
18	0x43480000	200.0
19	0x43480000	200.0
20	0x43480000	200.0
21	0x43480000	200.0
22	0x43480000	200.0
23	0x43480000	200.0
24	0x43480000	200.0
25	0x43480000	200.0
26	0x43480000	200.0
27	0x43480000	200.0
28	0x43480000	200.0
29	0x43480000	200.0
30	0x43480000	200.0
31	0x43480000	200.0
32	0x43480000	200.0
33	0x43480000	200.0
34	0x43480000	200.0
35	0x43480000	200.0
36	0x43480000	200.0
37	0x43480000	200.0
38	0x43480000	200.0
39	0x43480000	200.0
40	0x43480000	200.0
41	0x43480000	200.0
42	0x43480000	200.0
43	0x43480000	200.0
44	0x43480000	200.0
45	0x43480000	200.0
46	0x43480000	200.0
47	0x43480000	200.0
48	0x43480000	200.0
49	0x43480000	200.0
50	0x43480000	200.0
51	0x43480000	200.0
52	0x43480000	200.0
53	0x43480000	200.0
54	0x43480000	200.0
55	0x43480000	200.0
56	0x43480000	200.0
57	0x43480000	200.0
58	0x43480000	200.0
59	0x43480000	200.0
60	0x43480000	200.0
61	0x43480000	200.0
62	0x43480000	200.0
63	0x43480000	200.0
64	0x43480000	200.0
65	0x43480000	200.0
66	0x43480000	200.0
67	0x43480000	200.0
68	0x43480000	200.0
69	0x43480000	200.0
70	0x43480000	200.0
71	0x43480000	200.0
72	0x43480000	200.0
73	0x43480000	200.0
74	0x43480000	200.0
75	0x43480000	200.0
76	0x43480000	200.0
77	0x43480000	200.0
78	0x43480000	200.0
79	0x43480000	200.0

p f4 [80]
0	0x42c80000	100.0
1	0x42c80000	100.0
2	0x42c80000	100.0
3	0x42c80000	100.0
4	0x42c80000	100.0
5	0x42c80000	100.0
6	0x42c80000	100.0
7	0x42c80000	100.0
8	0x42c80000	100.0
9	0x42c80000	100.0
10	0x42c80000	100.0
11	0x42c80000	100.0
12	0x42c80000	100.0
13	0x42c80000	100.0
14	0x42c80000	100.0
15	0x42c80000	100.0
16	0x42c80000	100.0
17	0x42c80000	100.0
18	0x42c80000	100.0
19	0x42c80000	100.0
20	0x42c80000	100.0
21	0x42c80000	100.0
22	0x42c80000	100.0
23	0x42c80000	100.0
24	0x42c80000	100.0
25	0x42c80000	100.0
26	0x42c80000	100.0
27	0x42c80000	100.0
28	0x42c80000	100.0
29	0x42c80000	100.0
30	0x42c80000	100.0
31	0x42c80000	100.0
32	0x42c80000	100.0
33	0x42c80000	100.0
34	0x42c80000	100.0
35	0x42c80000	100.0
36	0x42c80000	100.0
37	0x42c80000	100.0
38	0x42c80000	100.0
39	0x42c80000	100.0
40	0x42c80000	100.0
41	0x42c80000	100.0
42	0x42c80000	100.0
43	0x42c80000	100.0
44	0x42c80000	100.0
45	0x42c80000	100.0
46	0x42c80000	100.0
47	0x42c80000	100.0
48	0x42c80000	100.0
49	0x42c80000	100.0
50	0x42c80000	100.0
51	0x42c80000	100.0
52	0x42c80000	100.0
53	0x42c80000	100.0
54	0x42c80000	100.0
55	0x42c80000	100.0
56	0x42c80000	100.0
57	0x42c80000	100.0
58	0x42c80000	100.0
59	0x42c80000	100.0
60	0x42c80000	100.0
61	0x42c80000	100.0
62	0x42c80000	100.0
63	0x42c80000	100.0
64	0x42c80000	100.0
65	0x42c80000	100.0
66	0x42c80000	100.0
67	0x42c80000	100.0
68	0x42c80000	100.0
69	0x42c80000	100.0
70	0x42c80000	100.0
71	0x42c80000	100.0
72	0x42c80000	100.0
73	0x42c80000	100.0
74	0x42c80000	100.0
75	0x42c80000	100.0
76	0x42c80000	100.0
77	0x42c80000	100.0
78	0x42c80000	100.0
79	0x42c80000	100.0

p f4 [80]
0	0x3f800000	1.0
1	0x3f800000	1.0
2	0x3f800000	1.0
3	0x3f800000	1.0
4	0x3f800000	1.0
5	0x3f800000	1.0
6	0x3f800000	1.0
7	0x3f800000	1.0
8	0x3f800000	1.0
9	0x3f800000	1.0
10	0x3f800000	1.0
11	0x3f800000	1.0
12	0x3f800000	1.0
13	0x3f800000	1.0
14	0x3f800000	1.0
15	0x3f800000	1.0
16	0x3f800000	1.0
17	0x3f800000	1.0
18	0x3f800000	1.0
19	0x3f800000	1.0
20	0x3f800000	1.0
21	0x3f800000	1.0
22	0x3f800000	1.0
23	0x3f800000	1.0
24	0x3f800000	1.0
25	0x3f800000	1.0
26	0x3f800000	1.0
27	0x3f800000	1.0
28	0x3f800000	1.0
29	0x3f800000	1.0
30	0x3f800000	1.0
31	0x3f800000	1.0
32	0x3f800000	1.0
33	0x3f800000	1.0
34	0x3f800000	1.0
35	0x3f800000	1.0
36	0x3f800000	1.0
37	0x3f800000	1.0
38	0x3f800000	1.0
39	0x3f800000	1.0
40	0x3f800000	1.0
41	0x3f800000	1.0
42	0x3f800000	1.0
43	0x3f800000	1.0
44	0x3f800000	1.0
45	0x3f800000	1.0
46	0x3f800000	1.0
47	0x3f800000	1.0
48	0x3f800000	1.0
49	0x3f800000	1.0
50	0x3f800000	1.0
51	0x3f800000	1.0
52	0x3f800000	1.0
53	0x3f800000	1.0
54	0x3f800000	1.0
55	0x3f800000	1.0
56	0x3f800000	1.0
57	0x3f800000	1.0
58	0x3f800000	1.0
59	0x3f800000	1.0
60	0x3f800000	1.0
61	0x3f800000	1.0
62	0x3f800000	1.0
63	0x3f800000	1.0
64	0x3f800000	1.0
65	0x3f800000	1.0
66	0x3f800000	1.0
67	0x3f800000	1.0
68	0x3f800000	1.0
69	0x3f800000	1.0
70	0x3f800000	1.0
71	0x3f800000	1.0
72	0x3f800000	1.0
73	0x3f800000	1.0
74	0x3f800000	1.0
75	0x3f800000	1.0
76	0x3f800000	1.0
77	0x3f800000	1.0
78	0x3f800000	1.0
79	0x3f800000	1.0

p f4 [80]
0	0x00000000	0.0
1	0x00000000	0.0
2	0x00000000	0.0
3	0x00000000	0.0
4	0x00000000	0.0
5	0x00000000	0.0
6	0x00000000	0.0
7	0x00000000	0.0
8	0x00000000	0.0
9	0x00000000	0.0
10	0x00000000	0.0
11	0x00000000	0.0
12	0x00000000	0.0
13	0x00000000	0.0
14	0x00000000	0.0
15	0x00000000	0.0
16	0x00000000	0.0
17	0x00000000	0.0
18	0x00000000	0.0
19	0x00000000	0.0
20	0x00000000	0.0
21	0x00000000	0.0
22	0x00000000	0.0
23	0x00000000	0.0
24	0x00000000	0.0
25	0x00000000	0.0
26	0x00000000	0.0
27	0x00000000	0.0
28	0x00000000	0.0
29	0x00000000	0.0
30	0x00000000	0.0
31	0x00000000	0.0
32	0x00000000	0.0
33	0x00000000	0.0
34	0x00000000	0.0
35	0x00000000	0.0
36	0x00000000	0.0
37	0x00000000	0.0
38	0x00000000	0.0
39	0x00000000	0.0
40	0x00000000	0.0
41	0x00000000	0.0
42	0x00000000	0.0
43	0x00000000	0.0
44	0x00000000	0.0
45	0x00000000	0.0
46	0x00000000	0.0
47	0x00000000	0.0
48	0x00000000	0.0
49	0x00000000	0.0
50	0x00000000	0.0
51	0x00000000	0.0
52	0x00000000	0.0
53	0x00000000	0.0
54	0x00000000	0.0
55	0x00000000	0.0
56	0x00000000	0.0
57	0x00000000	0.0
58	0x00000000	0.0
59	0x00000000	0.0
60	0x00000000	0.0
61	0x00000000	0.0
62	0x00000000	0.0
63	0x00000000	0.0
64	0x00000000	0.0
65	0x00000000	0.0
66	0x00000000	0.0
67	0x00000000	0.0
68	0x00000000	0.0
69	0x00000000	0.0
70	0x00000000	0.0
71	0x00000000	0.0
72	0x00000000	0.0
73	0x00000000	0.0
74	0x00000000	0.0
75	0x00000000	0.0
76	0x00000000	0.0
77	0x00000000	0.0
78	0x00000000	0.0
79	0x00000000	0.0

super f4 [80]
0	0x42c80000	100.0
1	0x42c80000	100.0
2	0x42c80000	100.0
3	0x42c80000	100.0
4	0x42c80000	100.0
5	0x42c80000	100.0
6	0x42c80000	100.0
7	0x42c80000	100.0
8	0x42c80000	100.0
9	0x42c80000	100.0
10	0x42c80000	100.0
11	0x42c80000	100.0
12	0x42c80000	100.0
13	0x42c80000	100.0
14	0x42c80000	100.0
15	0x42c80000	100.0
16	0x42c80000	100.0
17	0x42c80000	100.0
18	0x42c80000	100.0
19	0x42c80000	100.0
20	0x42c80000	100.0
21	0x42c80000	100.0
22	0x42c80000	100.0
23	0x42c80000	100.0
24	0x42c80000	100.0
25	0x42c80000	100.0
26	0x42c80000	100.0
27	0x42c80000	100.0
28	0x42c80000	100.0
29	0x42c80000	100.0
30	0x42c80000	100.0
31	0x42c80000	100.0
32	0x42c80000	100.0
33	0x42c80000	100.0
34	0x42c80000	100.0
35	0x42c80000	100.0
36	0x42c80000	100.0
37	0x42c80000	100.0
38	0x42c80000	100.0
39	0x42c80000	100.0
40	0x42c80000	100.0
41	0x42c80000	100.0
42	0x42c80000	100.0
43	0x42c80000	100.0
44	0x42c80000	100.0
45	0x42c80000	100.0
46	0x42c80000	100.0
47	0x42c80000	100.0
48	0x42c80000	100.0
49	0x42c80000	100.0
50	0x42c80000	100.0
51	0x42c80000	100.0
52	0x42c80000	100.0
53	0x42c80000	100.0
54	0x42c80000	100.0
55	0x42c80000	100.0
56	0x42c80000	100.0
57	0x42c80000	100.0
58	0x42c80000	100.0
59	0x42c80000	100.0
60	0x42c80000	100.0
61	0x42c80000	100.0
62	0x42c80000	100.0
63	0x42c80000	100.0
64	0x42c80000	100.0
65	0x42c80000	100.0
66	0x42c80000	100.0
67	0x42c80000	100.0
68	0x42c80000	100.0
69	0x42c80000	100.0
70	0x42c80000	100.0
71	0x42c80000	100.0
72	0x42c80000	100.0
73	0x42c80000	100.0
74	0x42c80000	100.0
75	0x42c80000	100.0
76	0x42c80000	100.0
77	0x42c80000	100.0
78	0x42c80000	100.0
79	0x42c80000	100.0

weight f4 [4, 80]
0	0x3b1158d7	0.0022178197
1	0x3dd3d927	0.10344153
2	0xbd902991	-0.07039178
3	0xbd911904	-0.070848495
4	0x3ddae900	0.106889725
5	0x3c3581ff	0.011078357
6	0xbdbd7001	-0.09249879
7	0xbda956f5	-0.08268539
8	0xbdda77de	-0.10667394
9	0xbd40cafb	-0.047068577
10	0x3da25fac	0.07928404
11	0xbd72ef94	-0.05931051
12	0x3d7fda58	0.06246409
13	0x3c86b651	0.016444357
14	0xbd0020cc	-0.031281278
15	0xbd898dc8	-0.06716496
16	0x3d800a8e	0.06252013
17	0x3dc4ecf1	0.096155055
18	0x3db8fdfe	0.0903282
19	0xbdc63293	-0.09677615
20	0x3dcb819e	0.09936832
21	0xbdaba765	-0.08381537
22	0xbcda676d	-0.026660645
23	0x3dc3740a	0.09543617
24	0x3dbb89fb	0.09157177
25	0x3a95c6c0	0.001142703
26	0xbd29a64c	-0.04141836
27	0xbd9ae6cd	-0.07563553
28	0xbd14bf30	-0.036315143
29	0x3d8d851c	0.06910154
30	0x3d642bcc	0.05570583
31	0xbcbafd77	-0.02282594
32	0x3d42b68d	0.047537375
33	0x3d967236	0.07346003
34	0xbd917ab6	-0.071034834
35	0xbdd75cfd	-0.10515783
36	0xbd82ca6c	-0.06386265
37	0xbd17df33	-0.037078094
38	0xbd022b36	-0.03177949
39	0x3cc05686	0.023478758
40	0x3d9bacf0	0.076013446
41	0xbdc76152	-0.09735359
42	0xbdd98eb7	-0.10622924
43	0x3cedd1d0	0.02903071
44	0x3b4d0169	0.0031281358
45	0xbd09db54	-0.033656433
46	0x3b5ca432	0.0033667204
47	0x3db4d905	0.08830456
48	0xbd9e18dd	-0.07719586
49	0xbd04a251	-0.03238136
50	0xbc94d86a	-0.0181696
51	0x3d1caeec	0.038252756
52	0x3d222401	0.039585117
53	0x3ddf4b5d	0.10903046
54	0x3cb83fe6	0.022491407
55	0xbc8ed493	-0.017435348
56	0xbd83bfb6	-0.0643305
57	0x3d6f7317	0.058459368
58	0x3d032add	0.0320233
59	0xbd003dc8	-0.03130892
60	0xbc811e33	-0.01576147
61	0xbbcaffac	-0.0061950292
62	0xbdbe6a0f	-0.09297573
63	0x3dc9f106	0.09860425
64	0x3d4ce2f1	0.050021116
65	0x3cb4cfc8	0.022071734
66	0xbd4bc90b	-0.049752276
67	0x3d2d6a47	0.042337682
68	0x3da41296	0.080113575
69	0x3d3d1955	0.046166737
70	0xbd65e813	-0.056129526
71	0xbd8f5117	-0.069978885
72	0x3dda1bbc	0.10649821
73	0xbcff5b6b	-0.031171521
74	0xbcaf0c08	-0.021368042
75	0xbd263284	-0.04057552
76	0xbdbf08ca	-0.09327848
77	0xbb4dc950	-0.003140051
78	0xbccbb936	-0.024868589
79	0xbd99e88a	-0.075150564
80	0xbda159c0	-0.078784466
81	0xbd98b988	-0.07457262
82	0x3d70ba25	0.05877127
83	0xbd97e2d7	-0.07416313
84	0xbd834371	-0.06409348
85	0xbc87383c	-0.016506307
86	0xbd05c56c	-0.03265898
87	0xbdd52958	-0.10408276
88	0x3c16bcf1	0.009200321
89	0xbda90c09	-0.08254249
90	0xbd58e5b8	-0.052953452
91	0xbd5dce03	-0.054151546
92	0x3dcff0aa	0.10153325
93	0xbb668ecd	-0.003518033
94	0xbbc32336	-0.005955125
95	0x3dcf50a4	0.10122803
96	0x3dbb82bd	0.09155796
97	0x3dc225ec	0.09479889
98	0x3d10ab64	0.0353197
99	0xbb71feef	-0.0036925634
100	0xbb8e6d8c	-0.004346555
101	0x3ac4b204	0.0015006666
102	0xbc980d0d	-0.01856091
103	0x3c24f991	0.010069267
104	0xbdc1a62e	-0.094555244
105	0xbd45333b	-0.04814456
106	0xbd774759	-0.060370777
107	0x3d96f577	0.073710375
108	0xbbd300b2	-0.006439292
109	0xbd763a07	-0.060113933
110	0x3d6b1a33	0.057398032
111	0x3bdca22f	0.006733201
112	0xbd2411ac	-0.040055916
113	0xbda12aff	-0.07869529
114	0xbb0c8937	-0.002144409
115	0xbd0db142	-0.034592874
116	0xbdae5b20	-0.085134745
117	0x3d97bd2b	0.07409128
118	0x3d1a2fb3	0.037643146
119	0x3dd4f2de	0.10397886
120	0x3da72955	0.0816218
121	0x3c13364c	0.008985113
122	0x3d9e7641	0.07737399
123	0xbddaa8f3	-0.10676756
124	0xbd2d4e62	-0.04231108
125	0x3d2b413e	0.041810267
126	0x3dd7bc5d	0.10533974
127	0x3d6d87e2	0.057990916
128	0x3dd3f34d	0.1034914
129	0xbd571343	-0.052508604
130	0xbd8a3585	-0.06748489
131	0x3d0cd7b4	0.034385398
132	0x3de19a85	0.110158004
133	0x3db8206e	0.089905605
134	0xbda5c660	-0.08094478
135	0x3d4a95af	0.049459156
136	0x3dde637a	0.108588174
137	0x3c41f1b5	0.011837413
138	0xbdce5961	-0.100756414
139	0x3d0ad275	0.033892114
140	0x3d0b0eca	0.03394965
141	0xbdd4e757	-0.10395687
142	0xbd3cf64c	-0.046133325
143	0x3dc27d9c	0.09496614
144	0xbd2b0c0d	-0.04175954
145	0x3db3d01f	0.0877993
146	0x3d43f693	0.047842573
147	0xbc51f9ad	-0.012815875
148	0x3dc88623	0.097912095
149	0xbb9321ac	-0.004490098
150	0xbcad4daf	-0.021155206
151	0xbd3ca8b1	-0.046059314
152	0xbdc4d3f8	-0.09610742
153	0xbbbe5ddf	-0.00580953
154	0xbcd6e40d	-0.02623179
155	0xbc2fc135	-0.0107272165
156	0x3ca0faf5	0.019650916
157	0x3d8bd02c	0.06826815
158	0x3c851bc6	0.016248595
159	0x3bdd2b7a	0.0067495676
160	0xbd7ed1ee	-0.062211923
161	0x3daadd60	0.08343005
162	0x3dccac10	0.09993756
163	0xbd92f5ed	-0.07175813
164	0xbc4801fd	-0.012207505
165	0x3b898904	0.0041972417
166	0x3d871913	0.065965794
167	0xbc4ffca3	-0.012694511
168	0x3daf8c07	0.0857163
169	0x3ddba50d	0.1072484
170	0xbd3eda85	-0.046595115
171	0xbcaa1600	-0.020762444
172	0xbdaeb05a	-0.0852973
173	0x3dcdb6a1	0.10044599
174	0x3ca9d64d	0.02073207
175	0xbd70dfa0	-0.058807015
176	0x3cad6bd8	0.021169588
177	0x3d60255c	0.05472313
178	0x3d7f05cb	0.062261384
179	0x3bedd087	0.0072575244
180	0xbc088935	-0.008333494
181	0x3dd93d0b	0.10607346
182	0x3da7483d	0.08168075
183	0xbd246ffa	-0.04014585
184	0xbd9e2207	-0.07721334
185	0xbd9c1e49	-0.07622964
186	0x3db93b4b	0.09044512
187	0x3db7a9f8	0.08967966
188	0x3d629206	0.05531504
189	0x3de48ddd	0.11159871
190	0x3c902c66	0.017599296
191	0xbdb20049	-0.08691461
192	0xbda9288f	-0.08259689
193	0x3d821fcf	0.06353723
194	0x3dde1bf5	0.10845176
195	0xbdba81d4	-0.09106794
196	0x3dcf1d9c	0.101130694
197	0x3ce5e4dc	0.02806323
198	0x3d8354e4	0.06412676
199	0x3d9384fe	0.072031006
200	0xbd381d36	-0.044949733
201	0x3d6739b5	0.056451518
202	0x3d13087d	0.035896767
203	0xbcbfdce9	-0.023420768
204	0xbd9d66ae	-0.076856
205	0x3dd59f63	0.10430791
206	0xbd9381c9	-0.07202489
207	0x3d7b0f54	0.061293915
208	0xbd4c0e4f	-0.049818333
209	0xbd9dddb9	-0.07708306
210	0xbd9e66e0	-0.077344656
211	0xbd3a1ee8	-0.04543963
212	0x3d48d8c6	0.049034856
213	0x3de4108b	0.11135968
214	0x3d3e22cc	0.046419904
215	0xbd4fec8d	-0.0507627
216	0x3bcee4d9	0.006313902
217	0xbd42b8f1	-0.047539655
218	0xbd567802	-0.052360542
219	0xbc8a8f72	-0.016914103
220	0x3d38dcb0	0.04513234
221	0xbda098c9	-0.078416415
222	0xbb5309a3	-0.003220179
223	0xbd688bad	-0.05677383
224	0xbd64ae45	-0.05583026
225	0x3db3d0f7	0.08780091
226	0xbd9fd0a7	-0.07803469
227	0x3da0aba9	0.078452416
228	0xbcea21b1	-0.028580518
229	0x3da0c2a1	0.078496225
230	0xbdc5b58a	-0.096537665
231	0x3c1d56bd	0.0096032
232	0xbd1662ed	-0.036715437
233	0x3d8f389e	0.06993221
234	0xbd4cd693	-0.05000932
235	0x3dbebc77	0.093132906
236	0x3d0abcab	0.033871334
237	0x3ba3b4b9	0.004995909
238	0x3cba7441	0.022760512
239	0xbd4a5ad5	-0.04940303
240	0x3c543875	0.0129529135
241	0xbdcfaa11	-0.101398595
242	0xbd42f0b8	-0.04759285
243	0x3dd13b67	0.10216408
244	0x3d99975b	0.07499572
245	0xbdcee898	-0.101029575
246	0x3dbfb32c	0.09360346
247	0xbd3346eb	-0.043768805
248	0xbddd13ef	-0.10794818
249	0xbcec1c62	-0.028822128
250	0xbd160c8f	-0.03663307
251	0x3dc1d485	0.09464363
252	0xbd67f302	-0.056628235
253	0xbd98b742	-0.07456829
254	0x3dd47460	0.10373759
255	0x3de4130a	0.11136444

bias f4 [4]
0	0x3cfd40aa	0.030914623
1	0xbcac495a	-0.02103107
2	0x3abb792c	0.001430308
3	0x3c844b7c	0.016149275

weight f4 [256, 80]
0	0xbee06f02	-0.43834692
1	0xbe84f844	-0.25970662
2	0xbf1e49e9	-0.6183153
3	0x3eede5a2	0.46464258
4	0x3fa93d96	1.322192
5	0xbf7e6694	-0.9937527
6	0x3f1482b1	0.5801192
7	0x3f0a2b9f	0.5397281
8	0x3cc48d4b	0.023993155
9	0x3f63efee	0.8903798
10	0xbfab4ab1	-1.3382169
11	0x3e7dde3d	0.24791808
12	0xbfd81600	-1.6881714
13	0x3edda6c3	0.43291292
14	0xbed9aa13	-0.4251257
15	0xbf8bad42	-1.0912249
16	0xc0040119	-2.062567
17	0x3e6cd2c9	0.23127283
18	0xbf7c0168	-0.98439646
19	0xbf211ed3	-0.6293766
20	0xbdfc5289	-0.1232043
21	0xbed373db	-0.41299328
22	0xbfb61379	-1.4224693
23	0xbe0f1ea9	-0.1397654
24	0x3fe7191e	1.805454
25	0x3f1b9dda	0.6078774
26	0xbefffe5a	-0.49998742
27	0x3c956678	0.018237337
28	0xbdaa0eaa	-0.08303578
29	0x3f5b0a5b	0.85562676
30	0x3e2c0f03	0.16802602
31	0x3f68e2bb	0.90970963
32	0x3eca4f39	0.39513567
33	0xbf9b96f4	-1.2155442
34	0xbf2fc81c	-0.6866472
35	0x3fe17e09	1.7616588
36	0xbfc0d7d1	-1.5065862
37	0xbf199c1a	-0.6000382
38	0x3c953bf9	0.018217074
39	0x3fee2640	1.8605423
40	0x3fd9c59b	1.7013429
41	0x3e72229c	0.23646015
42	0xbfac1493	-1.3443779
43	0x3f6a2b5d	0.9147242
44	0xbf817a30	-1.0115414
45	0x3f093a77	0.53604835
46	0x3f984f34	1.1899171
47	0x3f220102	0.6328279
48	0xbf39b486	-0.7254108
49	0xbee74bd4	-0.4517504
50	0xbf191803	-0.59802264
51	0xbd64d31f	-0.055865403
52	0x3e28171d	0.16415067
53	0xc0051570	-2.0794334
54	0xbe071b02	-0.13193896
55	0xbf929057	-1.1450299
56	0xbe19e102	-0.1502724
57	0xbecbfa59	-0.39839438
58	0x3e621dd7	0.22081695
59	0xbf23649a	-0.6382538
60	0xbee88de0	-0.45420742
61	0x3fbf52b2	1.4947112
62	0xbf0e6b61	-0.556326
63	0x3f8f729a	1.1206849
64	0xc00f7195	-2.2413075
65	0xbf37770c	-0.71666026
66	0xbfd7b794	-1.6852899
67	0x3f079a2d	0.5296963
68	0xbfc1fd0c	-1.5155349
69	0x3ebf7d04	0.37400067
70	0x3fcc6109	1.5967113
71	0x3f46818d	0.7754143
72	0xbfa80397	-1.3126096
73	0x3ee795db	0.45231518
74	0xbf2ce6e3	-0.67539805
75	0x3f8149f4	1.0100694
76	0xbeba06df	-0.36333367
77	0x3e90ad5f	0.28257272
78	0xbe882f89	-0.26598766
79	0xbf9cd777	-1.2253255
80	0xbfb0ca68	-1.381177
81	0x3dc09f29	0.094053574
82	0xbfe18007	-1.7617196
83	0x3fa8a452	1.3175147
84	0xbf549ed1	-0.83054835
85	0x3fb2fc61	1.398327
86	0x3f69c193	0.91310996
87	0xbe1a17b2	-0.15048102
88	0xbeebb3e1	-0.46035674
89	0xc008b767	-2.136194
90	0x3f175041	0.5910683
91	0xbeee9978	-0.46601462
92	0x3fff95bc	1.996757
93	0xbfdf2265	-1.7432371
94	0xbf4287bd	-0.7598837
95	0x3f15cf14	0.585191
96	0x3e5b2df2	0.21404245
97	0xbcb25278	-0.02176784
98	0x3f21b03b	0.6315953
99	0xbe344c09	-0.1760713
100	0x3e293905	0.16525657
101	0x3f9c024d	1.2188202
102	0x3b626b3b	0.0034548778
103	0x3f759232	0.959262
104	0xbfc903a0	-1.5704231
105	0x3fa79150	1.3091221
106	0x3fc07718	1.5036345
107	0xbea8cd73	-0.32969245
108	0xbb877130	-0.004133366
109	0xbf291e69	-0.6606203
110	0x3f22b6d6	0.63560236
111	0x3ed2c0c9	0.41162708
112	0xbfc9a419	-1.5753204
113	0x3efe9daa	0.49729663
114	0x3f9beff9	1.2182609
115	0xbfa95285	-1.3228308
116	0x3fa43562	1.2828791
117	0x3ef0a99e	0.47004408
118	0x3ecd6a7c	0.40120304
119	0xbdce60e4	-0.10077074
120	0x3fe0aa2a	1.755193
121	0x3dd8daf2	0.105886355
122	0xbfb0935f	-1.3794974
123	0x3dd5a764	0.10432318
124	0xbfe354cb	-1.7760252
125	0x3fac3fe6	1.3457
126	0x3f7f6a9e	0.9977206
127	0x3ff94e51	1.9477025
128	0x3ea341d8	0.31886172
129	0xbe945024	-0.28967392
130	0x3f545fe9	0.8295885
131	0x3ed561dd	0.41676226
132	0xbf4341a1	-0.76272017
133	0x3ef45ffb	0.47729477
134	0xbe4541ab	-0.19263332
135	0xc00f9c1e	-2.2439036
136	0x3f6abede	0.9169749
137	0xbf306b35	-0.68913585
138	0xbebc41d1	-0.36768964
139	0x3f392d4d	0.7233475
140	0x3e44e496	0.19227824
141	0xbf0139ec	-0.50479007
142	0x3d347fff	0.04406738
143	0x3f9ba22f	1.215887
144	0xbe36dc2c	-0.17857426
145	0xbee279c3	-0.44233522
146	0x3f1e598d	0.61855394
147	0x40246b4c	2.569049
148	0xbfa9584c	-1.3230071
149	0xbfa0d998	-1.2566404
150	0x3f782a1f	0.9693927
151	0xbe096b72	-0.13419893
152	0x3e9ca63e	0.30595583
153	0x3ec3148e	0.3810162
154	0xbfd0b15e	-1.6304128
155	0xbed9b156	-0.4251811
156	0x3f7ec14b	0.9951369
157	0x403388cb	2.8052242
158	0xbf8faca3	-1.122456
159	0x3f45d9ff	0.7728576
160	0x3f000db6	0.5002092
161	0x3e5bf5b5	0.21480449
162	0x3e6067f6	0.21914658
163	0x3fcf2477	1.6183003
164	0x3e9ac1e0	0.3022604
165	0xbec47fda	-0.38378793
166	0xbef39e37	-0.47581646
167	0x3fa4fa04	1.2888799
168	0x3f0170ea	0.5056292
169	0xbe95269d	-0.29131022
170	0xbed1f937	-0.41010448
171	0xbf0a983c	-0.5413854
172	0xbf582e61	-0.8444577
173	0xbfa9c543	-1.3263324
174	0xbeb9c47b	-0.36282715
175	0xbdde13e7	-0.1084364
176	0x3f6400bb	0.89063615
177	0x3fb0a4b6	1.3800266
178	0x3ef97969	0.4872544
179	0x3e7c4fbc	0.24639791
180	0xbfa158c3	-1.2605213
181	0xbebf9be4	-0.37423623
182	0x3fa79375	1.3091875
183	0xc0175c68	-2.365015
184	0xbf5aff0e	-0.8554543
185	0xbf495f74	-0.78661275
186	0x3f0d7c37	0.5526766
187	0xbf9aa7fa	-1.2082512
188	0x3f89a684	1.0753942
189	0x3f9d9d7c	1.2313685
190	0xc00d4e0a	-2.2078881
191	0x3f6e19a6	0.93007886
192	0x3f62260b	0.883393
193	0xbf802807	-1.0012215
194	0x3faace22	1.3344157
195	0x3e761259	0.24030437
196	0xbea242ff	-0.3169174
197	0x3e5f8e81	0.21831705
198	0x3fcb8a92	1.5901663
199	0x3e1248ed	0.14285631
200	0x3fc954de	1.5729024
201	0xbe381689	-0.17977346
202	0xbeea7cde	-0.4579839
203	0xbf7b91e7	-0.98269504
204	0xbe417c53	-0.18895082
205	0xbf5badfd	-0.8581236
206	0xbe96e6e9	-0.29473045
207	0x3fd2c8e6	1.6467559
208	0xbed44666	-0.4145996
209	0xbfc6fb57	-1.5545453
210	0x3fb0c0b0	1.3808804
211	0x3f102160	0.56300926
212	0xbeb4f0f4	-0.35340083
213	0xbfd16996	-1.6360347
214	0xc0296518	-2.6467953
215	0x3f292ed1	0.6608706
216	0xbffee732	-1.9914305
217	0x3ec48901	0.38385776
218	0xbeae0230	-0.33986044
219	0xbf56dea6	-0.83933485
220	0xbbfd47db	-0.007729513
221	0x3ebea255	0.37233225
222	0xbc3c0a8b	-0.011477123
223	0x3f18394a	0.59462416
224	0x400561b7	2.084089
225	0x3f220732	0.6329223
226	0x3f973670	1.1813488
227	0xbf748a29	-0.95523316
228	0xbfc3b34b	-1.5289091
229	0xbd0cdc13	-0.034389567
230	0x3fbc17cd	1.4694763
231	0x3f0e6478	0.55622053
232	0xbf9464a9	-1.1593219
233	0x3e6d5693	0.23177557
234	0x3f93653b	1.1515268
235	0xbee41e62	-0.4455443
236	0x40126019	2.2871153
237	0xbf37f9b6	-0.71865404
238	0x3f444623	0.7666952
239	0xbf30317c	-0.6882551
240	0x3f3058e1	0.6888562
241	0xbe28ce73	-0.16485004
242	0xbe585ea3	-0.21129851
243	0xbf3e0f13	-0.7424175
244	0xbf0b0e14	-0.54318357
245	0x3e0b66fa	0.13613501
246	0xbc96d347	-0.018411292
247	0xbf9fbd70	-1.2479687
248	0x3f21c71a	0.6319443
249	0x3fae56bd	1.362022
250	0xbd76c773	-0.060248803
251	0x3ec97337	0.39345714
252	0x3fa54efb	1.2914728
253	0xc00cb3e0	-2.1984787
254	0xbf3a2c07	-0.7272343
255	0xbea1ad8d	-0.3157772
