Alpha_58_1e-4/Retraining_3/4-PAM_SNN_MMSE_Equalizer_im_dd.pt (torch, 246267 bytes, 11 tensors)

weight f4 [80, 328]
0	0xbd405f69	-0.04696599
1	0x3d02a774	0.031897977
2	0xbcbcae2f	-0.023032276
3	0xbc39f48c	-0.011349808
4	0x3c30027e	0.010742782
5	0xbc5e000a	-0.013549814
6	0xbd0bf97c	-0.034173474
7	0xbd187f09	-0.037230525
8	0xbd4dee92	-0.050276347
9	0x3d3010d4	0.0429848
10	0xbd48fb87	-0.049068
11	0xbc6e1794	-0.014531989
12	0xbb72eaa5	-0.0037066129
13	0x3cb2e3ca	0.021837134
14	0xbcea51b7	-0.028603418
15	0xbd3a8e1a	-0.045545675
16	0xbd4b99b3	-0.049707126
17	0xbc8ffde1	-0.017577114
18	0x3c272c8d	0.010203493
19	0xbc00b885	-0.007856493
20	0x3d00a9ea	0.031412043
21	0x3d6042d2	0.054751225
22	0x3d5b994a	0.053612985
23	0x3ca4fbcf	0.020139603
24	0x3d3f4349	0.046695028
25	0xbd1c5e98	-0.03817615
26	0xbc00ca14	-0.007860679
27	0xbcf75a4f	-0.03019443
28	0xbcb201b5	-0.02172933
29	0x3d0291d3	0.03187735
30	0xbb6d0112	-0.0036163968
31	0x3d49d650	0.04927665
32	0xbc335b95	-0.010947128
33	0xbd505a22	-0.050867207
34	0x3c67a78e	0.014139069
35	0xbb44ae43	-0.0030011095
36	0x3ce88f1a	0.028388549
37	0x3c82a8d0	0.015949637
38	0x3d288a6a	0.041147627
39	0xbc67dc6c	-0.014151674
40	0x3c9013b0	0.017587513
41	0xbc31827e	-0.010834334
42	0xbcd439bf	-0.025906442
43	0xbc0c0095	-0.008545061
44	0xbd374e24	-0.044752255
45	0x3c868498	0.016420648
46	0x3d36ad0c	0.044598624
47	0x3d134026	0.03594985
48	0x3c3f158d	0.011662853
49	0xbd18583f	-0.037193533
50	0x3b9a7033	0.004713082
51	0xbd03f805	-0.03221895
52	0x3cb1f1e0	0.02172178
53	0xbcf9e358	-0.030503914
54	0x3c036d73	0.0080217
55	0xbbd37ca9	-0.0064540696
56	0x3c209077	0.009800068
57	0xbd4927a7	-0.04911008
58	0x3c203555	0.00977834
59	0xbd3ac47f	-0.04559755
60	0x3d2d8f29	0.042372856
61	0xbb6b2d9d	-0.0035885342
62	0x3d258939	0.04041407
63	0x3ca1c71c	0.019748263
64	0x3bb7cc39	0.005609062
65	0x3d49fe48	0.049314767
66	0x3cefbf15	0.02926592
67	0xbd10dc46	-0.03536632
68	0xbd40c0a0	-0.0470587
69	0x3c1bbbbe	0.00950521
70	0xbc7effb9	-0.015563899
71	0x3b399e23	0.0028323017
72	0x3d26da4b	0.040735524
73	0xbd0112c0	-0.031512022
74	0xbc22f327	-0.009945667
75	0xbd1c8912	-0.038216658
76	0x3bde776b	0.006789138
77	0xbca8dcba	-0.020613063
78	0x3d49d101	0.049271587
79	0x3d5e06ce	0.05420571
80	0x3d0b8512	0.034062453
81	0xbd3693ee	-0.04457467
82	0xbcbd7c79	-0.023130642
83	0x3d505b26	0.050868176
84	0x3cc3f6ba	0.02392136
85	0x3b815956	0.0039474173
86	0xbc7d3340	-0.0154541135
87	0xbc88284e	-0.016620781
88	0xbd24522a	-0.04011742
89	0x3d140970	0.036141813
90	0xbc235348	-0.009968586
91	0x39921b9a	0.00027867855
92	0xbccf1642	-0.025279168
93	0xbc112f95	-0.008861442
94	0x3bff564d	0.0077922703
95	0x3d3224ce	0.04349213
96	0x3bc493fb	0.005999086
97	0xbca921bf	-0.020645974
98	0xbd2aa6bf	-0.041662928
99	0xbd1932f0	-0.037402093
100	0xbd325c1c	-0.043544874
101	0xbd35279e	-0.044227235
102	0x3cc175cf	0.023615746
103	0x3ce4d747	0.027934683
104	0xbca8b1ef	-0.020592658
105	0x3cea6575	0.028612832
106	0x3d502115	0.0508128
107	0x3d39dc1f	0.04537594
108	0x3cbda693	0.023150718
109	0x3cfd9ce8	0.030958608
110	0x3d25b6ae	0.04045742
111	0x3c9a19ed	0.01881119
112	0x3d584631	0.052801315
113	0x3d50b9b8	0.050958365
114	0x3d5b9e21	0.0536176
115	0xbc5f0953	-0.013613063
116	0x3cf27c61	0.029600324
117	0xbbd97615	-0.006636391
118	0x3d6221fb	0.055208188
119	0xbc3efbd9	-0.011656725
120	0x3d03665d	0.032080043
121	0x3c4df6b9	0.01257103
122	0x3d0363d4	0.032077625
123	0xbc15e4ea	-0.009148816
124	0x3c2ec418	0.01066687
125	0xbd60f471	-0.054920617
126	0xbcaac193	-0.020844257
127	0x3d4d7ec4	0.05016972
128	0x3d2ae927	0.041726258
129	0x3bb68961	0.005570576
130	0xbc8d3886	-0.017238867
131	0xbd03cab4	-0.032175735
132	0x3c314dd8	0.010821782
133	0xbcb7e38e	-0.022447374
134	0x3d449d20	0.04800141
135	0x3d17d581	0.037068848
136	0x3c46e2a6	0.012138998
137	0x3d063903	0.032769214
138	0x3bdc48b0	0.006722532
139	0xbce79041	-0.028267028
140	0x3c82bd4c	0.015959404
141	0x3c0ff23a	0.008785779
142	0xbcb2703d	-0.021782035
143	0xbd41cb5f	-0.04731309
144	0x3c98c4e2	0.018648569
145	0x3d613d97	0.054990377
146	0xbd2b3a4b	-0.04180364
147	0x3d464762	0.04840792
148	0xbcb4af53	-0.022056257
149	0xbd2771c9	-0.04088
150	0xbd02b9ad	-0.031915355
151	0xbcc033b1	-0.023462148
152	0xbd119a60	-0.035547614
153	0x3d3e73ba	0.046497084
154	0x3d3741f9	0.04474065
155	0x3d39482f	0.045234855
156	0xbbdc94d5	-0.0067316093
157	0x3cb3f7f4	0.02196882
158	0xbcd06b61	-0.025441827
159	0x3cc23152	0.023705158
160	0xbcac7d2e	-0.021055784
161	0x3c30332b	0.010754387
162	0xbccbcc46	-0.024877679
163	0xbd048789	-0.03235582
164	0xbcf9c88d	-0.030491138
165	0xbd282407	-0.041049983
166	0x3d3609b6	0.044442855
167	0x3c9d4b10	0.019200832
168	0xbc96de61	-0.018416585
169	0xbb969023	-0.004594819
170	0xbc8ef18f	-0.017449168
171	0x3cb61a61	0.022229375
172	0x3d4ea644	0.050451532
173	0x3cd9da96	0.026593488
174	0xbd549d67	-0.051907923
175	0x3d184ef7	0.03718468
176	0x3d5271f7	0.051378217
177	0xbca28b95	-0.019841949
178	0x3d1912af	0.037371334
179	0x3c5d3fb2	0.013503956
180	0x3d26f61a	0.040762044
181	0x3d3dbf41	0.046324972
182	0xba03a9e9	-0.0005022572
183	0xbcebe292	-0.02879456
184	0x3d0d9662	0.034567244
185	0x3ce5fb18	0.028073832
186	0x3ccfad0a	0.025351066
187	0x3d54afdf	0.051925536
188	0xbce8ce21	-0.028418602
189	0xbc5b3df1	-0.013381467
190	0x3d3c7233	0.046007346
191	0x3d19de3d	0.03756546
192	0xbb8da07e	-0.0043221107
193	0x3caf7e9c	0.021422677
194	0x3d02941a	0.031879522
195	0x3c96ae90	0.018393785
196	0xbd4b9cfd	-0.049710263
197	0x3d37a151	0.044831578
198	0x3bc734e5	0.0060793036
199	0x3d1820b2	0.037140556
200	0x3d4a5867	0.049400713
201	0x3d3110f1	0.043229047
202	0x3ce9c74e	0.028537419
203	0xbd2a22ea	-0.041537203
204	0x3ccf2f73	0.02529118
205	0xbcb32e6a	-0.021872718
206	0xbd3891b1	-0.045060817
207	0xbb397185	-0.0028296423
208	0xbd442b58	-0.0478929
209	0xbd4a0f89	-0.04933122
210	0xbccc1855	-0.024913946
211	0x3d33c433	0.043888282
212	0x3d27b8df	0.04094779
213	0xbcb8f7ac	-0.022579037
214	0xbd615111	-0.05500895
215	0xbd0cb4a5	-0.034351964
216	0xbd3e49a2	-0.04645694
217	0xbcdafe98	-0.026732728
218	0xbc743087	-0.014904148
219	0xbb9ce381	-0.0047878628
220	0xbcf40dc9	-0.02979173
221	0x3d4bfbcc	0.04980068
222	0xbc801503	-0.01563502
223	0xbcf1eb9a	-0.029531289
224	0xbd214844	-0.03937556
225	0x3cf786d4	0.030215658
226	0x3cf4aaed	0.02986666
227	0xbcec082f	-0.028812496
228	0xbd08bd00	-0.03338337
229	0x3cfbff25	0.03076131
230	0xbd5d7ba7	-0.054073002
231	0xbd3c2264	-0.045931235
232	0x3bc3c497	0.005974363
233	0xbd4d7139	-0.050156806
234	0x3d0ff1aa	0.03514258
235	0xbbca6ec2	-0.006177754
236	0x3bb09e97	0.005389999
237	0xbc9deb90	-0.019277364
238	0xbcce086e	-0.025150504
239	0x3cab240e	0.020891216
240	0x3d5de741	0.05417562
241	0xbd11dc2e	-0.03561037
242	0x3c8f1d20	0.017469943
243	0x3c9f519c	0.019448094
244	0x3d4b3f70	0.049621046
245	0xbd55bb7b	-0.05218075
246	0x3cf41eb2	0.029799793
247	0x3afe2998	0.0019391058
248	0xbcd58805	-0.026065836
249	0x3d2bdfb1	0.041961376
250	0xbce5440d	-0.02798655
251	0x3c8cf8e3	0.017208522
252	0x3d1b45bd	0.037908304
253	0x3d4a16c5	0.04933812
254	0x3d2c0dca	0.042005338
255	0x3d006f8f	0.03135639

input_weights f4 [80, 80]
0	0xbe7ac04f	-0.24487422
1	0x3deaa777	0.11457723
2	0xbd7793cc	-0.060443684
3	0xbd9e1a1f	-0.07719826
4	0x3c97795f	0.018490491
5	0x3ca2ea4e	0.019887116
6	0xbe912b7a	-0.28353482
7	0x3e066799	0.13125457
8	0x3de07013	0.109588765
9	0x3e7a558c	0.24446696
10	0xbd436c71	-0.04771084
11	0xbc6dbd7d	-0.01451051
12	0x3dcdf920	0.100572824
13	0xbde3a8f4	-0.111162096
14	0x3db322e4	0.08746889
15	0xbded62d8	-0.115911186
16	0x3e4b1d2c	0.19835347
17	0xbdf412d2	-0.11917652
18	0xbecd48b6	-0.40094537
19	0x3dec4701	0.115369804
20	0x3c61827b	0.013764019
21	0x3e022487	0.12709247
22	0x3e979d5e	0.2961225
23	0x3e83c7ea	0.2573846
24	0x3ec05d84	0.37571347
25	0xbd8bfb75	-0.06835071
26	0xbe0d43ba	-0.13795367
27	0xbe9a3a3f	-0.30122563
28	0xbe8f7817	-0.2802131
29	0xbd1d1403	-0.038349163
30	0x3e3f7a0d	0.18698902
31	0x3e6be2d0	0.23035741
32	0xbe371ac7	-0.17881308
33	0x3d52e06a	0.05148355
34	0x3ccb4646	0.024813782
35	0x3e4cfeb8	0.20019042
36	0x3c83a502	0.016069893
37	0x3d22147d	0.03957032
38	0x3daf855a	0.08570357
39	0xbcb54ee1	-0.022132339
40	0xbd16990b	-0.036767047
41	0x3d1c8b92	0.038219042
42	0x3e8115f6	0.25212067
43	0x3dc5e736	0.096632406
44	0x3d57259f	0.052526113
45	0xbd530fff	-0.051528927
46	0xbd8f5631	-0.069988616
47	0x3dd19b86	0.10234742
48	0x3e656daf	0.22405122
49	0xbed7e9ae	-0.4217047
50	0x3e86f679	0.2635992
51	0xbe9e8ef4	-0.3096844
52	0x3e6e5463	0.23274378
53	0x3e102fc3	0.1408072
54	0xbd996218	-0.07489413
55	0xbdb44a4c	-0.088032335
56	0xbcabbe54	-0.020964779
57	0x3d6b0e57	0.057386722
58	0xbd32db4f	-0.04366618
59	0xbdf1f494	-0.11814228
60	0xbe358fc6	-0.17730626
61	0x3dfe82c0	0.12427282
62	0xbd58253f	-0.052769896
63	0x3c13954a	0.009007761
64	0x3d34a1a4	0.044099465
65	0x3e0185c8	0.1264869
66	0x3e3176a1	0.1733041
67	0xbe38fc5a	-0.18065014
68	0xbe2031a1	-0.15643932
69	0x3df30ada	0.11867304
70	0xbd2e732d	-0.04259031
71	0x3e607c41	0.21922399
72	0x3d62c312	0.055361815
73	0x3e8ad9fd	0.27119437
74	0x3dfddb61	0.12395359
75	0xbe00c982	-0.12576869
76	0x3ca13b8b	0.019681713
77	0xbe3a16a6	-0.18172702
78	0x3eaf65cb	0.3425735
79	0x3cec9a73	0.02888224
80	0xbd5da603	-0.0541134
81	0xbc9db4e5	-0.019251296
82	0x3d9ac303	0.07556727
83	0x3d35a19f	0.044343587
84	0xbe0ca257	-0.13733803
85	0x3e9645ef	0.2935023
86	0x3d9fce7a	0.07803054
87	0xbbbeca56	-0.00582246
88	0xbc2e57b8	-0.010641031
89	0x3ca10112	0.01965383
90	0xbe839b51	-0.25704435
91	0xbe4af982	-0.19821742
92	0x3e7f0db5	0.24907573
93	0x3b8101ba	0.0039369734
94	0x3d3f5cc0	0.046719313
95	0xbd841575	-0.06449405
96	0xbe5ab87e	-0.2135944
97	0xbd05d49e	-0.03267347
98	0x3da757e0	0.08171058
99	0xbb49b114	-0.0030775713
100	0xbe2a07fe	-0.16604611
101	0x3b526fc2	0.003211007
102	0xbe5b4eb7	-0.21416746
103	0x3d56cee2	0.052443393
104	0x3e593c65	0.21214445
105	0xbeb82e64	-0.35972893
106	0x3e25a026	0.16174373
107	0x3e171058	0.14752328
108	0x3e14b4d2	0.14522102
109	0x3d941c33	0.07231941
110	0x3df6900f	0.12039196
111	0x3de21cc5	0.110406436
112	0xbe2a816b	-0.16650932
113	0x3e0400d2	0.12890938
114	0xbd40fd9f	-0.047116872
115	0xbdbed0b1	-0.093171485
116	0xbe3b34d9	-0.18281879
117	0x3ce8eb18	0.028432414
118	0xbe2cf9fe	-0.1689224
119	0xbe48e559	-0.19618739
120	0xbe2d80ec	-0.16943711
121	0x3e019f57	0.1265844
122	0xbc9222b8	-0.01783882
123	0x3e028b0b	0.12748353
124	0x3e4badf6	0.1989058
125	0xbe679311	-0.22614695
126	0xbe5f4816	-0.21804842
127	0x3e655e32	0.22399214
128	0x3db81b42	0.08989574
129	0xbe1ec308	-0.15504086
130	0x3db0767b	0.08616348
131	0xbeb49ef1	-0.35277513
132	0xbe3d21fc	-0.18469995
133	0x3e8af2b3	0.2713829
134	0x3e9dfa28	0.30854917
135	0x3bb4bf64	0.0055159796
136	0xbe3bb282	-0.18329814
137	0xbe1ab7e9	-0.15109219
138	0x3e3c71c4	0.18402773
139	0xbe4aa94c	-0.19791144
140	0x3d73433f	0.059390303
141	0xbd1e4823	-0.038643014
142	0xbca7ffda	-0.020507742
143	0xbe173af3	-0.14768581
144	0x3dca12e1	0.09866882
145	0xbd844f4b	-0.064604364
146	0xbd5189d3	-0.05115683
147	0x3e5f03a8	0.21778738
148	0x3e51c0b6	0.2048367
149	0x3e13c825	0.14431818
150	0x3ce3f023	0.027824467
151	0x3ec10ce8	0.3770516
152	0xbdc3f412	-0.09568037
153	0x3e82a397	0.25515434
154	0xbe039376	-0.1284922
155	0x3d73366a	0.059378065
156	0x3c2703da	0.010193789
157	0xbe03135f	-0.12800358
158	0x3c916798	0.017749593
159	0xbe3377db	-0.1752619
160	0xbd2e1b43	-0.042506468
161	0xbecea6f8	-0.40361762
162	0xbe752dbd	-0.23943229
163	0x3e52b15e	0.20575473
164	0x3e327ede	0.17431208
165	0xbcbaa619	-0.02278428
166	0x3c14a7a0	0.009073168
167	0xbd2ab400	-0.041675568
168	0xbd9a651a	-0.07538815
169	0x3e5d8a76	0.2163485
170	0xbd1d1eaf	-0.03835934
171	0xbdde3c49	-0.10851342
172	0x3c1bdd2c	0.009513181
173	0xbeaccb45	-0.33748832
174	0x3e67fecf	0.22655796
175	0xbe50c20b	-0.20386522
176	0x3cbce2cb	0.023057362
177	0x3e89ca29	0.26912048
178	0xbecc9cff	-0.3996353
179	0x3dd8993d	0.10576103
180	0x3eb4ea59	0.35335043
181	0x3d675e95	0.056486685
182	0x3e6665e5	0.22499807
183	0xbe8e094f	-0.27741477
184	0xbde9609d	-0.11395381
185	0x3edbba64	0.42915642
186	0x3ed9e7fc	0.42559803
187	0x3c703fae	0.01466362
188	0xbe10dca0	-0.14146662
189	0x3d7a9092	0.06117303
190	0x3d562dad	0.052289654
191	0x3e5f0d31	0.21782376
192	0xbd21dd3c	-0.039517626
193	0xbc92c663	-0.017916864
194	0xbddbca72	-0.10731973
195	0x3ece93be	0.40347093
196	0xbe25becb	-0.16186063
197	0x3e83ebed	0.25765935
198	0x3dc88a7f	0.09792041
199	0x3cedcbb9	0.029027807
200	0x3e57761f	0.21041153
201	0x3de92b38	0.113851964
202	0xbdfc2f7d	-0.12313745
203	0x3ed00c0a	0.40634185
204	0x3d59ff39	0.053221915
205	0xbd4f2827	-0.0505754
206	0xbea15ad9	-0.31514624
207	0x3d997993	0.074938916
208	0x3c59be6b	0.013290028
209	0xbddafddf	-0.10692953
210	0xbc4adf76	-0.012382379
211	0x3d056666	0.032568358
212	0xbe1e61fc	-0.15467066
213	0x3d8352d5	0.06412283
214	0x3d966d26	0.07345037
215	0x3e8de5e1	0.27714446
216	0xbe827cad	-0.25485745
217	0x3ae1f0be	0.0017237884
218	0xbd4cb56e	-0.049977712
219	0x3e0002bb	0.12501042
220	0x3e563b82	0.20921138
221	0x3d28f711	0.041251246
222	0xbea3bcab	-0.3197988
223	0x3d8a7166	0.0675991
224	0x3e1e7038	0.15472496
225	0x3e8e8ca6	0.2784168
226	0xbe415353	-0.18879442
227	0xbd483985	-0.04888298
228	0x3e78e73a	0.24306956
229	0x3b12d06e	0.0022402066
230	0x3e098c50	0.13432431
231	0xbc74f5d9	-0.014951193
232	0xbe11f753	-0.14254503
233	0xbe97e642	-0.2966786
234	0x3e616a05	0.220131
235	0x3e161e6c	0.14660043
236	0x3ea955fc	0.33073413
237	0x3d64e16f	0.055879053
238	0x3a6f903d	0.00091386196
239	0x3ddddd70	0.108332515
240	0xbbb3dc71	-0.005488925
241	0xbe17bc74	-0.14817983
242	0x3dcbfb7e	0.09960078
243	0x3e8505fd	0.2598113
244	0xbcb68a1e	-0.022282656
245	0xbe574913	-0.2102397
246	0xbd158ba1	-0.036510114
247	0x3dd85b1b	0.10564252
248	0x3cf9baec	0.03048464
249	0xbc4bb5a4	-0.012433443
250	0x3ca4cf65	0.020118425
251	0xbd1c3d86	-0.03814461
252	0xbe9e7a3e	-0.30952638
253	0xbe92a421	-0.28640845
254	0xbd755e9d	-0.059904683
255	0x3e4670f9	0.19379033

recurrent_weights f4 [80, 80]
0	0x00000000	0.0
1	0x3adb9774	0.001675351
2	0xbe47666e	-0.19472668
3	0x3e08f5db	0.13375036
4	0xbeb09d6d	-0.34495106
5	0x3e8ac687	0.2710459
6	0x3d16b04f	0.036789235
7	0x3d915795	0.07096783
8	0xbd5ce656	-0.053930603
9	0xbe623341	-0.22089864
10	0x3e236e55	0.15960057
11	0xbe03925f	-0.12848805
12	0x3d967a2b	0.073475204
13	0xbd5766a5	-0.052588124
14	0xbe3d8b54	-0.1851018
15	0x3e199704	0.14999014
16	0xbc754f2f	-0.014972492
17	0xbe3016e5	-0.17196234
18	0xbb3f13b2	-0.0029156026
19	0x3d844397	0.06458204
20	0x3db7aa64	0.08968046
21	0x3e5ca833	0.21548538
22	0x3e6896a9	0.22713722
23	0xbe41535f	-0.1887946
24	0x3c96f513	0.018427407
25	0xbe18cd99	-0.1492218
26	0x3ac1dbda	0.0014790252
27	0x3d48a284	0.048983112
28	0xbe0ccb0c	-0.13749331
29	0xbbdfc564	-0.0068289507
30	0xbede306d	-0.4339632
31	0xbd69bf77	-0.05706736
32	0x3ea8184a	0.3283103
33	0x3e9ad36e	0.30239433
34	0xbcfab94d	-0.030605936
35	0xbe02ed38	-0.12785804
36	0xbe1ce9bc	-0.15323538
37	0x3d53e41f	0.051731225
38	0xbd3d648a	-0.04623846
39	0x3d97b5c0	0.07407713
40	0x3e06cef3	0.13164882
41	0xbd0577e0	-0.032585025
42	0x3ce8e047	0.028427256
43	0xbdd6c082	-0.10485937
44	0x3b7a4965	0.003819072
45	0x3c0d8e67	0.008639908
46	0x3b22e7aa	0.002485732
47	0x3df3fa7a	0.11913009
48	0xbe3cb76c	-0.18429345
49	0xbda1a940	-0.0789361
50	0x3e155845	0.14584453
51	0xbcd7dccd	-0.026350403
52	0x3e06f35d	0.13178773
53	0xbe124962	-0.14285806
54	0x3d65ffe3	0.056152236
55	0x3cfef031	0.031120392
56	0x3df6e69b	0.12055703
57	0x3e39c3e4	0.18141133
58	0xbe40602a	-0.18786684
59	0x3d359ceb	0.0443391
60	0xbeb863e7	-0.3601372
61	0x3d28eddf	0.041242477
62	0xbec7d5b8	-0.39030242
63	0xbe38d4c3	-0.18049912
64	0x3e46c250	0.19410062
65	0x3e058335	0.13038333
66	0xbdb4e03d	-0.088318326
67	0xbda0885c	-0.078385085
68	0xbe78ed75	-0.24309333
69	0xbea30c98	-0.31845546
70	0xbdc2fb47	-0.095205836
71	0xbe2bb4ac	-0.1676814
72	0xbc8fce56	-0.017554443
73	0x3dc7a316	0.09747903
74	0x3e02995c	0.12753814
75	0x3e731691	0.23739077
76	0xbc569183	-0.013096216
77	0x3de75d20	0.11297059
78	0x3cfc2f2a	0.030784208
79	0x3da8c38c	0.082404226
80	0x3d1e6c40	0.038677454
81	0x00000000	0.0
82	0xbc4c71bb	-0.012478287
83	0xbe213f0f	-0.15746711
84	0x3e3a1123	0.181706
85	0xbdab0c8d	-0.08352003
86	0xbe3aa046	-0.18225202
87	0x3dced064	0.10098341
88	0x3e344bd0	0.17607045
89	0x3dbce5f2	0.09223546
90	0x3df830a8	0.121186554
91	0xbd2588a1	-0.040413503
92	0x3cc3e6fe	0.023913857
93	0x3e10334a	0.14082065
94	0x3dec37c7	0.11534076
95	0x3e18c949	0.14920534
96	0xbe17f195	-0.1483825
97	0x3e379af4	0.17930204
98	0xbd1d2196	-0.03836211
99	0xbc3cc58d	-0.011521709
100	0xbe880a79	-0.2657049
101	0x3e3722bf	0.17884348
102	0x3d86c6fc	0.06580922
103	0x3d326a04	0.043558136
104	0x3e0e16d6	0.13875899
105	0x3dfac2eb	0.12244209
106	0x3e150180	0.14551353
107	0x3dcd71bf	0.10031461
108	0x3ea9b02f	0.3314223
109	0x3e7703bf	0.24122523
110	0x3d49ebd8	0.049297184
111	0x3e470c4e	0.19438288
112	0xbd18a258	-0.037264198
113	0x3e566d4c	0.20940131
114	0xbe35ef65	-0.17767103
115	0xbdb6f773	-0.08933916
116	0x3da2a032	0.07940711
117	0xbe266042	-0.16247657
118	0xbd9150f0	-0.07095516
119	0xbee1c295	-0.44093767
120	0xbe0205e8	-0.12697566
121	0xbbf4f556	-0.0074755354
122	0x3c813c8c	0.015775941
123	0x3e8e8170	0.27833128
124	0x3e341cf3	0.17589168
125	0xbd8a5b00	-0.06755638
126	0x3e95ac53	0.29233035
127	0xbd080c73	-0.033214998
128	0xbde0d0e8	-0.10977346
129	0x3ee3a5ee	0.44462532
130	0xbd2c7e4f	-0.042112645
131	0x3d5a722b	0.053331535
132	0xbe2067be	-0.15664575
133	0xbe6420c7	-0.22278129
134	0x3d1044ae	0.035221748
135	0xbe4d5d3e	-0.200551
136	0xbe6f8a37	-0.23392569
137	0x3e8d9b09	0.27657345
138	0xbb563d50	-0.0032690354
139	0xbe11957a	-0.14217177
140	0xbc91b3e1	-0.017785968
141	0xbe376ad5	-0.17911847
142	0xbe450a14	-0.19242126
143	0xbd4e4ab3	-0.050364207
144	0x3d356d0a	0.04429344
145	0xbca7ecb7	-0.020498617
146	0x3d6f274e	0.058387093
147	0xbd65804c	-0.056030557
148	0xbce1a500	-0.027544498
149	0xbe3fffb5	-0.18749888
150	0x3e08bc30	0.13353038
151	0xbdbb530e	-0.09146701
152	0x3da4f80f	0.08055126
153	0xbd57933d	-0.05263065
154	0xbdb12602	-0.086498275
155	0xbd536220	-0.05160725
156	0xbc85837f	-0.016298054
157	0x3d2c30df	0.042038795
158	0x3e3a8b0c	0.18217105
159	0x3c4fea48	0.012690134
160	0xbe28b9bf	-0.16477107
161	0x3dcf8602	0.10132982
162	0x00000000	0.0
163	0x3dd6f1d7	0.10495346
164	0x3d5e6924	0.05429949
165	0x3e77fe0a	0.24218002
166	0xbd633ee0	-0.055479884
167	0xbeb3b17f	-0.35096356
168	0x3e02da31	0.12778546
169	0xbd1073a3	-0.03526653
170	0xbd64f62a	-0.055898823
171	0x3e8796b5	0.26482168
172	0x3e875cdd	0.26438037
173	0x3dabb133	0.083834074
174	0x3cd47dd9	0.025938915
175	0x3e5e7215	0.21723206
176	0x3e17fb7f	0.14842032
177	0x3d12fdca	0.035886563
178	0xbd2ef2e1	-0.042712096
179	0xbe030e96	-0.12798533
180	0xbdd2809a	-0.10278435
181	0x3e6656c1	0.22494031
182	0xbee3e1da	-0.4450825
183	0x3e9bfb94	0.30465376
184	0xbe100a26	-0.14066371
185	0xbe3c1678	-0.18367946
186	0x3d285dc6	0.041105054
187	0x3d194ef1	0.0374288
188	0xbb0c11bc	-0.0021372875
189	0x3e6354da	0.22200337
190	0x3d863850	0.065537095
191	0x3dba147a	0.09085937
192	0xbd5dbfa9	-0.05413786
193	0x3df28f75	0.118437685
194	0xbd2875c2	-0.041127928
195	0x3dd3d896	0.10344045
196	0xbd7fecf6	-0.062481843
197	0xbe4c04c0	-0.19923687
198	0x3de8bf12	0.11364569
199	0x3de8b860	0.11363292
200	0x3cf89ae6	0.030347299
201	0x3e10ac9e	0.14128348
202	0xbd8fb13b	-0.07016226
203	0x3d3863b9	0.045016978
204	0xbe4cc17c	-0.19995683
205	0x3e0714b3	0.1319149
206	0xbdb79ec5	-0.0896583
207	0x3e0251cb	0.12726514
208	0xbde0998e	-0.10966788
209	0xbeadf515	-0.33976045
210	0xbeabe0e0	-0.33570004
211	0xbdd53ce6	-0.10412006
212	0xbe18e711	-0.14931895
213	0xbc367c59	-0.011138045
214	0xbc77eb80	-0.015131831
215	0x3e9c6e58	0.30552936
216	0xbeb25a67	-0.34834597
217	0x3e1f88c0	0.1557951
218	0xbd1d6036	-0.038421832
219	0x3d3b054f	0.04565936
220	0x3e147437	0.14497457
221	0xbdcd8371	-0.10034836
222	0x3ea02be0	0.31283474
223	0x3e558a5a	0.20853558
224	0x3d16c623	0.03681005
225	0x3c84319a	0.016136933
226	0x3e6d8a8e	0.23197386
227	0x3e3a608b	0.1820089
228	0xbe62a567	-0.22133408
229	0x3dae1513	0.08500113
230	0x3ed686a8	0.4189961
231	0x3e201932	0.15634611
232	0x3d5d85b9	0.054082606
233	0x3df08609	0.11744315
234	0xbe5069c6	-0.2035285
235	0xbda3dfd5	-0.08001677
236	0x3dda3fa0	0.10656667
237	0x3e5b83d0	0.21437001
238	0xbe10efe5	-0.14154013
239	0x3dc112cf	0.094274156
240	0xbd2e3457	-0.042530384
241	0x3e02011e	0.12695739
242	0xbd979fcf	-0.07403528
243	0x00000000	0.0
244	0xbc1c4d38	-0.009539895
245	0x3e594050	0.2121594
246	0xbdaf7ebe	-0.08569096
247	0x3d7d7e4e	0.06188803
248	0x3da13a1a	0.0787241
249	0x3cf4cdf8	0.02988337
250	0xbe079266	-0.1323944
251	0x3d9c0adf	0.07619261
252	0xbd97718f	-0.073947065
253	0xbd65c8d5	-0.05609973
254	0xbc79007f	-0.015197872
255	0xbd26b5cd	-0.040700722

p f4 [80]
0	0x43480000	200.0
1	0x43480000	200.0
2	0x43480000	200.0
3	0x43480000	200.0
4	0x43480000	200.0
5	0x43480000	200.0
6	0x43480000	200.0
7	0x43480000	200.0
8	0x43480000	200.0
9	0x43480000	200.0
10	0x43480000	200.0
11	0x43480000	200.0
12	0x43480000	200.0
13	0x43480000	200.0
14	0x43480000	200.0
15	0x43480000	200.0
16	0x43480000	200.0
17	0x43480000	200.0
18	0x43480000	200.0
19	0x43480000	200.0
20	0x43480000	200.0
21	0x43480000	200.0
22	0x43480000	200.0
23	0x43480000	200.0
24	0x43480000	200.0
25	0x43480000	200.0
26	0x43480000	200.0
27	0x43480000	200.0
28	0x43480000	200.0
29	0x43480000	200.0
30	0x43480000	200.0
31	0x43480000	200.0
32	0x43480000	200.0
33	0x43480000	200.0
34	0x43480000	200.0
35	0x43480000	200.0
36	0x43480000	200.0
37	0x43480000	200.0
38	0x43480000	200.0
39	0x43480000	200.0
40	0x43480000	200.0
41	0x43480000	200.0
42	0x43480000	200.0
43	0x43480000	200.0
44	0x43480000	200.0
45	0x43480000	200.0
46	0x43480000	200.0
47	0x43480000	200.0
48	0x43480000	200.0
49	0x43480000	200.0
50	0x43480000	200.0
51	0x43480000	200.0
52	0x43480000	200.0
53	0x43480000	200.0
54	0x43480000	200.0
55	0x43480000	200.0
56	0x43480000	200.0
57	0x43480000	200.0
58	0x43480000	200.0
59	0x43480000	200.0
60	0x43480000	200.0
61	0x43480000	200.0
62	0x43480000	200.0
63	0x43480000	200.0
64	0x43480000	200.0
65	0x43480000	200.0
66	0x43480000	200.0
67	0x43480000	200.0
68	0x43480000	200.0
69	0x43480000	200.0
70	0x43480000	200.0
71	0x43480000	200.0
72	0x43480000	200.0
73	0x43480000	200.0
74	0x43480000	200.0
75	0x43480000	200.0
76	0x43480000	200.0
77	0x43480000	200.0
78	0x43480000	200.0
79	0x43480000	200.0

p f4 [80]
0	0x42c80000	100.0
1	0x42c80000	100.0
2	0x42c80000	100.0
3	0x42c80000	100.0
4	0x42c80000	100.0
5	0x42c80000	100.0
6	0x42c80000	100.0
7	0x42c80000	100.0
8	0x42c80000	100.0
9	0x42c80000	100.0
10	0x42c80000	100.0
11	0x42c80000	100.0
12	0x42c80000	100.0
13	0x42c80000	100.0
14	0x42c80000	100.0
15	0x42c80000	100.0
16	0x42c80000	100.0
17	0x42c80000	100.0
18	0x42c80000	100.0
19	0x42c80000	100.0
20	0x42c80000	100.0
21	0x42c80000	100.0
22	0x42c80000	100.0
23	0x42c80000	100.0
24	0x42c80000	100.0
25	0x42c80000	100.0
26	0x42c80000	100.0
27	0x42c80000	100.0
28	0x42c80000	100.0
29	0x42c80000	100.0
30	0x42c80000	100.0
31	0x42c80000	100.0
32	0x42c80000	100.0
33	0x42c80000	100.0
34	0x42c80000	100.0
35	0x42c80000	100.0
36	0x42c80000	100.0
37	0x42c80000	100.0
38	0x42c80000	100.0
39	0x42c80000	100.0
40	0x42c80000	100.0
41	0x42c80000	100.0
42	0x42c80000	100.0
43	0x42c80000	100.0
44	0x42c80000	100.0
45	0x42c80000	100.0
46	0x42c80000	100.0
47	0x42c80000	100.0
48	0x42c80000	100.0
49	0x42c80000	100.0
50	0x42c80000	100.0
51	0x42c80000	100.0
52	0x42c80000	100.0
53	0x42c80000	100.0
54	0x42c80000	100.0
55	0x42c80000	100.0
56	0x42c80000	100.0
57	0x42c80000	100.0
58	0x42c80000	100.0
59	0x42c80000	100.0
60	0x42c80000	100.0
61	0x42c80000	100.0
62	0x42c80000	100.0
63	0x42c80000	100.0
64	0x42c80000	100.0
65	0x42c80000	100.0
66	0x42c80000	100.0
67	0x42c80000	100.0
68	0x42c80000	100.0
69	0x42c80000	100.0
70	0x42c80000	100.0
71	0x42c80000	100.0
72	0x42c80000	100.0
73	0x42c80000	100.0
74	0x42c80000	100.0
75	0x42c80000	100.0
76	0x42c80000	100.0
77	0x42c80000	100.0
78	0x42c80000	100.0
79	0x42c80000	100.0

p f4 [80]
0	0x3f800000	1.0
1	0x3f800000	1.0
2	0x3f800000	1.0
3	0x3f800000	1.0
4	0x3f800000	1.0
5	0x3f800000	1.0
6	0x3f800000	1.0
7	0x3f800000	1.0
8	0x3f800000	1.0
9	0x3f800000	1.0
10	0x3f800000	1.0
11	0x3f800000	1.0
12	0x3f800000	1.0
13	0x3f800000	1.0
14	0x3f800000	1.0
15	0x3f800000	1.0
16	0x3f800000	1.0
17	0x3f800000	1.0
18	0x3f800000	1.0
19	0x3f800000	1.0
20	0x3f800000	1.0
21	0x3f800000	1.0
22	0x3f800000	1.0
23	0x3f800000	1.0
24	0x3f800000	1.0
25	0x3f800000	1.0
26	0x3f800000	1.0
27	0x3f800000	1.0
28	0x3f800000	1.0
29	0x3f800000	1.0
30	0x3f800000	1.0
31	0x3f800000	1.0
32	0x3f800000	1.0
33	0x3f800000	1.0
34	0x3f800000	1.0
35	0x3f800000	1.0
36	0x3f800000	1.0
37	0x3f800000	1.0
38	0x3f800000	1.0
39	0x3f800000	1.0
40	0x3f800000	1.0
41	0x3f800000	1.0
42	0x3f800000	1.0
43	0x3f800000	1.0
44	0x3f800000	1.0
45	0x3f800000	1.0
46	0x3f800000	1.0
47	0x3f800000	1.0
48	0x3f800000	1.0
49	0x3f800000	1.0
50	0x3f800000	1.0
51	0x3f800000	1.0
52	0x3f800000	1.0
53	0x3f800000	1.0
54	0x3f800000	1.0
55	0x3f800000	1.0
56	0x3f800000	1.0
57	0x3f800000	1.0
58	0x3f800000	1.0
59	0x3f800000	1.0
60	0x3f800000	1.0
61	0x3f800000	1.0
62	0x3f800000	1.0
63	0x3f800000	1.0
64	0x3f800000	1.0
65	0x3f800000	1.0
66	0x3f800000	1.0
67	0x3f800000	1.0
68	0x3f800000	1.0
69	0x3f800000	1.0
70	0x3f800000	1.0
71	0x3f800000	1.0
72	0x3f800000	1.0
73	0x3f800000	1.0
74	0x3f800000	1.0
75	0x3f800000	1.0
76	0x3f800000	1.0
77	0x3f800000	1.0
78	0x3f800000	1.0
79	0x3f800000	1.0

p f4 [80]
0	0x00000000	0.0
1	0x00000000	0.0
2	0x00000000	0.0
3	0x00000000	0.0
4	0x00000000	0.0
5	0x00000000	0.0
6	0x00000000	0.0
7	0x00000000	0.0
8	0x00000000	0.0
9	0x00000000	0.0
10	0x00000000	0.0
11	0x00000000	0.0
12	0x00000000	0.0
13	0x00000000	0.0
14	0x00000000	0.0
15	0x00000000	0.0
16	0x00000000	0.0
17	0x00000000	0.0
18	0x00000000	0.0
19	0x00000000	0.0
20	0x00000000	0.0
21	0x00000000	0.0
22	0x00000000	0.0
23	0x00000000	0.0
24	0x00000000	0.0
25	0x00000000	0.0
26	0x00000000	0.0
27	0x00000000	0.0
28	0x00000000	0.0
29	0x00000000	0.0
30	0x00000000	0.0
31	0x00000000	0.0
32	0x00000000	0.0
33	0x00000000	0.0
34	0x00000000	0.0
35	0x00000000	0.0
36	0x00000000	0.0
37	0x00000000	0.0
38	0x00000000	0.0
39	0x00000000	0.0
40	0x00000000	0.0
41	0x00000000	0.0
42	0x00000000	0.0
43	0x00000000	0.0
44	0x00000000	0.0
45	0x00000000	0.0
46	0x00000000	0.0
47	0x00000000	0.0
48	0x00000000	0.0
49	0x00000000	0.0
50	0x00000000	0.0
51	0x00000000	0.0
52	0x00000000	0.0
53	0x00000000	0.0
54	0x00000000	0.0
55	0x00000000	0.0
56	0x00000000	0.0
57	0x00000000	0.0
58	0x00000000	0.0
59	0x00000000	0.0
60	0x00000000	0.0
61	0x00000000	0.0
62	0x00000000	0.0
63	0x00000000	0.0
64	0x00000000	0.0
65	0x00000000	0.0
66	0x00000000	0.0
67	0x00000000	0.0
68	0x00000000	0.0
69	0x00000000	0.0
70	0x00000000	0.0
71	0x00000000	0.0
72	0x00000000	0.0
73	0x00000000	0.0
74	0x00000000	0.0
75	0x00000000	0.0
76	0x00000000	0.0
77	0x00000000	0.0
78	0x00000000	0.0
79	0x00000000	0.0

super f4 [80]
0	0x42c80000	100.0
1	0x42c80000	100.0
2	0x42c80000	100.0
3	0x42c80000	100.0
4	0x42c80000	100.0
5	0x42c80000	100.0
6	0x42c80000	100.0
7	0x42c80000	100.0
8	0x42c80000	100.0
9	0x42c80000	100.0
10	0x42c80000	100.0
11	0x42c80000	100.0
12	0x42c80000	100.0
13	0x42c80000	100.0
14	0x42c80000	100.0
15	0x42c80000	100.0
16	0x42c80000	100.0
17	0x42c80000	100.0
18	0x42c80000	100.0
19	0x42c80000	100.0
20	0x42c80000	100.0
21	0x42c80000	100.0
22	0x42c80000	100.0
23	0x42c80000	100.0
24	0x42c80000	100.0
25	0x42c80000	100.0
26	0x42c80000	100.0
27	0x42c80000	100.0
28	0x42c80000	100.0
29	0x42c80000	100.0
30	0x42c80000	100.0
31	0x42c80000	100.0
32	0x42c80000	100.0
33	0x42c80000	100.0
34	0x42c80000	100.0
35	0x42c80000	100.0
36	0x42c80000	100.0
37	0x42c80000	100.0
38	0x42c80000	100.0
39	0x42c80000	100.0
40	0x42c80000	100.0
41	0x42c80000	100.0
42	0x42c80000	100.0
43	0x42c80000	100.0
44	0x42c80000	100.0
45	0x42c80000	100.0
46	0x42c80000	100.0
47	0x42c80000	100.0
48	0x42c80000	100.0
49	0x42c80000	100.0
50	0x42c80000	100.0
51	0x42c80000	100.0
52	0x42c80000	100.0
53	0x42c80000	100.0
54	0x42c80000	100.0
55	0x42c80000	100.0
56	0x42c80000	100.0
57	0x42c80000	100.0
58	0x42c80000	100.0
59	0x42c80000	100.0
60	0x42c80000	100.0
61	0x42c80000	100.0
62	0x42c80000	100.0
63	0x42c80000	100.0
64	0x42c80000	100.0
65	0x42c80000	100.0
66	0x42c80000	100.0
67	0x42c80000	100.0
68	0x42c80000	100.0
69	0x42c80000	100.0
70	0x42c80000	100.0
71	0x42c80000	100.0
72	0x42c80000	100.0
73	0x42c80000	100.0
74	0x42c80000	100.0
75	0x42c80000	100.0
76	0x42c80000	100.0
77	0x42c80000	100.0
78	0x42c80000	100.0
79	0x42c80000	100.0

weight f4 [4, 80]
0	0xbd9df890	-0.07713425
1	0xbdbe4fb9	-0.0929255
2	0xba1b6f47	-0.00059293624
3	0xbdb867fe	-0.0900421
4	0x3d7d1e3b	0.06179641
5	0xb9ab587f	-0.00032681596
6	0xbcc6263c	-0.024188153
7	0x3d4723e7	0.048618224
8	0x3dbe112d	0.0928062
9	0x3d9666e5	0.07343844
10	0xbd7f4e2f	-0.06233042
11	0xbd8cf128	-0.068819344
12	0xbcc33c97	-0.023832602
13	0xbd381fb3	-0.044952106
14	0x3dde80be	0.108643994
15	0xbd215796	-0.03939017
16	0x3d72a71d	0.059241403
17	0xbd9b5ee0	-0.07586455
18	0x3d3f01bc	0.046632513
19	0xbb7a5379	-0.0038196726
20	0xbd736dbf	-0.059430834
21	0x3dc20154	0.094729096
22	0xbd5a87dd	-0.053352226
23	0xbccacccd	-0.02475586
24	0x3c825f22	0.015914503
25	0xbbcc3745	-0.0062321746
26	0x3c8d1c35	0.017225364
27	0xbd791b83	-0.060817253
28	0x3d616514	0.055028036
29	0x3dc56523	0.09638431
30	0xbd31708c	-0.043320224
31	0x3db10d8d	0.08645163
32	0x3dd8dd67	0.10589104
33	0x3de12498	0.10993308
34	0x3dc27632	0.094952
35	0xbc1e6139	-0.009666734
36	0xbdc6b145	-0.0970178
37	0x3da10914	0.0786306
38	0xbcbf0def	-0.023322074
39	0xbce65ede	-0.028121408
40	0x3d9885c2	0.07447387
41	0xbdb0c860	-0.086319685
42	0xbd8199c5	-0.06328157
43	0x3da6eb4b	0.08150347
44	0x3ccdba87	0.025113357
45	0xbd0253f7	-0.031818356
46	0x3cad4bb3	0.02115426
47	0xbdc380de	-0.09546064
48	0x3d5ad930	0.053429782
49	0x3dcc0c56	0.099632904
50	0xbc483e15	-0.012221833
51	0xbdd42936	-0.10359423
52	0x3b1d185a	0.0023970813
53	0x3ddc2f2a	0.10751183
54	0x3be011f7	0.006838079
55	0x3dd36492	0.10321917
56	0xbdb245b7	-0.08704703
57	0x3d5b3e13	0.053525995
58	0x3b1ded01	0.0024097564
59	0x3c466d8a	0.012111077
60	0xbdd546d3	-0.10413899
61	0xbc9dd311	-0.019265683
62	0x3d371b96	0.044704042
63	0xbd124ce9	-0.03571788
64	0x3dab5a78	0.08366865
65	0x3dae877b	0.085219346
66	0x3cc76605	0.024340639
67	0xbce34ab5	-0.027745584
68	0xbdd45506	-0.103677794
69	0x3da9e8f2	0.08296384
70	0xbdcdaedf	-0.1004312
71	0xbc8e26f9	-0.017352568
72	0xbd8abcb6	-0.06774275
73	0x3d633c8d	0.055477668
74	0x3d89a68b	0.06721219
75	0xbd85a4f9	-0.06525607
76	0xbd31252d	-0.043248344
77	0xbda1da13	-0.079029225
78	0x3d851ad3	0.06499257
79	0xbc201000	-0.00976944
80	0x3cda0144	0.026611932
81	0xbc150179	-0.009094589
82	0xbc68ae1c	-0.014201667
83	0x3c4e0492	0.012574332
84	0x3c180a01	0.009279729
85	0x3cad253d	0.02113592
86	0xbdaae51a	-0.08344479
87	0xbca3d8aa	-0.020000774
88	0xbdd40985	-0.10353378
89	0x3da429ae	0.08015762
90	0x3ddf6c8d	0.10909376
91	0x3ddca006	0.107727095
92	0x3d7be963	0.06150187
93	0x3ced3401	0.028955461
94	0x3d5bed82	0.053693302
95	0xbdd38ba3	-0.10329368
96	0x3d42f5d5	0.047597725
97	0x3da64c24	0.081199914
98	0x3d951e8b	0.07281216
99	0x3d2b1aa8	0.04177347
100	0x3db35a4b	0.087574564
101	0x3c04b4b1	0.008099721
102	0xbd21d90a	-0.039513625
103	0xbd1e9c53	-0.0387233
104	0x3ddd1bde	0.10796331
105	0x3db3c701	0.08778191
106	0xbdc81150	-0.09768927
107	0x3b9d4e05	0.0048005604
108	0xbdde897c	-0.10866067
109	0x3ddacf39	0.10684056
110	0xbd680c1c	-0.056652173
111	0x3d8dedf9	0.06930155
112	0x3daa3c7b	0.08312317
113	0x3d8e4227	0.06946211
114	0x3d85e530	0.06537855
115	0x3da68a53	0.08131852
116	0x3dbd88df	0.09254622
117	0x3c80231e	0.015641745
118	0xbd638b14	-0.055552557
119	0xbd6f275c	-0.058387145
120	0x3dc4f425	0.096168794
121	0xbd8f7f94	-0.070067555
122	0x3d851340	0.06497812
123	0xbda4a444	-0.08039144
124	0x3d1eda8f	0.038782652
125	0x3d98a742	0.07453777
126	0x3dbb6ed3	0.091519974
127	0xbdbbd61c	-0.091716975
128	0xbddee2d2	-0.10883106
129	0x3d9338cd	0.07188568
130	0xbc3fc8e6	-0.011705613
131	0xbd8818f7	-0.06645387
132	0x3da74b70	0.081686854
133	0x3d7f2396	0.062289797
134	0x3db110c0	0.08645773
135	0x3d7eca9f	0.062204953
136	0xbda79a27	-0.08183699
137	0xbc818480	-0.015810251
138	0x3d5af55c	0.05345665
139	0x3dc85f07	0.0978375
140	0x3db935cf	0.09043466
141	0x3ca2114a	0.019783635
142	0xbd3e95b4	-0.046529487
143	0x3d5647e4	0.052314654
144	0x3d4f994c	0.050683305
145	0x3d4c9165	0.049943347
146	0xbd5389cb	-0.05164508
147	0xbd8d5d3e	-0.0690255
148	0x3d93610c	0.071962446
149	0xbd7500ec	-0.059815332
150	0x3c226854	0.009912569
151	0xbd6b349a	-0.05742321
152	0xbcd3c045	-0.025848517
153	0xbbcbc7cd	-0.0062188865
154	0x3d18349a	0.03715954
155	0x3d971110	0.07376301
156	0xbda3a295	-0.079899944
157	0x3dd9ebf6	0.10640709
158	0xbd4f2cbd	-0.050579775
159	0x3c45cacf	0.012072279
160	0xbbedd940	-0.0072585642
161	0xbd1fe739	-0.03903887
162	0x3d7328dd	0.059365142
163	0xbcd8dff9	-0.026473986
164	0x3d89bf04	0.067258865
165	0x3db2885f	0.08717417
166	0xbd78e71e	-0.060767286
167	0xbd0983ca	-0.03357295
168	0xbc8e2519	-0.017351674
169	0xbd575150	-0.05256778
170	0xbd9ca171	-0.0764798
171	0xbc2451eb	-0.010029296
172	0x3c40ffd2	0.011779742
173	0xbdde7f8e	-0.10864173
174	0x3d391f5d	0.045195926
175	0xbd26e470	-0.0407452
176	0x3dddd6ef	0.10832011
177	0xbd89a297	-0.06720465
178	0x3da70d45	0.08156828
179	0x3dae908b	0.08523663
180	0x3be1cfd6	0.006891231
181	0xbd602c07	-0.054729488
182	0xbd152173	-0.036408853
183	0x3ddcbd71	0.107783206
184	0xbc43446b	-0.011918168
185	0xbdbdff47	-0.09277206
186	0xbc7f360c	-0.015576851
187	0xbdd8b9bf	-0.10582303
188	0x3dcf4a1f	0.10121559
189	0xbd9dcd3b	-0.0770516
190	0xbd869609	-0.06571586
191	0xbdcb1895	-0.09916798
192	0x3dcb3ceb	0.099237286
193	0x3db29c0c	0.0872117
194	0xbb67fd12	-0.0035398644
195	0x3db548ad	0.088517524
196	0xbda692a0	-0.08133435
197	0xbdd964f3	-0.10614958
198	0xbb327318	-0.0027229246
199	0x3bcedecf	0.006313182
200	0xbd5a9d98	-0.05337295
201	0xbdce11bc	-0.10061976
202	0x3d7c745c	0.061634406
203	0xbd4a2698	-0.049353212
204	0x3d8c3945	0.06846861
205	0x3d87eb02	0.06636621
206	0x3db4b6e4	0.08823946
207	0xbcf1628c	-0.029465936
208	0xba915dfc	-0.0011090632
209	0xbdc7e9a8	-0.09761363
210	0x3b0c042b	0.002136479
211	0xbcad45ff	-0.02115154
212	0x3d0c9270	0.03431934
213	0x3c8d43d1	0.017244251
214	0xbd93543e	-0.07193802
215	0xbdd7080d	-0.104995824
216	0x3d2efb58	0.04272017
217	0x3d960ef5	0.073270716
218	0x3dd0e5a0	0.102000475
219	0x3d4e0d5c	0.05030571
220	0x3ddb55be	0.107097134
221	0xbdab8a30	-0.083759665
222	0xbc5e0398	-0.0135506615
223	0x3d460d06	0.048352264
224	0x3d43d9c2	0.047815092
225	0xbd7e8b70	-0.062144697
226	0xbd3df1c5	-0.046373148
227	0x3da2a05a	0.07940741
228	0xbdbfd9dd	-0.09367726
229	0x3ce271c1	0.027642133
230	0x3dd190ae	0.102326736
231	0xbde2b164	-0.11068991
232	0x3c3bb5b7	0.011456898
233	0xbdb98d07	-0.09060102
234	0xbc8947f9	-0.016757952
235	0xbc9382b0	-0.018006653
236	0xbddbf902	-0.10740854
237	0xbd4c1018	-0.049820036
238	0x3dd51b44	0.10405591
239	0xbdc1f9ab	-0.094714485
240	0xbddf9c65	-0.10918502
241	0xbd1579ea	-0.03649322
242	0xbd687028	-0.056747586
243	0xbcf06acb	-0.029347798
244	0x3c04e8f6	0.008112183
245	0x3c27f07d	0.010250208
246	0x3cd0e3b4	0.025499202
247	0x3ce6cca1	0.028173747
248	0xbdce7ad8	-0.10082024
249	0x3d2f4140	0.042786837
250	0xbd10bcdd	-0.035336364
251	0x3dad2379	0.084540315
252	0x3d988b79	0.07448477
253	0x3dbcc828	0.09217864
254	0x3dc44bc2	0.09584762
255	0xbdca84b4	-0.09888592

bias f4 [4]
0	0xbdabf43c	-0.083961934
1	0xbd4e6813	-0.05039222
2	0xbd98c276	-0.074589655
3	0xbcbce473	-0.023058152

weight f4 [256, 80]
0	0x3e8d7e57	0.27635452
1	0x3f2ce65a	0.6753899
2	0xbf775b53	-0.96623725
3	0xbfff2dcc	-1.9935851
4	0x3f93c27b	1.1543726
5	0x3dbc1d1f	0.09185242
6	0xbe2555e6	-0.16146049
7	0xbee5ea3b	-0.44905266
8	0xbf189935	-0.59608775
9	0x3ee3651f	0.44413087
10	0xbf0a12d1	-0.5393496
11	0xbfafa7f5	-1.3723131
12	0x3f85e18d	1.0459458
13	0x3f13492e	0.5753354
14	0x3f6a6c32	0.9157134
15	0x3f4d32e8	0.801558
16	0xbf8d18c7	-1.1023186
17	0x3ea72a18	0.32649302
18	0xbf66b2bd	-0.9011648
19	0x3d78a21b	0.06070147
20	0x3deb3bcb	0.11486014
21	0x3f8e2926	1.1106308
22	0xbfab6aec	-1.3392005
23	0x3f062bc6	0.5241054
24	0xbcca6195	-0.024704734
25	0xbf6e08e8	-0.9298234
26	0x402ba5d0	2.6819954
27	0xbe9b4682	-0.3032723
28	0xbf407456	-0.75177515
29	0xbecb2090	-0.3967328
30	0xbf0f1794	-0.5589535
31	0xbfd3faab	-1.6560873
32	0xbef01547	-0.46891233
33	0x3f27393e	0.6532172
34	0x3d502c54	0.050823525
35	0x3f82b153	1.0210365
36	0x3f7cb185	0.98708373
37	0xbf81b99c	-1.0134768
38	0xbe650425	-0.22364862
39	0xbf5b1079	-0.8557201
40	0x3f4bae34	0.7956269
41	0xbf87859f	-1.0587653
42	0xbf07ecf4	-0.53095937
43	0xbf0a8b92	-0.5411922
44	0xbfc6d5bd	-1.5533978
45	0x3f5962e6	0.8491653
46	0xbf3942f5	-0.72367793
47	0xbf854556	-1.0411785
48	0x3f2537f1	0.64538485
49	0xbe135f92	-0.14391926
50	0xbfadea9a	-1.358722
51	0xbff0784b	-1.878671
52	0x3e9848b9	0.29742983
53	0xbd8ad26c	-0.06778416
54	0x3e8e31eb	0.2777246
55	0x3d0b66e6	0.03403368
56	0x3ea3a80f	0.31964156
57	0x3f0d51f0	0.5520315
58	0x3f2abb29	0.66691834
59	0xbeba19f5	-0.3634793
60	0x3ea88737	0.3291566
61	0xbebf062f	-0.37309405
62	0x3f23c184	0.63967156
63	0xbf2b9ceb	-0.6703631
64	0xbee540eb	-0.4477609
65	0xbfc1d5e0	-1.5143394
66	0xbed9dc7c	-0.4255103
67	0x3eec7f76	0.46190995
68	0xbe4e6958	-0.20157373
69	0xbff64613	-1.9240135
70	0x4045f6ec	3.093196
71	0x3f2d2b92	0.6764461
72	0xbf060cf3	-0.5236351
73	0x3ffa2601	1.9542848
74	0x3f8931a5	1.0718275
75	0xbce4e397	-0.027940555
76	0xbd5f970a	-0.0545874
77	0x3dbdee3a	0.09273954
78	0xbf7e0b23	-0.99235743
79	0xbe5323e0	-0.20619154
80	0x3f3ed792	0.74547684
81	0x3f035aff	0.51310724
82	0xbf5ca6e9	-0.86192185
83	0xbfade37c	-1.3585048
84	0xbe90e385	-0.28298584
85	0xbe370b73	-0.17875461
86	0xbe07d966	-0.13266525
87	0xbf6525eb	-0.89510983
88	0x3ec56823	0.38556013
89	0xbf1aa0cf	-0.60401624
90	0x3f458477	0.7715525
91	0xbe66935c	-0.2251715
92	0xbf86de73	-1.0536636
93	0x3fa447c3	1.28344
94	0xbfd3c7fc	-1.6545405
95	0x3ea33bd3	0.3188158
96	0x3e0cfc32	0.1376808
97	0xbd4e3400	-0.05034256
98	0x3dc05597	0.09391325
99	0xbf7357e5	-0.9505599
100	0xbecff92d	-0.40619794
101	0xbf8914d4	-1.0709481
102	0x3f119b0a	0.56877196
103	0x3f9b50cd	1.2134033
104	0xbefe18aa	-0.49628192
105	0xbe492047	-0.19641219
106	0xbee2f69c	-0.44328773
107	0xbfa0a5ea	-1.2550633
108	0xbf840e87	-1.0316933
109	0x3e00aba6	0.12565479
110	0x3f5e596e	0.8685521
111	0xbfadd06e	-1.3579233
112	0x3f558b67	0.83415836
113	0xbfea7be0	-1.8319054
114	0xbf540c9d	-0.82831746
115	0xbebd775e	-0.37005132
116	0x3dcae916	0.09907739
117	0x3ddf9d3a	0.109186605
118	0xbf33b7c0	-0.70202255
119	0xbfc18957	-1.5120038
120	0x3febce6a	1.8422368
121	0xbeeecef7	-0.46642277
122	0x3dc70163	0.09717061
123	0x3f313dc8	0.69234896
124	0x3fe1dd3b	1.7645639
125	0x402eac48	2.7292652
126	0x3eccb764	0.39983666
127	0x3dc1da33	0.09465446
128	0x3e5fc055	0.21850713
129	0xbf8411c8	-1.0317926
130	0xbed0f883	-0.408146
131	0x3eb02791	0.34405187
132	0xbf4724af	-0.7779035
133	0xbf22763c	-0.6346166
134	0xbe462fb4	-0.19354135
135	0xbe6383de	-0.22218272
136	0xbf9e6995	-1.2375971
137	0xbb4793e8	-0.003045315
138	0x3f7569e7	0.9586472
139	0xbe2594d7	-0.16170059
140	0xbe5859cd	-0.21128006
141	0x3e130f7c	0.14361376
142	0x400a4bc4	2.1608744
143	0xbf2ac689	-0.6670919
144	0x3e0b52fc	0.13605875
145	0x3f2e9dc6	0.68209493
146	0xbf1ff671	-0.62485415
147	0xbf3aa3a0	-0.7290592
148	0x3f481a69	0.781653
149	0xbe84b250	-0.25917292
150	0x3f67b33d	0.9050787
151	0x3ee9cc6a	0.45663768
152	0x3f4bbfaf	0.7958936
153	0xbe920669	-0.28520516
154	0xbd9434d2	-0.07236637
155	0xbf551178	-0.8322978
156	0xbfa5524a	-1.2915738
157	0xbe531530	-0.20613551
158	0xbf035103	-0.5129549
159	0xbde77b2a	-0.113027886
160	0xbf2f7970	-0.68544674
161	0x3e7285d4	0.23683864
162	0x3e4364d4	0.19081432
163	0x3f9f6876	1.2453754
164	0x3ef940a1	0.4868212
165	0xbfa45113	-1.2837242
166	0xbf6da6c1	-0.9283257
167	0x3ea69aed	0.32540074
168	0x3ee2689d	0.4422044
169	0xbf4d54c6	-0.8020748
170	0xbd4d3671	-0.050100747
171	0xbf07ebcf	-0.5309419
172	0xbfc920ad	-1.5713097
173	0xbc4d7976	-0.012541166
174	0x3eaf0069	0.3418
175	0xbeac543f	-0.33658025
176	0x3dbbf848	0.09178215
177	0x4018e42b	2.3889263
178	0x3f076403	0.5288698
179	0x3f39e565	0.72615653
180	0xbe7762ef	-0.24158834
181	0xbfa7ed77	-1.3119344
182	0xbe9b2803	-0.30303964
183	0xbf2b644d	-0.6694992
184	0xbf06c00b	-0.52636784
185	0xc0021b98	-2.0329342
186	0xbfe13acd	-1.759607
187	0xbfb5b6c2	-1.4196398
188	0x3e5af9e0	0.21384382
189	0xbf9a3d2b	-1.2049917
190	0x3fba1aa7	1.4539384
191	0xbf096055	-0.53662616
192	0xbe8ee0a2	-0.27905756
193	0x3e4d59ac	0.20053738
194	0xbe8532bf	-0.2601528
195	0x3f1af013	0.60522574
196	0x3f842e79	1.0326682
197	0x3fa1e8bf	1.2649153
198	0xbfae91ab	-1.3638204
199	0xbde72a1c	-0.112873286
200	0x3f912e6a	1.134229
201	0xbff0cd5e	-1.8812673
202	0x3fd7741f	1.6832312
203	0x3f20d947	0.6283154
204	0xbebcdf9d	-0.36889353
205	0x3e31b8c8	0.17355645
206	0x3fce677e	1.6125333
207	0xbf45c86c	-0.77258945
208	0xbed5176c	-0.41619432
209	0x3f271192	0.65261185
210	0xbf76e507	-0.9644322
211	0xbfe3c2e1	-1.7793847
212	0x3f87f3f5	1.0621325
213	0x3f871e3d	1.0556103
214	0x3ece2d8f	0.40269133
215	0xbed2a5ff	-0.4114227
216	0xbf1be4e5	-0.6089614
217	0xbf967463	-1.1754268
218	0xbfe38560	-1.7775078
219	0x3f8536d4	1.0407357
220	0xbe3fb82b	-0.18722598
221	0xbf683f3f	-0.90721506
222	0x3f351e18	0.70749044
223	0x3ecb4f5f	0.39708993
224	0x3ef2a4b2	0.47391278
225	0xbf55e134	-0.8354676
226	0xbeb2551b	-0.34830555
227	0x3e96441c	0.29348838
228	0x3f0faa50	0.5611925
229	0x3f2c2c5c	0.6725519
230	0xc02fed0b	-2.748843
231	0x3e726be0	0.23673964
232	0xbef7e9db	-0.48420605
233	0x3daff830	0.0859226
234	0xbf29676f	-0.6617345
235	0xbf2959b1	-0.66152483
236	0xbf87999a	-1.059375
237	0xbf4db15d	-0.8034876
238	0x3f7ea51b	0.9947068
239	0x3f0c973e	0.5491828
240	0xbfa2dda2	-1.2723887
241	0x3fddb180	1.7319794
242	0xbebe9b00	-0.3722763
243	0xbfa4390a	-1.2829907
244	0x3f6a6df5	0.9157403
245	0x3f5b6df5	0.85714656
246	0xbefca7c7	-0.49346754
247	0xbed75c39	-0.42062548
248	0xbfa91322	-1.3208964
249	0xbf36d214	-0.71414304
250	0xbea51b05	-0.32247177
251	0xbfa0c2cf	-1.2559451
252	0x3fd31927	1.6492051
253	0x3f9d80f4	1.2304978
254	0x3ef886b4	0.4854027
255	0xbf353a34	-0.70791936
