Alpha_1e-2/Retraining_3/4-PAM_SNN_MMSE_Equalizer_im_dd.pt (torch, 246267 bytes, 11 tensors)

weight f4 [80, 328]
00000000: 6c61 b0bc fd23 873c dccd 1b3d aa7c 28bd
00000010: 5974 e83c 2af9 243d ece9 bdbb 6300 443c
00000020: b9da 8cbc c5b0 dabc d9ce 0dbc b183 9a3c
00000030: 99ad 213d ff37 ccbc dd97 043d 6b37 a93a
00000040: fd10 8dbc 7559 273d 6faf 493c e934 e53a
00000050: fe46 273d d29b 213c de2e d4bc 779a dc3c
00000060: 3584 343d 8421 6ebb 4381 9a3c fe97 013d
00000070: e53d 323d 1b91 8f3c e514 b0bc f918 23bc
00000080: 50de d7bc 390a 35bd ba51 433d e105 b23c
00000090: e35a 95bc 179d 493d 2c60 113d dedf 19bd
000000a0: 187f 07bc 3a86 8f3b 85ac 88bb eab1 0dbc
000000b0: b060 55bd 813d 863c ed6e 4d3d 7005 2b3d
000000c0: 9104 163d 71b8 4a3c 1fce 363c b9d0 433d
000000d0: d02c 183d 3d06 5c3c a20c 163d 1ba3 83bc
000000e0: 6191 523d dbb3 7e3c 0b3d 28bc 95e4 bfbc
000000f0: 29f4 5b3d f567 19bd 2ea8 3d3d 9356 eabc
00000100: 442b 80bc 81c0 fb3c 184d c9bc d6fe e2bb
00000110: 02a2 aabc 5358 0b3d 9404 31bd 5e87 023c
00000120: 408c 243d d6a0 2e3c de6e bebc 41f4 503d
00000130: 366d 193d 388c 51bd 0d26 5f3d 1f25 803c
00000140: f2e0 1bbd 99da 2d3d c754 b53b 7f66 433d
00000150: dc22 a5bc 006c 493d 3eac 10bd 3987 b4bc
00000160: e444 373c 0fe8 b4bc 7095 ffbc fe38 5abd
00000170: 16d8 cebc b0a8 48bc 7548 12bd b794 19ba
00000180: 9455 303d b5b6 57bd 5b19 4f3d 40a7 2fbd
00000190: b19c 77bb ea08 2b3d 70af 693c 0b33 d33c
000001a0: 927b a4bc a2c2 b4bc 8ab9 1f3d 841c b03c
000001b0: cc3b c03c c1fd be3c 6f2e b43c 7d02 023c
000001c0: b834 1abd e3b5 36bd 43d0 4c3d 3aef f23b
000001d0: 049e f73b c3ae 803c 2e77 4d3d 124d 00bd
000001e0: b741 22bc 18f5 553d 9f6a 9abb ae13 5abd
000001f0: 6427 fd3c 7448 39bd 3f56 a83b 7b71 65bc
00000200: 0016 4ebd 9887 5b3d 529b bb3c 0586 54bd
00000210: 46c8 6b3c 6e0c c3bc cd70 44bd b3ef 133d
00000220: 0d5c 50bd fe8a 03ba 1663 cbbb d050 5dbc
00000230: 36f8 0e3b 82bc 44bc e6b9 343d 2325 803c
00000240: 3320 bebb 6124 9ebc e352 453c 041f 03bd
00000250: 99fc c23b e8f6 ef3b b3bd 103d 844d caba
00000260: ee14 25bd 6c9e 993c 5ecc 123d 0150 61bd
00000270: e9ef 5bbd 4563 cabb b431 b03b 70e2 163d
00000280: 4392 d13c c5a0 2a3d 786c 6aba 802f 14bd
00000290: 9473 49bd b059 e93c 412b 58bc f8b5 483d
000002a0: 2d51 b03c 684f 043d dd31 a3bc 9e85 d3bc
000002b0: 8327 92bc b0f0 c43b 905d 603c 1afc c9bc
000002c0: 7163 eabc 51ca 3a3d 0ad5 30bd ebdf fe3b
000002d0: c7a9 2f3d 24b0 a33c 8be7 86bc 5184 393d
000002e0: d3eb 233d be32 13bd 8eec 963c 3f2e 30bd
000002f0: 0f14 23bc 08d7 0bbb 8200 2dbd 8d08 3c3b
00000300: 4506 e7ba 5a16 4cbd 304c 0f3d a365 51bd
00000310: ed9e aabc b774 a3b9 490a 5f3d dcbf ea3c
00000320: ec53 92bb ad72 3c3c 220e fa3c 9139 e43c
00000330: 2e7b 05bd 7ff6 183d 81f8 243d 7270 24bd
00000340: 08af ff3c 34cd aebc bfa0 03bd e788 7b3c
00000350: b434 443d ed4d 5bbd 17de 49bc 32d0 3f3d
00000360: e029 86bc 4a6e 71bc b911 ff39 d496 03bd
00000370: 68b9 183d c83a 5cbd 922c 5e3d bb68 573c
00000380: 1d70 96bc 8d46 1e3d f587 cbbc aa2b 54bc
00000390: 2496 683b 325b 25bd a7b7 0abd 0de1 3b3d
000003a0: b9ce 153d 0615 57bc c07e 2fbc b869 4bbd
000003b0: 730c 5bbd ad5c dcbb bc7d b73c c6de 1dbd
000003c0: 569a 763c 9ae2 ffbc a2b7 a63c a662 cf3c
000003d0: 10ee 5e3d ea53 58bd 5a9c 29ba b3b4 10bc
000003e0: 06af aabc cb50 2b3d 74f8 0fbd cea3 37bd
000003f0: 9d9c a0bc 66ba 70bc b652 e33b d845 0dbd
-0.02153083 0.016496653 0.03803812 -0.041134514 0.028375791 0.040276684 -0.005795708 0.011962983
-0.017194139 -0.026695618 -0.008655273 0.018861623 0.039472196 -0.024929045 0.03237139 0.0012910193
-0.017220015 0.040856797 0.012309893 0.0017487082 0.040839188 0.009863811 -0.025901254 0.026929123
0.044071395 -0.0036335895 0.018860465 0.03163909 0.04351606 0.017525246 -0.021494338 -0.009954684
-0.026351124 -0.044199202 0.047685362 0.021731319 -0.018231815 0.04922208 0.035492107 -0.037567012
-0.008270048 0.0043800147 -0.0041709566 -0.008648375 -0.05209416 0.01638675 0.050154615 0.041753232
0.03662545 0.012373076 0.011157542 0.047806475 0.03715211 0.013429222 0.03663314 -0.016068986
0.051408175 0.015545811 -0.01026846 -0.023424426 0.053699646 -0.037452657 0.046302967 -0.028605735
-0.01564563 0.030731441 -0.024572894 -0.0069273515 -0.020829204 0.03401978 -0.043217257 0.007966844
0.040172815 0.010658463 -0.023246225 0.05101419 0.037457667 -0.051159114 0.054479647 0.0156427
-0.03805632 0.0424448 0.005533788 0.04770517 -0.020158224 0.049175262 -0.035320513 -0.022037135
0.011185858 -0.02208331 -0.031199187 -0.05327701 -0.025249522 -0.0122472495 -0.03571363 -0.0005858647
0.043050364 -0.052664477 0.05056129 -0.04288411 -0.0037782604 0.041756548 0.014263019 0.025781175
-0.020078454 -0.022065464 0.038995303 0.021497972 0.023466013 0.023314359 0.021994798 0.007935164
-0.037647933 -0.044607054 0.0500033 0.007413772 0.0075566787 0.015708333 0.050162487 -0.0313235
-0.009903363 0.052235693 -0.0047124173 -0.053241424 0.030902572 -0.045235112 0.0051372345 -0.014004107
-0.05031395 0.05359611 0.022901211 -0.051885623 0.014391011 -0.023809638 -0.047959138 0.036117267
-0.050869036 -0.0005017965 -0.0062068803 -0.013508037 0.0021815426 -0.012007834 0.0441226 0.015642708
-0.0058021783 -0.019304456 0.0120436875 -0.032012 0.005950522 0.0073231347 0.03533716 -0.0015434478
-0.040303163 0.0187523 0.03583943 -0.05500794 -0.053695593 -0.0061763846 0.005377019 0.03683704
0.025582438 0.041657228 -0.00089425547 -0.036178112 -0.04918249 0.02848515 -0.013193906 0.049001664
0.021523083 0.03230229 -0.019921238 -0.02582055 -0.017841106 0.0060101375 0.013694182 -0.024656344
-0.02861187 0.0456031 -0.04317192 0.007778158 0.04288652 0.019981451 -0.01646783 0.045292202
0.04001982 -0.035937063 0.018423345 -0.043012854 -0.009953513 -0.0021337885 -0.042236812 0.002869162
-0.001762577 -0.049826004 0.034984767 -0.05112232 -0.020827735 -0.00031176742 0.054453168 0.028655939
-0.0044655707 0.01150195 0.030524317 0.027859481 -0.032588176 0.037344452 0.040276054 -0.0401463
0.031211391 -0.021338083 -0.03213572 0.015352464 0.047901824 -0.053541113 -0.012321017 0.04682941
-0.01637739 -0.014735768 0.00048650595 -0.032126263 0.037286192 -0.053766996 0.054241724 0.013147528
-0.018364007 0.0386415 -0.024845103 -0.012949863 0.0035489881 -0.040370174 -0.03386655 0.045868922
0.0365741 -0.013127571 -0.010711372 -0.049661368 -0.05347867 -0.006724915 0.022398822 -0.03854253
0.015051445 -0.031235982 0.020351235 0.025315594 0.054426253 -0.0528144 -0.00064701366 -0.008832145
-0.02083541 0.041825097 -0.035149053 -0.04483395 -0.019605929 -0.014692878 0.00693735 -0.034490436

input_weights f4 [80, 80]
00000000: dbb4 6c3e e8c2 1bbc c632 943a beee 4fbe
00000010: a88a 64bd 6ef7 393e 7eaf f8bd a4a0 f23e
00000020: 819f 11be bd0c 24be a53f 023e 44b6 7abc
00000030: f407 bfbd 91c7 67be 3237 333e d80f d83d
00000040: cb72 60ba c875 c7bd 7724 5fbe c269 00be
00000050: 8efc 4f3e 496b bf3c 86c8 e0bd 26af 9a3d
00000060: 72c5 1dbe ca0d ebbd e099 573e cb80 aabd
00000070: a479 813e d9a7 963c f2eb 52bd e323 dcbc
00000080: d45f af3d 85bf 053e 1f8f 043c b1a9 673c
00000090: 9ee5 8bbe 88f1 34be 66c5 c13b 3771 2f3e
000000a0: c523 29be 4a2f a33d be92 dabc 5228 a3bd
000000b0: 66e0 96be 4951 3bbe 4bbf 093e 1bf3 abbd
000000c0: 41bc 4abd b0b6 fd3a 6b55 1d3e 3351 343d
000000d0: 4c24 e83e 671c e83d 17c0 99bb 93f8 c83d
000000e0: dbb3 84be 351d 81bd 6723 6bbe 5035 ff3d
000000f0: e2ea 973d cb9b e8bb c56b 823e d786 f1bd
00000100: 8392 5d3e 4484 4a3e 98a5 d93c 68ec 4abd
00000110: 26d6 f73c 2a84 7f3e f559 81be f49a 903e
00000120: 7b54 8cbd fac3 933d 90e4 273e d8cb 853d
00000130: 349c 2bbe a7be 823c e9e3 61bd fb4d 673c
00000140: 96e3 ebbb c38a 3c3d 0e94 ce3c 0ca6 3b3e
00000150: b2a6 54be 04c4 ccbd f345 03be 115a ec3c
00000160: 326a 74bd 21e9 84be 4666 f9bd bc07 db3d
00000170: 859a 68be 09a9 b4be deb4 8e3e 5ec4 9dbd
00000180: 22b2 41be 4b97 f53d 4443 59bd 94d7 bf3c
00000190: 05df 83bd d2bf 10be 8dab d3bd 7ab3 033d
000001a0: 11b5 073e 10c1 453c 231d 59be ad96 cc3e
000001b0: bbc0 9b3d 5201 26bd 3e9e 1bbe b678 693d
000001c0: 5421 4b3e 8928 c1bd 484c 213e ae7c b7be
000001d0: 9d63 23bc 2244 4bbe 25e3 42bc cc6f 063e
000001e0: 16fe 0a3b cb6d 963d c076 18be b8f7 d6bd
000001f0: fafc a43d 0afe efbd 4c97 403e 862f 853e
00000200: 5a73 f6bc 0665 073e e293 183e 674d 253e
00000210: 10a5 80be 1afc 803d 2db8 dc3d b878 a8bd
00000220: 6422 73bd 10c3 083e c1ee 9bbd 54ea 8ebd
00000230: 5c5c 9dbd 7b4e 963e 9fbe 9cbd 647b 0bbd
00000240: 7273 e1bd 9213 3d3d 16d8 40bd e808 71be
00000250: cb14 01be 1e37 8b3e 5e5b 64bc dc4a 7c3e
00000260: b3ac 553e fede 4c3e 3d43 87bd b3c8 7f3e
00000270: dd89 07bd 07f9 333d 8851 d0bc 7a56 553e
00000280: 3600 04be 7bb2 47be 3a0c 583d 280a 40be
00000290: 5b73 21be ed03 68bd 3d75 6c3c a279 adbe
000002a0: 1378 883b beed c1bd 59c9 6a3d 78d2 023e
000002b0: 33bc 1b3e 1e44 303d a99d 0d3e 30af 2fbe
000002c0: 06b0 27be c84c ddbd 5250 8dbe a6a3 dabd
000002d0: 4b65 40be b8c1 5b3e 3e33 44be fcfb 56be
000002e0: b2d4 ee3d c740 56bd 3d3b 5bbd d4bd 95bd
000002f0: 3d6f 5bbb 25f9 433e cb5b 91bd 71ea f1bd
00000300: 6106 093d eb35 71bd 20e2 83be 1254 453e
00000310: 72e6 9fbe a2d0 183e e29d d4bc 3864 c43d
00000320: 26cc 583e 0b35 643b 821b e3ba 1bf6 e43c
00000330: 85e1 8f3d 216e 173d 896a 1f3e 11e9 9a3e
00000340: a913 4f3d ccd2 023d bb28 5dbe e9da d33c
00000350: 33fa b6bd bbbe 43be 5311 8d3d 05f5 cc3e
00000360: 98c5 ebbd a3c9 303d d905 f43d 2c7e 1f3e
00000370: 2dad 8d3d 8527 0b3d c525 dc3b a197 52be
00000380: 3d9e 58ba b04d 4fbe 2f00 00be d404 d6bd
00000390: f9f7 e73e 84b5 b9bc 7b42 9cbd e941 19bd
000003a0: ada9 b13d efa8 a4bd 1392 cbbd f541 d43d
000003b0: b505 8bbd 16f5 08be 9b79 b63c 6d9c a33d
000003c0: 7120 9c3c c835 40be 969e 8dbc fdf2 553e
000003d0: 7db7 b33d 6c86 e4be bcaa 643d 754c 803d
000003e0: bb83 343e 113c cc3b 137e a7be 8664 243e
000003f0: 5f05 98bd 66a9 27be c0c0 ecbd 25e8 92be
0.23115866 -0.0095069185 0.0011306636 -0.20305917 -0.055796295 0.18160793 -0.121428475 0.47388184
-0.14221002 -0.16020484 0.12719591 -0.015302245 -0.09327689 -0.22634722 0.17501524 0.10549897
-0.00085620274 -0.09739262 -0.21791254 -0.12540343 0.20311186 0.023366587 -0.10975747 0.07552938
-0.1540735 -0.114772394 0.21054792 -0.083253466 0.25288117 0.018390583 -0.051494546 -0.02687258
0.085632 0.1306134 0.008090763 0.014139579 -0.27323622 -0.17670262 0.0059134243 0.17133032
-0.16517551 0.07968004 -0.0266813 -0.07966675 -0.29468077 -0.18292727 0.13451879 -0.08395978
-0.04949594 0.0019356813 0.15364616 0.04402275 0.45340192 0.11333542 -0.0046920883 0.09813037
-0.2591847 -0.06304399 -0.22962724 0.124613404 0.07417847 -0.00709865 0.25472847 -0.11793297
0.21637921 0.19777018 0.026568219 -0.04954186 0.030253481 0.2495276 -0.25263944 0.2824322
-0.06852051 0.07215114 0.16395783 0.06533021 -0.16758806 0.01596005 -0.055148993 0.014117713
-0.007198761 0.04603077 0.025217082 0.1832506 -0.20766714 -0.099983245 -0.12819652 0.02885154
-0.05967159 -0.25959113 -0.1217771 0.106948346 -0.22715195 -0.35285214 0.27872366 -0.0770347
-0.18915609 0.119917475 -0.053042665 0.023418225 -0.06439022 -0.14135674 -0.10335455 0.032153584
0.13252665 0.0120699555 -0.21202521 0.39958706 0.0760512 -0.040528603 -0.15197083 0.056999885
0.19836932 -0.094315596 0.15751755 -0.3583731 -0.00997248 -0.1985021 -0.011894976 0.13128585
0.0021208576 0.0734516 -0.1488905 -0.10496467 0.08056064 -0.11718376 0.18807715 0.2601282
-0.0300843 0.13222131 0.14900163 0.16142808 -0.25125933 0.062980846 0.10777316 -0.0822615
-0.05935897 0.1335566 -0.07613898 -0.06978288 -0.07683632 0.2935675 -0.076535456 -0.03405322
-0.110083476 0.04616124 -0.047081076 -0.23538554 -0.12605588 0.2719049 -0.013937799 0.24637932
0.20866661 0.2000694 -0.066046216 0.24978904 -0.03309046 0.043938663 -0.025429502 0.2083377
-0.12890705 -0.19501679 0.052746035 -0.18753874 -0.15766661 -0.05664437 0.014432249 -0.3388186
0.0041647046 -0.09469174 0.057320926 0.127756 0.15208511 0.04303371 0.13829674 -0.17156672
-0.16375741 -0.108056605 -0.27600342 -0.10675745 -0.1878864 0.21460617 -0.19160172 -0.20994562
0.11661662 -0.05230787 -0.05352329 -0.073115975 -0.0033483051 0.1913801 -0.07097586 -0.11812294
0.03345335 -0.05888931 -0.25758457 0.19270352 -0.31230503 0.14923337 -0.02595419 0.09589428
0.21171626 0.0034821655 -0.0017326924 0.027949383 0.07025436 0.03697026 0.15567984 0.3025594
0.05055586 0.031939313 -0.21597569 0.02586122 -0.089344405 -0.19115727 0.0688807 0.40030685
-0.115122974 0.043161046 0.11915178 0.15575475 0.06917796 0.033973236 0.0067183697 -0.20565654
-0.00082633254 -0.20244479 -0.1250007 -0.1045014 0.45306376 -0.022669561 -0.07629868 -0.037416372
0.08674941 -0.08040034 -0.09939971 0.10364143 -0.06788198 -0.13374743 0.022274783 0.0798882
0.019058438 -0.18770516 -0.017287534 0.20893474 0.08775232 -0.44633806 0.055826887 0.06264583
0.17628376 0.0062327464 -0.32713374 0.16053972 -0.074228995 -0.16373214 -0.11560202 -0.28692737

recurrent_weights f4 [80, 80]
00000000: 0000 0000 a6b9 cebe 1119 4d3e 5520 16be
00000010: 8511 c4bd 439c c63c 2ede 563e f861 7cbe
00000020: 7cdc dd3b 9ba6 e83c e868 11bd c217 dd3e
00000030: 01dc 0b3e 8a85 8abc a832 323e 013e 77be
00000040: 779a db3d c0d8 a23d 3958 f8bd e33d 4b3e
00000050: b07e cdbd 1d69 7abe d26c 65be c2e8 073e
00000060: 1a2d 9a3b 4aa5 543d 7d59 4fbd c98e f63c
00000070: a8cb ef3d 2006 2cbb 1b4a b5be 8959 ebbd
00000080: 77bc a13e d8f2 4a3c 74af 14be ed7b 303e
00000090: 2df2 24be 1ed2 593e fd89 44be edca 523e
000000a0: 4575 91bd 2acb 9e3d 3545 563e 718d 1d3e
000000b0: 6840 a63d 27a6 873c 621a 453e fe17 23bd
000000c0: 7606 c0be 3b14 fd3d 78ae 5fbd b739 1e3e
000000d0: 5300 a23e 3ed9 663e 64d1 c43c 6445 91be
000000e0: 3f73 21bd 4288 303e b883 1cbd 0d29 c2bb
000000f0: 873f a5bd 98bc 91bd 959e cebc e396 613e
00000100: 6e16 28bd b92e 92be 6879 0fbe bc79 babe
00000110: 97f4 c53d 6bd2 09be 96c3 ba3c c94b 6c3e
00000120: 928c 8bbd 0ffd b03c c4fc 56be 6617 e23d
00000130: 53d2 b33e 0c4d 1ebd 1800 823c 4c23 35be
00000140: 90c4 283e 0000 0000 1e0f a0bd 5602 8c3d
00000150: ef79 a83c 66de 883e 3baf 563e d0bb 65bc
00000160: 3175 283e 410e 503e b727 163e 444f d0bc
00000170: b307 b9be 81cf b43c 0ba6 9abe 5317 073e
00000180: 17a5 2b3e d248 8a3e e2ee 283d 282a 883d
00000190: 9652 4abd 50d0 f0bd c95d f4bd b55b cfbd
000001a0: c0fa 98bd 1235 14bd 4969 433d 5505 9bbc
000001b0: e63e a8bd f7ec 803e 4b6f 39be 708d 763d
000001c0: f4f7 ba3d d20b 5dbe f411 72bd ada3 21bd
000001d0: fd24 e13d 8d50 ad3d ef47 06be 778f 9f3d
000001e0: a720 a23d bd2b 20be 36a1 50be c843 2d3d
000001f0: 06f7 96bc c5c2 92bd 617b c43d 3a0f 153e
00000200: 07da 793d 8a22 aabd d0ff 84be 2db9 46ba
00000210: 6b4f 8f3c 89aa a4bd c299 08be 9b19 b6be
00000220: 1c8e 51bd d622 53bd 290b 63be b661 26bd
00000230: b94d b13d edd5 39bb 15f6 433d ab79 24bd
00000240: 8d62 573e 69c5 1b3d 8c99 5c3d d27f c1bd
00000250: 75cf 7d3d ace2 3a3d f1b4 46be 2e5b 6c3e
00000260: bacf 493e daaf 343e 0370 8fbe fe5a 81be
00000270: 72f9 e9bc 7662 06be 4897 8a3e fb53 5e3d
00000280: 94b7 55bc 11c9 73be 0000 0000 0fce a7bb
00000290: 5f06 b43b c54b 423e 9ea8 ab3d c4ba d0bc
000002a0: bac1 e4bd 82a5 37be c4b8 a03e 821d 8a3d
000002b0: caae db3d 8d87 fdbd 2735 42be e4bc adbd
000002c0: 7528 01be 353a 3bbe 07f2 1ebe 0bac 833e
000002d0: 814d d83d da61 db3c b973 ac3b e472 813e
000002e0: 2bcd 023e aeee 1fbe 63fc 873c de42 7b3e
000002f0: a625 bbbd 043d dd3d 02d3 e73d 8a17 f6bd
00000300: c66f ccbb c8dd 80bd 27be 353d d951 0e3d
00000310: 736f b5bd c00d 53be 9620 a5bc bae5 25be
00000320: 4966 fb3d 7f7c 10be 5653 343e cb26 4bbe
00000330: c24a e63d 3ab4 f1bd c31b 013e 9897 bfbc
00000340: a3d3 b4bb d23b 7ebe cf25 9f3e 5ef6 90be
00000350: 5f29 013e fabb 17be f2c4 a5be a8d2 ca3c
00000360: 825e 5b3e ed4d 15bd 4504 e03c fbe2 a83c
00000370: 9d6e a63e cf12 fb3d c92d 8cbe 8fff f8bd
00000380: 4d74 fb3d 4807 6d3e 57c3 88be 0745 afbd
00000390: 03ae 083d de37 2b3d b19b 0cbe 74d6 b13c
000003a0: a8a3 02bd 1123 9b3c 86e4 45bd 454b 8fbe
000003b0: 3dbf 7a3d e517 b43d a19c 993d b951 2e3d
000003c0: ebd6 26be 54bd 113d 22c7 acbe 0000 0000
000003d0: e160 093d 0e00 8abc 2cd0 22bd 0276 91bd
000003e0: 3782 21be e74d d9bd d3c5 0e3d c2e9 253e
000003f0: 0cc9 1e3d 4553 8c3d a7df ff3d 3502 c9be
0.0 -0.40376014 0.20029093 -0.14660771 -0.09573654 0.024244433 0.20983192 -0.24646747
0.0067706686 0.028399756 -0.035500437 0.43182188 0.13658144 -0.01690938 0.17402136 -0.24144746
0.10722821 0.07951498 -0.12126202 0.19847827 -0.10033929 -0.2445416 -0.22404793 0.13272384
0.0047050836 0.051915444 -0.050622452 0.030097382 0.11708766 -0.0026248768 -0.354081 -0.11491687
0.315891 0.012387 -0.14520055 0.17234774 -0.16108008 0.2127156 -0.19193263 0.20585223
-0.071024455 0.07753594 0.20924838 0.15385987 0.08117753 0.01655872 0.19248345 -0.039817803
-0.3750493 0.12357374 -0.054609746 0.15451704 0.31640872 0.22543809 0.024025626 -0.28373253
-0.039416548 0.17239478 -0.038211554 -0.005925304 -0.080687575 -0.071160495 -0.025222102 0.22030215
-0.041037016 -0.28551272 -0.14011157 -0.36421 0.096657924 -0.13459174 0.02279834 0.23075785
-0.06813921 0.021605043 -0.2099486 0.11039619 0.35121402 -0.038647696 0.015869185 -0.17689246
0.16481233 0.0 -0.078153834 0.06836383 0.020565955 0.26732177 0.20965283 -0.014021829
0.16450955 0.20317937 0.14663588 -0.025428422 -0.36138687 0.022071602 -0.30204806 0.13192491
0.16762196 0.27008682 0.04124344 0.06648666 -0.049395166 -0.117584825 -0.119319506 -0.101249136
-0.07469702 -0.036183424 0.04770783 -0.018923441 -0.08215122 0.2518079 -0.18108861 0.06019348
0.091293246 -0.2158654 -0.059099153 -0.039462734 0.10993383 0.084626295 -0.13113378 0.077910356
0.07916384 -0.15641685 -0.20373997 0.04230097 -0.018428337 -0.071660556 0.09593845 0.1455659
0.060998943 -0.08307369 -0.2597642 -0.0007580694 0.017493924 -0.080403395 -0.13339904 -0.3556641
-0.051160917 -0.051546894 -0.22172226 -0.04062053 0.086574025 -0.002835627 0.047842104 -0.040155094
0.21033688 0.038030062 0.05385737 -0.09448208 0.061965425 0.045626327 -0.19404961 0.23081657
0.19708148 0.17645207 -0.28015146 -0.25264734 -0.028561328 -0.13123497 0.27068543 0.05427931
-0.013044257 -0.2380717 0.0 -0.0051209996 0.0054939236 0.18974216 0.083817706 -0.025479682
-0.11169763 -0.1793423 0.31390965 0.067439094 0.10726698 -0.1237937 -0.18965589 -0.08483294
-0.1261309 -0.18283923 -0.15522014 0.25717196 0.10561658 0.026780058 0.0052628187 0.25282967
0.12773578 -0.15618393 0.01659984 0.24537227 -0.0913804 0.108026534 0.113195434 -0.120162085
-0.0062389104 -0.062923014 0.044370797 0.034746025 -0.08859148 -0.20610714 -0.02015714 -0.16200915
0.12275369 -0.14109991 0.17609915 -0.19839017 0.11244728 -0.118019536 0.12608247 -0.023387715
-0.005518393 -0.24827507 0.31083533 -0.28312963 0.12613438 -0.14817801 -0.3237682 0.024758652
0.2142277 -0.03645127 0.027345786 0.020616045 0.32506266 0.12259447 -0.2737868 -0.12158119
0.12278042 0.23147309 -0.26711532 -0.08558088 0.033369076 0.041801326 -0.13731267 0.021708705
-0.031894356 0.01893762 -0.04831364 -0.27987114 0.061217535 0.0879362 0.07500578 0.042558406
-0.16292922 0.035580948 -0.33745676 0.0 0.033539657 -0.01684573 -0.03974931 -0.07102586
-0.1577233 -0.10610562 0.03485663 0.16202453 0.038765952 0.0685182 0.1249383 -0.39259496

p f4 [80]
00000000: 0000 4843 0000 4843 0000 4843 0000 4843
00000010: 0000 4843 0000 4843 0000 4843 0000 4843
00000020: 0000 4843 0000 4843 0000 4843 0000 4843
00000030: 0000 4843 0000 4843 0000 4843 0000 4843
00000040: 0000 4843 0000 4843 0000 4843 0000 4843
00000050: 0000 4843 0000 4843 0000 4843 0000 4843
00000060: 0000 4843 0000 4843 0000 4843 0000 4843
00000070: 0000 4843 0000 4843 0000 4843 0000 4843
00000080: 0000 4843 0000 4843 0000 4843 0000 4843
00000090: 0000 4843 0000 4843 0000 4843 0000 4843
000000a0: 0000 4843 0000 4843 0000 4843 0000 4843
000000b0: 0000 4843 0000 4843 0000 4843 0000 4843
000000c0: 0000 4843 0000 4843 0000 4843 0000 4843
000000d0: 0000 4843 0000 4843 0000 4843 0000 4843
000000e0: 0000 4843 0000 4843 0000 4843 0000 4843
000000f0: 0000 4843 0000 4843 0000 4843 0000 4843
00000100: 0000 4843 0000 4843 0000 4843 0000 4843
00000110: 0000 4843 0000 4843 0000 4843 0000 4843
00000120: 0000 4843 0000 4843 0000 4843 0000 4843
00000130: 0000 4843 0000 4843 0000 4843 0000 4843
200.0 200.0 200.0 200.0 200.0 200.0 200.0 200.0
200.0 200.0 200.0 200.0 200.0 200.0 200.0 200.0
200.0 200.0 200.0 200.0 200.0 200.0 200.0 200.0
200.0 200.0 200.0 200.0 200.0 200.0 200.0 200.0
200.0 200.0 200.0 200.0 200.0 200.0 200.0 200.0
200.0 200.0 200.0 200.0 200.0 200.0 200.0 200.0
200.0 200.0 200.0 200.0 200.0 200.0 200.0 200.0
200.0 200.0 200.0 200.0 200.0 200.0 200.0 200.0
200.0 200.0 200.0 200.0 200.0 200.0 200.0 200.0
200.0 200.0 200.0 200.0 200.0 200.0 200.0 200.0

p f4 [80]
00000000: 0000 c842 0000 c842 0000 c842 0000 c842
00000010: 0000 c842 0000 c842 0000 c842 0000 c842
00000020: 0000 c842 0000 c842 0000 c842 0000 c842
00000030: 0000 c842 0000 c842 0000 c842 0000 c842
00000040: 0000 c842 0000 c842 0000 c842 0000 c842
00000050: 0000 c842 0000 c842 0000 c842 0000 c842
00000060: 0000 c842 0000 c842 0000 c842 0000 c842
00000070: 0000 c842 0000 c842 0000 c842 0000 c842
00000080: 0000 c842 0000 c842 0000 c842 0000 c842
00000090: 0000 c842 0000 c842 0000 c842 0000 c842
000000a0: 0000 c842 0000 c842 0000 c842 0000 c842
000000b0: 0000 c842 0000 c842 0000 c842 0000 c842
000000c0: 0000 c842 0000 c842 0000 c842 0000 c842
000000d0: 0000 c842 0000 c842 0000 c842 0000 c842
000000e0: 0000 c842 0000 c842 0000 c842 0000 c842
000000f0: 0000 c842 0000 c842 0000 c842 0000 c842
00000100: 0000 c842 0000 c842 0000 c842 0000 c842
00000110: 0000 c842 0000 c842 0000 c842 0000 c842
00000120: 0000 c842 0000 c842 0000 c842 0000 c842
00000130: 0000 c842 0000 c842 0000 c842 0000 c842
100.0 100.0 100.0 100.0 100.0 100.0 100.0 100.0
100.0 100.0 100.0 100.0 100.0 100.0 100.0 100.0
100.0 100.0 100.0 100.0 100.0 100.0 100.0 100.0
100.0 100.0 100.0 100.0 100.0 100.0 100.0 100.0
100.0 100.0 100.0 100.0 100.0 100.0 100.0 100.0
100.0 100.0 100.0 100.0 100.0 100.0 100.0 100.0
100.0 100.0 100.0 100.0 100.0 100.0 100.0 100.0
100.0 100.0 100.0 100.0 100.0 100.0 100.0 100.0
100.0 100.0 100.0 100.0 100.0 100.0 100.0 100.0
100.0 100.0 100.0 100.0 100.0 100.0 100.0 100.0

p f4 [80]
00000000: 0000 803f 0000 803f 0000 803f 0000 803f
00000010: 0000 803f 0000 803f 0000 803f 0000 803f
00000020: 0000 803f 0000 803f 0000 803f 0000 803f
00000030: 0000 803f 0000 803f 0000 803f 0000 803f
00000040: 0000 803f 0000 803f 0000 803f 0000 803f
00000050: 0000 803f 0000 803f 0000 803f 0000 803f
00000060: 0000 803f 0000 803f 0000 803f 0000 803f
00000070: 0000 803f 0000 803f 0000 803f 0000 803f
00000080: 0000 803f 0000 803f 0000 803f 0000 803f
00000090: 0000 803f 0000 803f 0000 803f 0000 803f
000000a0: 0000 803f 0000 803f 0000 803f 0000 803f
000000b0: 0000 803f 0000 803f 0000 803f 0000 803f
000000c0: 0000 803f 0000 803f 0000 803f 0000 803f
000000d0: 0000 803f 0000 803f 0000 803f 0000 803f
000000e0: 0000 803f 0000 803f 0000 803f 0000 803f
000000f0: 0000 803f 0000 803f 0000 803f 0000 803f
00000100: 0000 803f 0000 803f 0000 803f 0000 803f
00000110: 0000 803f 0000 803f 0000 803f 0000 803f
00000120: 0000 803f 0000 803f 0000 803f 0000 803f
00000130: 0000 803f 0000 803f 0000 803f 0000 803f
1.0 1.0 1.0 1.0 1.0 1.0 1.0 1.0
1.0 1.0 1.0 1.0 1.0 1.0 1.0 1.0
1.0 1.0 1.0 1.0 1.0 1.0 1.0 1.0
1.0 1.0 1.0 1.0 1.0 1.0 1.0 1.0
1.0 1.0 1.0 1.0 1.0 1.0 1.0 1.0
1.0 1.0 1.0 1.0 1.0 1.0 1.0 1.0
1.0 1.0 1.0 1.0 1.0 1.0 1.0 1.0
1.0 1.0 1.0 1.0 1.0 1.0 1.0 1.0
1.0 1.0 1.0 1.0 1.0 1.0 1.0 1.0
1.0 1.0 1.0 1.0 1.0 1.0 1.0 1.0

p f4 [80]
00000000: 0000 0000 0000 0000 0000 0000 0000 0000
00000010: 0000 0000 0000 0000 0000 0000 0000 0000
00000020: 0000 0000 0000 0000 0000 0000 0000 0000
00000030: 0000 0000 0000 0000 0000 0000 0000 0000
00000040: 0000 0000 0000 0000 0000 0000 0000 0000
00000050: 0000 0000 0000 0000 0000 0000 0000 0000
00000060: 0000 0000 0000 0000 0000 0000 0000 0000
00000070: 0000 0000 0000 0000 0000 0000 0000 0000
00000080: 0000 0000 0000 0000 0000 0000 0000 0000
00000090: 0000 0000 0000 0000 0000 0000 0000 0000
000000a0: 0000 0000 0000 0000 0000 0000 0000 0000
000000b0: 0000 0000 0000 0000 0000 0000 0000 0000
000000c0: 0000 0000 0000 0000 0000 0000 0000 0000
000000d0: 0000 0000 0000 0000 0000 0000 0000 0000
000000e0: 0000 0000 0000 0000 0000 0000 0000 0000
000000f0: 0000 0000 0000 0000 0000 0000 0000 0000
00000100: 0000 0000 0000 0000 0000 0000 0000 0000
00000110: 0000 0000 0000 0000 0000 0000 0000 0000
00000120: 0000 0000 0000 0000 0000 0000 0000 0000
00000130: 0000 0000 0000 0000 0000 0000 0000 0000
0.0 0.0 0.0 0.0 0.0 0.0 0.0 0.0
0.0 0.0 0.0 0.0 0.0 0.0 0.0 0.0
0.0 0.0 0.0 0.0 0.0 0.0 0.0 0.0
0.0 0.0 0.0 0.0 0.0 0.0 0.0 0.0
0.0 0.0 0.0 0.0 0.0 0.0 0.0 0.0
0.0 0.0 0.0 0.0 0.0 0.0 0.0 0.0
0.0 0.0 0.0 0.0 0.0 0.0 0.0 0.0
0.0 0.0 0.0 0.0 0.0 0.0 0.0 0.0
0.0 0.0 0.0 0.0 0.0 0.0 0.0 0.0
0.0 0.0 0.0 0.0 0.0 0.0 0.0 0.0

super f4 [80]
00000000: 0000 c842 0000 c842 0000 c842 0000 c842
00000010: 0000 c842 0000 c842 0000 c842 0000 c842
00000020: 0000 c842 0000 c842 0000 c842 0000 c842
00000030: 0000 c842 0000 c842 0000 c842 0000 c842
00000040: 0000 c842 0000 c842 0000 c842 0000 c842
00000050: 0000 c842 0000 c842 0000 c842 0000 c842
00000060: 0000 c842 0000 c842 0000 c842 0000 c842
00000070: 0000 c842 0000 c842 0000 c842 0000 c842
00000080: 0000 c842 0000 c842 0000 c842 0000 c842
00000090: 0000 c842 0000 c842 0000 c842 0000 c842
000000a0: 0000 c842 0000 c842 0000 c842 0000 c842
000000b0: 0000 c842 0000 c842 0000 c842 0000 c842
000000c0: 0000 c842 0000 c842 0000 c842 0000 c842
000000d0: 0000 c842 0000 c842 0000 c842 0000 c842
000000e0: 0000 c842 0000 c842 0000 c842 0000 c842
000000f0: 0000 c842 0000 c842 0000 c842 0000 c842
00000100: 0000 c842 0000 c842 0000 c842 0000 c842
00000110: 0000 c842 0000 c842 0000 c842 0000 c842
00000120: 0000 c842 0000 c842 0000 c842 0000 c842
00000130: 0000 c842 0000 c842 0000 c842 0000 c842
100.0 100.0 100.0 100.0 100.0 100.0 100.0 100.0
100.0 100.0 100.0 100.0 100.0 100.0 100.0 100.0
100.0 100.0 100.0 100.0 100.0 100.0 100.0 100.0
100.0 100.0 100.0 100.0 100.0 100.0 100.0 100.0
100.0 100.0 100.0 100.0 100.0 100.0 100.0 100.0
100.0 100.0 100.0 100.0 100.0 100.0 100.0 100.0
100.0 100.0 100.0 100.0 100.0 100.0 100.0 100.0
100.0 100.0 100.0 100.0 100.0 100.0 100.0 100.0
100.0 100.0 100.0 100.0 100.0 100.0 100.0 100.0
100.0 100.0 100.0 100.0 100.0 100.0 100.0 100.0

weight f4 [4, 80]
00000000: 54f6 46bd 9ad2 b33c e059 d23d a658 5f3c
00000010: 2a5b d03b 559b 453d 0b5f e23d aa5b 37bd
00000020: 2728 5ebd 889c bebd 208f c1bc 8481 943b
00000030: 2106 793d a248 c7bd 711b a1bd fab2 b83d
00000040: 8d88 dbbd 3afe 663d 8c74 94bc 2104 703d
00000050: 6629 4fbd 78f6 dcbd 362b 453b 1a2c 4c3d
00000060: 9f88 aa3d 028a 29bd b342 43bd 271a e43d
00000070: dfc9 ccbc de27 923d 885e 99bc 126b f0bc
00000080: 54d0 a63d 80b8 45bd 4e63 96bc 5dc0 bb3d
00000090: e8a3 50bd 66b9 373c 8398 fc3c 0db9 22ba
000000a0: 745e 9dbc abd5 c2bd f392 9bbd 4572 3a3c
000000b0: 7fad 673d 3a9a 693d 4ffd 943c 6abd bdbd
000000c0: b99e 97bd dfd7 34bd 0b93 cf3d 56c8 1fbc
000000d0: 23c0 c03d c1bd 5c3d bfeb 533d 1d2f 87bd
000000e0: fd5f d2bd d20d ac3d e091 c6bd b577 3b3d
000000f0: 5d8b 56bc 2cb3 95bd aa71 df3c 6fce 1b3d
00000100: 0413 80bc 3447 82bd 457f db3c 2d09 34bd
00000110: 2191 c83d 0c84 993d 15d3 ae3d d0f0 d63d
00000120: f81b dfbc 0174 82bd 929c d5bd d9cd 94bc
00000130: c6e4 9bbd 3c09 c9bd a1d5 acbd 0e1f 193d
00000140: e2c8 193b 1ad7 61bd 2265 1d3d 7c48 b03d
00000150: be58 913d a195 6a3b 3e71 a0bd c870 a8bb
00000160: 4fa5 9d3d 467f ed3c 30d4 6b3d f87a 903d
00000170: b9cb 923c bee7 c73c 86a5 bfbd 5d8c 06bd
00000180: 43c3 8c3d 7d53 b6bc efea 793c 3629 6bba
00000190: c1df f9bb 214e e83b 1f79 cfbd 95ad acbd
000001a0: c935 95bd ceb4 c1bd 4326 35ba 4af9 0f3d
000001b0: 755c aa3d ca88 a33d 05b0 9fbb 18a3 e2bd
000001c0: 7261 92bd e4b1 26bd 829f c23d a83c 1a3d
000001d0: 0330 f13c 9d39 acbd d690 e2bc 8048 4cbd
000001e0: 0730 da3c 972f db3d 40cc 9c3d 782b a73d
000001f0: a75f e43d 6762 d73d b821 80bc e7fc c43d
00000200: d4da c8b9 8372 9cbd 1fce 45bd 3489 d6bd
00000210: 2d23 8abd 026a b1bd a8e5 6bbd 128b 48bd
00000220: cbb6 993d 6155 2abd e073 813d 6acd d33d
00000230: e756 ba3c 4e53 89bd c575 c5bd 13ce 42bd
00000240: cd8a c4bd 18cb 9a3d b3d0 ba3d fb1b 03bd
00000250: eab4 efbc 0900 0e3d bba5 ae3b 9c11 753d
00000260: ba27 443d f40a b23d 9a0f 1cbc f40a a7bd
00000270: 39c6 71bd 0861 013d e141 abbd e7ba 2ebd
00000280: 9d02 4fbd f113 ae38 6ad0 5c3d 9d2b dbbc
00000290: d758 46bd c82a 663d accf b23d cdcd 973c
000002a0: 53af bd3d 2f6a 983c 21a2 293d 4900 903d
000002b0: 822b 7e3c 14a3 5dbd 8d11 373d e272 e73a
000002c0: 30fc 563d c841 1fbc ca90 f7bc 119a 11bd
000002d0: a5b5 e1bd dc0f 08bd f96a 973d ff7a 91bd
000002e0: 25b9 20bd bc81 b1bc 74b5 a73c 9201 d9bd
000002f0: 48c0 623d 60b0 9bbd 953d 9c3c 6256 56bd
00000300: 8008 13bd 640a 5abd 591e 613d dcc8 abbb
00000310: 30d0 2d3b b5e4 82bb be73 73bc 6e9f 843d
00000320: 25cf d23d 9c43 9ebd e75b 5d3d dc87 2abd
00000330: be12 cabd ccf6 233d 9c38 72bd 006c 89bc
00000340: a290 a0bc a81c ab3d 9cae 57bd 9140 b43d
00000350: e493 9f3d 20eb b43d 3a4e 86bb 2a8b e3bd
00000360: db69 6fbd 2fb2 d5bc 7296 ab3d bce1 e63c
00000370: 3fbb 043d 8392 b8bd 5cee 72bc 8048 063d
00000380: 1cdf 43bd 9e09 8bbd ad88 ba3d b38a 1dbd
00000390: 2077 d23d 998b b63d 23e6 d0bd 8e30 e33d
000003a0: b46b 1d3d 234b cabd 8174 a2bd fd2d bcbd
000003b0: 7604 a3bd 26c4 973d f395 cb3d ed72 cd3d
000003c0: cb08 923d fa86 573d 9964 223d eb31 a7bd
000003d0: 7add 16bc ab55 7c3d f8c6 d9bd 35d8 e2bd
000003e0: 09eb c8bd 0160 bebd 0e0a 8dbd b436 1bbc
000003f0: 7c32 853d 450c dc3d 6ff7 843d 9ed3 d63c
-0.04857476 0.021951009 0.102710485 0.013631975 0.006358524 0.04824384 0.11053284 -0.044765152
-0.05423751 -0.093072 -0.023627818 0.004532041 0.06079686 -0.097306505 -0.07866562 0.09018512
-0.10719404 0.056394793 -0.01812198 0.058597688 -0.05057659 -0.10789198 0.003008557 0.049846746
0.0832684 -0.04139138 -0.04767103 0.11137801 -0.024998603 0.0713651 -0.018721834 -0.02934793
0.08145204 -0.048271656 -0.018357899 0.0916755 -0.050937563 0.011213636 0.030834442 -0.0006207384
-0.019210078 -0.0951341 -0.07596388 0.011379783 0.056561943 0.057031848 0.018187193 -0.092646435
-0.07403321 -0.044151183 0.10135468 -0.009752354 0.09411647 0.0538919 0.051738497 -0.06600783
-0.102722146 0.084010735 -0.09695792 0.04576846 -0.01309475 -0.07309565 0.027275879 0.038038667
-0.015634067 -0.06361237 0.026794085 -0.043954063 0.09793306 0.07495889 0.085363545 0.1049515
-0.027235016 -0.06369782 -0.10430254 -0.018164562 -0.076119944 -0.098162144 -0.08439184 0.03738313
0.0023465683 -0.055136777 0.038426526 0.08607575 0.07097004 0.0035794752 -0.07834099 -0.0051403977
0.07697546 0.028991353 0.057575405 0.070547044 0.017919408 0.024402495 -0.09357743 -0.032848705
0.06873181 -0.022256607 0.015253766 -0.00089706795 -0.0076255505 0.007089392 -0.10130524 -0.08431546
-0.07285649 -0.09458314 -0.00069103035 0.03514985 0.08318416 0.07985075 -0.004873278 -0.11066264
-0.071474925 -0.040696993 0.0950308 0.037655503 0.02944184 -0.08409426 -0.027656954 -0.04987383
0.02663423 0.107024364 0.07656145 0.08162588 0.11151057 0.10516816 -0.015641078 0.0961855
-0.00038310012 -0.07639029 -0.048292276 -0.10475388 -0.067449905 -0.086627975 -0.057592064 -0.048960753
0.07505568 -0.04158533 0.063209295 0.10341914 0.022746516 -0.06705342 -0.096416034 -0.04755981
-0.09596787 0.07558268 0.091218375 -0.032009106 -0.029261071 0.034668002 0.005329815 0.059831247
0.04788945 0.086934954 -0.009525204 -0.08156386 -0.05902693 0.031586677 -0.08362175 -0.042658713
-0.0505396 8.300681e-05 0.053909697 -0.026754195 -0.048424568 0.056193143 0.087310165 0.01853075
0.09261956 0.01860532 0.041414384 0.070313044 0.015513303 -0.0541106 0.044694472 0.0017658139
0.0524866 -0.009720273 -0.030220408 -0.03554732 -0.11020974 -0.03321825 0.0739345 -0.07103538
-0.039239068 -0.021668307 0.020472266 -0.10596003 0.055359155 -0.07602 0.019072333 -0.052328475
-0.035896778 -0.053232566 0.054960582 -0.00524245 0.0026521794 -0.003994549 -0.014859138 0.06475721
0.10293416 -0.07727739 0.054042723 -0.04163347 -0.09866856 0.040030286 -0.05913602 -0.016775131
-0.019600216 0.08355075 -0.052656755 0.088013776 0.0779188 0.08833909 -0.004098681 -0.11110528
-0.05845056 -0.026085941 0.083783045 0.02818381 0.032405134 -0.0901232 -0.014827337 0.032783985
-0.047820196 -0.06788944 0.091081 -0.038462352 0.102766275 0.08913345 -0.10200145 0.110932454
0.03843279 -0.098776124 -0.079323776 -0.09188459 -0.07959835 0.07410459 0.0994071 0.10031686
0.071305834 0.052618958 0.03964672 -0.08163818 -0.009208078 0.061605137 -0.106336534 -0.110763945
-0.098104544 -0.09295655 -0.068866834 -0.009473491 0.0650377 0.10744528 0.06492507 0.026223954

bias f4 [4]
00000000: 4ba2 80bc 05e8 463c a03f 83bd 679d dbbd
-0.015702387 0.012140279 -0.0640862 -0.107233815

weight f4 [256, 80]
00000000: 0fab 683f b55b 203e f4bd 94bf 06dd 113f
00000010: 334a e43f 63fc 49be fffc 60be 336f 1dbf
00000020: 94b9 a7be d317 0040 1fb8 86bf 71af 1e3f
00000030: fcd5 b0bd fe08 2fbf 1c47 b8bf add5 c83e
00000040: d785 fb3e 83ce 9dbe 59ba 7f3e 66ee 0a3f
00000050: 4b11 86bf 6b49 89bf 1ea4 e73e 25d5 393d
00000060: e1ea 07be 6ab3 fa3c 3505 f9be e5c3 8abf
00000070: 4acd 8abe ee56 b6bf c799 ffbe d5c2 a43f
00000080: de6b 4a3d 4e06 45bf 731d 31bf 2290 4ebe
00000090: 35d1 193f 8fba 4e3e 499e 26bf c263 1a3f
000000a0: b357 13bf daba 0cbe f180 f136 2d74 68be
000000b0: f761 323f 3607 96bf 0a90 d13d d410 3dbf
000000c0: 8a05 06be 0cd5 5b3e 2c99 e63c fa3f fbbe
000000d0: ce86 2c3f bc2d bf3f 7a2d 8bbf d76d e53f
000000e0: 5cdc 19bf 3ee6 8abf 8b33 19c0 857f 1fbf
000000f0: b30d 0a3f d7d7 c33f b12d 603f 2833 54bf
00000100: f110 68bf df0c 80be 0d61 a83e f3e5 963f
00000110: 24ff b73e 3eca eebf 0318 893f ad06 163f
00000120: 6b13 c3bc 970a 87bf 119c cbbf 6100 0840
00000130: dacd 0dbe e951 b7be a324 84bf b041 8a3f
00000140: a431 98bf 32f1 ee3f 6e4d 543f 1919 8e3f
00000150: 93da f6bf 874a 61bf 2bff 873f 4777 40bf
00000160: c499 37be 5ba7 883e ecd8 ec3f e099 c3bf
00000170: e2d8 aabe 91d8 11bf bc3d b1be 9398 5d3d
00000180: f058 f33b 3d03 abbe 9246 ff3e b3b3 393f
00000190: f16a 82be 8d06 fd3e ae71 703f faa5 9cbf
000001a0: 4415 a2be b7da 49bf 0dcd 26bf 118e ad3f
000001b0: e0af 50be 19d7 233f a39d 14bf 4cf3 e2bd
000001c0: 606f 5c3f 9bc5 0e40 15dd 48be 1892 f0bd
000001d0: 0aa0 1c3d 50da 8f3e 5b62 b63e 4ac9 ff39
000001e0: 3d90 f7bf 1621 e1bd 0e2d 14bf c3b4 a83e
000001f0: 4329 10bf ff53 efbe cb7d 27be 6be8 cdbf
00000200: f4b1 15c0 07d3 213e 6efd 8bbf 47ad 513f
00000210: 4075 43bf 2c78 99bf 96c7 1fc0 60a0 833f
00000220: 1894 073f 1df9 70bf e73a 45bf 7e58 4940
00000230: fd1b aebf 9168 113e 6180 ae3f 9aa9 d93f
00000240: 2a09 563f 7073 583f 2409 afbf 6028 053f
00000250: da18 043f 0485 6c3f 4b5c 0e3e 60ba a2bf
00000260: 1666 b5bd 3244 903f a5e1 09c0 2d27 0c40
00000270: 1888 77bf fb45 a4be c0d1 c6bf cae1 b83e
00000280: a461 913f 767b a83f 744a 01be 243b a5bf
00000290: 4832 033f 06b6 14be e773 27be e71f cf3f
000002a0: d8f7 9cbf 688e d2be fa7f 943f 42ba 76bf
000002b0: caf0 a53e 2a3a 973e 1c43 d23f d07c b2be
000002c0: b794 9ebf 87c2 be3f 5dd0 123f 45c9 343f
000002d0: cf96 28bf 1653 8a3f eacd 01bf 6ee0 aabe
000002e0: 8325 91bf 78bc aa3f c554 563f 29fd 31bf
000002f0: 02c2 003f f826 dbbf e3e2 063e 9c95 42c0
00000300: 6819 0dbf 66b8 3fbf 1b0d 133f da4c 26bf
00000310: cc6c 38bf d261 cabe 4a5a 3bbf 47d9 1d3e
00000320: 05f8 08bf be76 2b3f 375a 2e3e ec49 8dbf
00000330: 7ec6 c83e 7048 aa3e 3af8 d4bf 0658 81bf
00000340: fef7 96be 59af 82be 9a16 623f 4572 8abe
00000350: 2203 fe3e d662 56be 31a4 5fbe 29f9 0fc0
00000360: 1227 273f 2a60 25be e14b 703f 61f9 523f
00000370: f027 383e 1269 85be 49da ae3f c134 a1bf
00000380: e057 f43f cdf7 003e 8cdf debf b5f4 ba3d
00000390: a510 a43e 82bc 903f de49 adbb 94da 5cbf
000003a0: a796 e13e 724d 0c3a e6c7 a43f a955 debf
000003b0: 94e3 b7bf 1d1b 01c0 a773 a5bf 35f9 e8be
000003c0: 7a76 d4be 2384 8abf 7198 243e 8120 aa3f
000003d0: 287f 02c0 4cb9 833f 2050 613e 37d3 a4bf
000003e0: bcdc 28bd f283 b2be 19ec e03e 1c16 523d
000003f0: 1877 b2bf 916b 2ebf 219c 7b3e 0a7b 3b3f
0.90886015 0.15659983 -1.1620469 0.5697788 1.7835144 -0.19725184 -0.2197151 -0.614978
-0.32758772 2.001454 -1.0524939 0.6198645 -0.08634564 -0.68373096 -1.4396701 0.39225522
0.4912555 -0.30821618 0.2497343 0.5427002 -1.0474027 -1.072553 0.452424 0.045369286
-0.13273193 0.03060313 -0.48636785 -1.0841032 -0.27109748 -1.4245279 -0.4992201 1.2871958
0.049419276 -0.76962745 -0.6918556 -0.2017217 0.6008485 0.20188354 -0.65085274 0.6030847
-0.57555693 -0.13743153 7.1973705e-06 -0.22700568 0.6968073 -1.1720951 0.102325514 -0.738538
-0.1308805 0.2146799 0.02814921 -0.49072248 0.67393196 1.4935832 -1.0873253 1.7924145
-0.60101867 -1.0851514 -2.393771 -0.62303954 0.53927153 1.5300244 0.8756972 -0.8289056
-0.9065085 -0.2500982 0.32886544 1.1788925 0.35936844 -1.865547 1.0710453 0.58603936
-0.02381297 -1.0550107 -1.5907003 2.1250231 -0.13848057 -0.3580468 -1.0323681 1.0801296
-1.1890149 1.8667357 0.8293065 1.1101409 -1.9285454 -0.88004345 1.0624746 -0.75182
-0.1792975 0.26690182 1.8503699 -1.5281334 -0.33368593 -0.5697108 -0.34617412 0.054100584
0.0074263737 -0.33400908 0.49858528 0.72539824 -0.25472215 0.4941906 0.9392346 -1.2238152
-0.3165685 -0.7884936 -0.6515663 1.355898 -0.20379591 0.6400009 -0.58053035 -0.110815614
0.86107445 2.2308109 -0.19615586 -0.11746615 0.038238563 0.28096247 0.35621914 0.00048787362
-1.9340893 -0.10992639 -0.5788125 0.3295041 -0.5631296 -0.4674377 -0.1635658 -1.6086553
-2.3389864 0.15803157 -1.0936716 0.81905025 -0.76350784 -1.1989799 -2.4965568 1.0283318
0.5296035 -0.94130117 -0.77043 3.1460261 -1.3602291 0.14200045 1.3632928 1.7004883
0.83607733 0.84551144 -1.3674664 0.5201473 0.5160042 0.92390466 0.13902394 -1.2713127
-0.08857362 1.1270812 -2.1543972 2.189891 -0.9669204 -0.3208464 -1.5532761 0.36109763
1.1357923 1.3162677 -0.12626058 -1.2908673 0.512486 -0.14522561 -0.16352807 1.6181611
-1.2263136 -0.41124272 1.1601555 -0.96377957 0.3241027 0.29536563 1.642673 -0.3486085
-1.2389134 1.4903115 0.5734919 0.7061961 -0.65855116 1.0806606 -0.50704825 -0.3337435
-1.1339573 1.3338766 0.837231 -0.69526917 0.5029603 -1.7121267 0.13172488 -3.0403814
-0.5511689 -0.74890745 0.5744187 -0.64961016 -0.7204101 -0.39527756 -0.73184645 0.15414916
-0.5350345 0.6697806 0.17026602 -1.1038184 0.39213938 0.3325839 -1.6638253 -1.0104988
-0.29486078 -0.25524405 0.8831574 -0.27040306 0.49611765 -0.2093614 -0.21839978 -2.2495825
0.6529399 -0.16149965 0.9386578 0.8241177 0.17983985 -0.26056725 1.3660365 -1.2594224
1.9089317 0.12594528 -1.7411971 0.091287054 0.3204395 1.1307528 -0.0052883467 -0.86271024
0.4406025 0.00053521164 1.2873504 -1.7369891 -1.4366326 -2.0172799 -1.2925919 -0.4550263
-0.4149664 -1.0821575 0.16073777 1.329117 -2.039011 1.0290923 0.22003222 -1.2876958
-0.041226134 -0.3486629 0.43930128 0.051290616 -1.3942595 -0.68132883 0.24571277 0.7323462
