Alpha_58_1e-4/Retraining_2/4-PAM_SNN_MMSE_Equalizer_im_dd.pt (torch, 246267 bytes, 11 tensors)

weight f4 [80, 328]
-0.043151494 -0.04433653 -0.050298467 -0.02948382 0.010729559 -0.04752783 -0.028922051 -0.042464007
-0.054080665 0.014698223 0.026787512 0.051078457 0.052965775 -0.022303933 0.04386963 0.011453611
0.027431767 -0.03978188 0.03875682 -0.02042466 0.03900646 0.044177413 0.026682124 0.04467446
0.02590708 -0.04747666 0.0033439582 -0.011353317 0.006185725 -0.04564555 0.015399349 -0.026059354
-0.034135826 -0.05354058 -0.0065160873 -0.0061290255 0.0027186659 0.028640846 -0.03317168 -0.023055894
0.008619104 -0.05260497 -0.04633177 0.007777717 0.027985176 -0.010558677 -0.014273379 -0.005316686
0.052869286 0.017789667 -0.025058366 -0.04420625 -0.03911182 -0.020223204 -0.03111427 -0.006275204
0.041357048 -0.01442254 0.04848688 -0.03074248 -0.041107815 0.0015826583 -0.04736627 -0.028950382
-0.03653086 0.053848308 0.0018913518 -0.027275499 0.04389319 -0.049570534 -0.052850954 0.00019624266
0.042575248 0.051986754 -0.015255791 -0.043472122 -0.015281422 -0.0063809277 0.046652723 -0.04734366
-0.0025443882 0.025751436 0.039463438 0.050362226 0.009264208 0.0012175747 -0.04157533 -0.0382295
-0.050704382 0.04703821 0.051589325 -0.009193726 0.03651734 0.042395882 -0.052895587 0.050483443
-0.007631591 0.043584388 0.004883832 0.050322782 -0.03626017 0.0183977 0.0056037637 -0.051861316
-0.024240274 0.032876287 0.047240563 0.007947216 -0.025939405 -0.026317382 0.043970898 0.016840443
-0.006685876 0.002932595 0.021982247 -0.038888097 -0.006410416 0.023377705 -0.035295825 -0.032373838
0.02474791 0.045755256 -0.004537745 0.04824503 -0.014712513 0.05180451 0.0432099 0.047479372
-0.042860106 0.045498002 -0.043694146 -0.044692665 -0.033064388 -0.02873364 -0.019654796 0.047339063
0.008146394 -0.04111105 -0.041095644 -0.024336394 -0.019480834 0.04258398 0.024846142 -0.01719291
0.015055941 -0.021079177 -0.0034418295 0.013946887 0.01583893 0.05184356 -0.048845172 -0.025194375
0.047418907 0.054862726 -0.015358605 0.015775122 -0.05307326 -0.038558006 -0.046273656 -0.008866873
-0.015896736 0.016446292 -0.0049473043 0.012772183 0.028097654 -0.05492005 -0.011629066 0.041360397
-0.038727537 0.040601373 -0.017760087 -0.05352949 -0.029624244 0.049244415 -0.011762403 0.02855733
0.00022859433 -0.01695972 0.042652942 -0.0358903 -0.00631891 0.03995091 -0.015271449 0.02835324
0.015089615 -0.031729914 -0.010567399 0.0023116732 -0.026217379 0.034567676 -0.05110583 -0.027794087
0.020015297 -0.006263066 -0.04568626 0.038541287 0.035130702 -0.024291169 0.036643166 0.0035242916
0.050859913 0.020655913 -0.054442294 -0.03176357 0.041050974 -0.0013038941 -0.0009672985 -0.016930928
-0.042830013 -0.023747232 -0.012419 -0.009471312 0.006741713 -0.02948522 -0.020973545 0.0048031798
0.053800073 -0.011997349 -0.015122796 0.0155586265 -0.040160675 -0.035006035 0.043715797 0.0032809793
0.04364538 0.026975026 0.03102728 -0.036794778 -0.036914743 -0.018862821 -0.005452168 0.04238671
0.032718446 0.04390222 0.047646772 -0.0094446605 0.0033101386 -0.046393387 0.033768754 -0.03789938
-0.04513469 0.014444715 0.013516153 0.01872281 -0.037354607 0.025785085 -0.005136037 -0.023861565
0.04875959 0.0051415265 -0.018056497 -0.047901787 0.047456194 -0.011284118 0.025714891 -0.050934818
00000000: 9fbf 30bd 399a 35bd c405 4ebd 0d88 f1bc
00000010: 08cb 2f3c 8bac 42bd f0ed ecbc bdee 2dbd
00000020: b083 5dbd d1d0 703c 7c71 db3c a537 513d
00000030: a4f2 583d bdb6 b6bc a4b0 333d eda7 3b3c
00000040: 96b8 e03c 53f2 22bd 79bf 1e3d 9e51 a7bc
00000050: 3dc5 1f3d 60f3 343d 7894 da3c 91fc 363d
00000060: 163b d43c e376 42bd 4f26 5b3b 4303 3abc
00000070: 9fb1 ca3b d4f6 3abd 8d4d 7c3c 6d7a d5bc
00000080: 02d2 0bbd 5e4d 5bbd e784 d5bb fed5 c8bb
00000090: a52b 323b 35a0 ea3c 07df 07bd b7df bcbc
000000a0: 2437 0d3c 4f78 57bd 62c6 3dbd 38dc fe3b
000000b0: 2b41 e53c 4dfe 2cbc e4da 69bc 9837 aebb
000000c0: 778d 583d a3bb 913c 3447 cdbc 9d11 35bd
000000d0: b733 20bd 22ab a5bc 5be3 febc 3aa0 cdbb
000000e0: 0266 293d 844c 6cbc 2e9a 463d a7d7 fbbc
000000f0: ab60 28bd 3371 cf3a 2203 42bd 5a29 edbc
00000100: 62a1 15bd 0b90 5c3d 3ce7 f73a de70 dfbc
00000110: 58c9 333d 790a 4bbd 3e7a 58bd 7dc6 4d39
00000120: 6263 2e3d 10f0 543d 6df3 79bc d30f 32bd
00000130: ee5e 7abc 1a17 d1bb ed16 3f3d 6deb 41bd
00000140: c0bf 26bb adf4 d23c 6aa4 213d 9f48 4e3d
00000150: e8c8 173c 0797 9f3a e54a 2abd 8996 1cbd
00000160: 66af 4fbd 23ab 403d 544f 533d 48a1 16bc
00000170: 3593 153d 4ea7 2d3d 0ba9 58bd bac7 4e3d
00000180: 6d12 fabb 8b85 323d 8d08 a03b 431f 4e3d
00000190: 8b85 14bd c6b6 963c c79f b73b 886c 54bd
000001a0: 8a93 c6bc 49a9 063d 527f 413d 0a35 023c
000001b0: e07e d4bc 8d97 d7bc d41a 343d f8f4 893c
000001c0: 3115 dbbb c830 403b 1d14 b43c 2049 1fbd
000001d0: 780e d2bb 9a82 bf3c 5b92 10bd 6e9a 04bd
000001e0: 21bc ca3c dd69 3b3d 5db1 94bb 959c 453d
000001f0: c10c 71bc f730 543d ddfc 303d bb79 423d
00000200: 148e 2fbd 1d5c 3a3d a2f8 32bd a80f 37bd
00000210: 866e 07bd d062 ebbc 1803 a1bc 9be6 413d
00000220: 7478 053c 0f64 28bd e853 28bd 1e5d c7bc
00000230: 4596 9fbc 8a6c 2e3d 238a cb3c 25d8 8cbc
00000240: 32ad 763c 3dae acbc 5190 61bb 7c81 643c
00000250: a5c0 813c ea59 543d e011 48bd 6f64 cebc
00000260: 543a 423d bdb7 603d a9a2 7bbc d43a 813c
00000270: 5963 59bd 00ef 1dbd 7289 3dbd 5c46 11bc
00000280: df39 82bc 60ba 863c ff1c a2bb 6b42 513c
00000290: 0d2d e63c d9f3 60bd d787 3ebc 8569 293d
000002a0: c4a0 1ebd a04d 263d 9a7d 91bc bd41 5bbd
000002b0: 8bae f2bc 83b4 493d 18b7 40bc 10f1 e93c
000002c0: d3b2 6f39 1cef 8abc dab4 2e3d b501 13bd
000002d0: dc0e cfbb 91a3 233d 1a35 7abc 0e45 e83c
000002e0: 6f3a 773c 3af7 01bd e222 2dbc 717f 173b
000002f0: d4c5 d6bc d696 0d3d 5954 51bd 6db0 e3bc
00000300: 1ff7 a33c 683a cdbb 8421 3bbd 78dd 1d3d
00000310: 36e5 0f3d 46fe c6bc 2517 163d cdf7 663b
00000320: 7c52 503d 9736 a93c e2fe 5ebd 841a 02bd
00000330: 1125 283d 6de7 aaba 4e92 7dba bbb2 8abc
00000340: 866e 2fbd 8e89 c2bc 1079 4bbc 902d 1bbc
00000350: 96e9 dc3b fd8a f1bc b6d0 abbc fe63 9d3b
00000360: 775d 5c3d 8790 44bc 9bc5 77bc 9ce9 7e3c
00000370: 857f 24bd 7d62 0fbd 560f 333d b305 573b
00000380: 7fc5 323d bbfa dc3c ec2c fe3c 1fb6 16bd
00000390: ea33 17bd 3486 9abc 1aa8 b2bb b09d 2d3d
000003a0: c703 063d d0d2 333d 4329 433d c7bd 1abc
000003b0: e9ee 583b fe06 3ebd 1b51 0a3d 613c 1bbd
000003c0: 27df 38bd 87a9 6c3c db72 5d3c 9460 993c
000003d0: 2501 19bd 3e3b d33c 334c a8bb 5479 c3bc
000003e0: 23b8 473d 407a a83b 38eb 93bc aa34 44bd
000003f0: 6d61 423d 05e1 38bc 09a8 d23c 07a1 50bd

input_weights f4 [80, 80]
0.16059738 -0.046262115 -0.019848702 -0.08478031 0.38704792 -0.02826296 0.2055571 0.0062000803
0.18816644 0.033598587 0.14263439 -0.05328138 -0.15855397 -0.027122015 0.18057643 0.13381253
-0.16411842 -0.19545355 0.09450193 -0.25706956 0.021601202 -0.032077346 -0.31874546 -0.09429809
-0.18385191 0.038459696 -0.0589024 0.053929348 0.15777503 -0.120234735 0.1023155 -0.25695375
-0.17241454 -0.34342304 0.05542724 0.00020859459 -0.008883961 -0.04389131 -0.0035767658 -0.23315
0.049708195 0.067484714 -0.08344933 -0.045125883 -0.14621457 0.010294407 -0.18481776 -0.04428172
0.1952431 -0.20282264 0.06913872 -0.06624143 -0.31597137 -0.063054554 0.259117 0.41590023
0.30628416 -0.123578474 -0.067637704 -0.11845881 0.020947361 -0.13999312 -0.004442003 -0.36813244
0.08862732 0.10080183 0.29153603 -0.11646631 0.1950249 -0.03787315 -0.30388537 0.083932094
-0.02408183 -0.22991717 -0.097965494 0.064142965 -0.035802674 -0.1945024 -0.028798398 -0.38071606
-0.0339597 0.12534232 0.14788441 -0.11662463 -0.16819462 0.098071754 -0.08766232 0.1612471
-0.059389785 0.28382176 -0.039332893 0.19856179 0.10223541 0.070562325 0.16130294 0.24083258
-0.10260204 0.016223457 -0.29917723 -0.2546814 0.018405166 0.01131143 -0.021167407 0.051979534
0.06476694 0.09471656 0.20745814 0.11325869 0.042069163 0.17838314 0.2608417 0.15815702
-0.33272186 -0.15182038 -0.20297208 -0.10141286 -0.098994516 -0.08960175 0.29857546 0.00010925211
-0.03351727 0.025608735 -0.14440563 0.08969975 0.0064449273 -0.063997805 0.17489529 0.18452601
0.07362768 -0.027206067 0.08048068 -0.08407116 -0.06986971 -0.33070025 -0.2428475 0.10992171
0.074353136 -0.30205336 -0.025779348 0.030314812 0.060007587 0.066516556 0.36384144 0.017982515
-0.09755044 -0.025511185 -0.16983344 0.084103994 -0.12934498 0.0011595781 -0.06220442 -0.026768759
-0.06877759 -0.07572182 0.028312225 -0.14195345 -0.018541925 -0.13318801 -0.0044150185 -0.076553136
-0.20779885 -0.028805176 0.058107365 0.08695219 -0.01929278 -0.13093461 0.015515758 -0.046984438
0.08027202 -0.08025367 -0.18886933 -0.023974115 0.06414654 0.17131665 0.1423617 0.18143475
0.15246162 -0.1816521 -0.08294849 -0.22555001 0.037523694 -0.33156878 -0.1376573 0.003761937
0.1347386 -0.21974547 0.13038118 -0.49810198 -0.026812132 0.084549636 0.033443075 -0.04243509
-0.000978564 -0.13268174 0.13961035 -0.29324412 0.010386093 -0.08002622 -0.066464216 0.23066044
0.06906598 0.090911634 0.12743038 -0.2479428 -0.2357102 -0.21037185 0.10741244 0.055988297
0.035553142 0.08271061 0.14551426 0.09281598 -0.2051869 0.21908014 0.015972435 0.001960427
-0.00021116358 -0.065527745 -0.07665184 -0.09166223 -0.045470938 0.23068815 -0.20027845 0.0761985
0.00704959 0.17333789 -0.076175615 0.10519499 -0.026501048 0.18814267 -0.018480906 -0.17799969
-0.024673551 -0.061352644 0.028587576 0.31046677 0.0070772003 0.120776266 -0.12173599 -0.2011481
-0.02836059 -0.23685318 0.06020613 -0.17948511 0.048784807 -0.2044754 -0.25167105 0.13967331
0.06906577 0.23319711 0.26040098 -0.0262815 0.14932096 0.059087537 0.2715328 0.2087183
00000000: a473 243e 587d 3dbd bf99 a2bc 4da1 adbd
00000010: 252b c63e b987 e7bc 8f7d 523e 0b2a cb3b
00000020: b4ae 403e ac9e 093d c00e 123e 943d 5abd
00000030: f95b 22be fd2e debc 07e9 383e 2706 093e
00000040: a90e 28be fa24 48be 3a8a c13d 9f9e 83be
00000050: 01f5 b03c 8963 03bd 9b32 a3be 5b1f c1bd
00000060: ad43 3cbe ea87 1d3d a543 71bd 05e5 5c3d
00000070: c78f 213e a13d f6bd ca8a d13d 718f 83be
00000080: 708d 30be 25d5 afbe ac07 633d 2fba 5a39
00000090: 088e 11bc 60c7 33bd 2c68 6abb e0be 6ebe
000000a0: d29a 4b3d 6d35 8a3d 7be7 aabd ebd5 38bd
000000b0: 46b9 15be dfa9 283c de40 3dbe c060 35bd
000000c0: cfed 473e bdb0 4fbe 9a98 8d3d 96a9 87bd
000000d0: 00c7 a1be bf22 81bd fcaa 843e e0f0 d43e
000000e0: 47d1 9c3e b616 fdbd a385 8abd 889a f2bd
000000f0: cd99 ab3c 5b5a 0fbe 398e 91bb db7b bcbe
00000100: 3e82 b53d 3171 ce3d 3644 953e e485 eebd
00000110: 9bb4 473e e020 1bbd dd96 9bbe 97e4 ab3d
00000120: 4247 c5bc 686f 6bbe 22a2 c8bd 635d 833d
00000130: d3a5 12bd a32b 47be 9eea ebbc 37ed c2be
00000140: 5419 0bbd bd59 003e 036f 173e e5d8 eebd
00000150: 363b 2cbe d8d9 c83d 4d88 b3bd f61d 253e
00000160: b442 73bd 1651 913e 871b 21bd c853 4b3e
00000170: cc60 d13d fb82 903d 992c 253e d19c 763e
00000180: 0521 d2bd 0ee7 843c c22d 99be 9a65 82be
00000190: 6ec6 963c 9353 393c 4567 adbc 7ee8 543d
000001a0: 88a4 843d c1fa c13d e86f 543e 2cf4 e73d
000001b0: b750 2c3d 12aa 363e 0b8d 853e eaf3 213e
000001c0: 855a aabe cd76 1bbe ead7 4fbe 8cb1 cfbd
000001d0: a3bd cabd 1f81 b7bd e2de 983e 481e e538
000001e0: 6849 09bd 69c9 d13c 12df 13be 81b4 b73d
000001f0: f82f d33b 4811 83bd c017 333e 63f4 3c3e
00000200: 1cca 963d 42df debc 0ed3 a43d 802d acbd
00000210: da17 8fbd 8b51 a9be 04ad 78be a21e e13d
00000220: 7546 983d bda6 9abe 362f d3bc c556 f83c
00000230: 84ca 753d d539 883d 6d49 ba3e 1150 933c
00000240: 86c8 c7bd d5fc d0bc d1e8 2dbe b73e ac3d
00000250: 0373 04be fcfc 973a 10ca 7ebd 284a dbbc
00000260: 44db 8cbd 0b14 9bbd 0aef e73c 3f5c 11be
00000270: 3ce5 97bc 7062 08be dcab 90bb e4c7 9cbd
00000280: 39c9 54be d5f8 ebbc fd01 6e3d fd13 b23d
00000290: e40b 9ebc b913 06be ce35 7e3c c172 40bd
000002a0: a865 a43d 095c a4bd f666 41be 5d65 c4bc
000002b0: 435f 833d a26d 2f3e 44c7 113e 08ca 393e
000002c0: e61e 1c3e 0203 3abe e6e0 a9bd 95f6 66be
000002d0: 72b2 193d 62c3 a9be 09f6 0cbe d48a 763b
000002e0: eaf8 093e f504 61be a582 053e 3907 ffbe
000002f0: 1ea5 dbbc 5c28 ad3d 9bfb 083d 6bd0 2dbd
00000300: 2943 80ba b9dd 07be 04f6 0e3e 1824 96be
00000310: 6e2a 2a3c c9e4 a3bd 641e 88bd 4032 6c3e
00000320: 7772 8d3d e12f ba3d 1c7d 023e b8e4 7dbe
00000330: 045e 71be b86b 57be 0efb db3d fc53 653d
00000340: 2ca0 113d 2e64 a93d b101 153e 4e16 be3d
00000350: 841c 52be 8b56 603e a0d8 823c 827a 003b
00000360: cb6b 5db9 6933 86bd a4fb 9cbd 68b9 bbbd
00000370: bc3f 3abd 8439 6c3e cb15 4dbe f60d 9c3d
00000380: 3f00 e73b 7d7f 313e f601 9cbd 7970 d73d
00000390: ba18 d9bc 79a8 403e 4565 97bc 8d45 36be
000003a0: 3020 cabc e94c 7bbd 7e30 ea3c 80f5 9e3e
000003b0: dce7 e73b 8c59 f73d b850 f9bd c4f9 4dbe
000003c0: 7854 e8bc a489 72be b49a 763d f2ca 37be
000003d0: 94d2 473d 0062 51be 07db 80be 8506 0f3e
000003e0: 5b72 8d3d 39cb 6e3e 4753 853e 4d4c d7bc
000003f0: 98e7 183e c605 723d 5906 8b3e 40ba 553e

recurrent_weights f4 [80, 80]
0.0 0.03727945 0.15622695 -0.29471758 -0.020537984 -0.06537953 -0.07345211 0.14844185
0.07931 0.289552 -0.22718976 -0.08721513 -0.08395823 0.2240377 0.23473026 -0.02814472
-0.0835066 0.011426434 -0.014228019 -0.048792653 -0.0105398595 -0.09611013 0.06288456 0.022477562
0.04020738 0.0147321895 -0.033115838 0.17826027 -0.19592409 0.4657409 0.10516829 -0.060126502
-0.018110735 -0.15724461 0.12586926 -0.14671572 -0.049129255 0.08150827 -0.089639105 -0.11397507
-0.10094702 -0.23977739 0.06449424 0.21645977 -0.085410774 -0.16160072 0.051545445 0.004349768
0.21255253 0.09179156 -0.08911912 -0.00096995576 -0.2018567 0.13358773 0.06279936 0.003810947
0.065347284 -0.12964292 0.11438572 -0.11215179 -0.09236545 0.035654508 0.2710514 -0.2316082
0.16787441 0.14324404 -0.08457246 -0.033071432 -0.041210018 0.09123481 0.24607825 -0.12726665
-0.13584682 -0.11475768 -0.36718357 0.13545503 0.057805996 -0.09360966 0.0863075 -0.081086986
-0.06483955 0.0 -0.018604055 0.06613357 -0.017495655 0.1360813 -0.032654263 -0.1911597
-0.057049103 0.008915082 0.011503153 0.010408495 0.16408052 -0.14096473 0.034400955 0.0049257446
0.11922998 0.07637953 0.1271396 -0.0009050578 -0.031722426 -0.16977379 0.03890339 0.044934444
-0.11651725 -0.12914462 -0.08720975 -0.34820184 -0.12403842 -0.27370203 -0.18757394 0.0824072
0.31507573 -0.09025347 0.18469618 -0.11020323 0.041989002 -0.06916895 0.0064138807 -0.16120918
-0.108231656 -0.17143872 -0.2446917 -0.071627185 0.10298738 -0.06269378 0.01868105 0.09910352
0.11429862 -0.07201017 -0.020044781 0.14207593 -0.11010575 0.32413998 0.0013527432 0.014454206
0.016961904 0.051372558 0.062856995 0.17357701 0.07327506 0.07416213 -0.11669183 -0.078406006
0.08640423 0.049954217 0.0880044 -0.1747959 0.2674191 -0.14687213 -0.15194678 0.07486215
-0.042965837 0.11684879 -0.09806055 -0.22262472 -0.22472464 0.050372798 -0.0212373 0.22522783
0.08424123 -0.09683522 0.0 -0.05319664 0.13181175 -0.08691928 0.064089715 -0.25177628
0.11159341 -0.08879063 0.043102827 -0.09505689 -0.019775735 -0.31371832 -0.17543747 -0.14710753
0.24705248 -0.1521653 -0.3168503 0.12407242 0.008515625 -0.25739816 -0.17348106 0.28823242
0.17055508 0.0791018 -0.10843619 0.12391919 0.35890836 -0.19701211 -0.07051602 -0.118961036
0.046789285 -0.13905475 0.060453545 -0.012804984 0.23241694 -0.068601534 -0.031422164 -0.034872692
-0.14845555 0.13700938 -0.20897734 -0.10929093 -0.0823202 -0.019345002 0.018147202 0.0924097
0.008378302 0.013388919 0.14532802 -0.12147662 0.06739885 -0.1753816 -0.3622027 -0.024126917
-0.046857197 0.32127383 -0.41035137 0.102197796 0.21114564 0.12176643 -0.28353006 -0.10591243
0.2973675 -0.019529955 0.07104115 0.17881149 0.06219603 -0.039169405 0.08615037 -0.0358123
0.18989651 -0.01396817 0.13178714 0.08020877 0.10662557 0.11886737 -0.12789506 -0.12160916
-0.023153024 0.05546684 -0.04380521 0.0 -0.09923819 0.111419074 -0.033376426 -0.012881865
-0.016268007 0.0882319 0.24987315 -0.018994544 -0.21586896 0.02161467 -0.048202597 0.064415224
00000000: 0000 0000 56b2 183d f5f9 1f3e 39e5 96be
00000010: 463f a8bc b4e5 85bd 0f6e 96bd 2401 183e
00000020: 486d a23d 2940 943e 6fa4 68be d99d b2bd
00000030: 4bf2 abbd 246a 653e 215d 703e c18f e6bc
00000040: 8205 abbd f035 3b3c a31c 69bc ceda 47bd
00000050: 60af 2cbc 63d5 c4bd 9fc9 803d dd22 b83c
00000060: 7eb0 243d 485f 713c 79a4 07bd dc89 363e
00000070: 53a0 48be 9775 ee3e 7962 d73d 3547 76bd
00000080: f75c 94bc bb04 21be dfe3 003e a53c 16be
00000090: c23b 49bd cfed a63d b594 b7bd c36b e9bd
000000a0: 50bd cebd 3488 75be 8e15 843d a1a7 5d3e
000000b0: d8eb aebd a97a 25be 5121 533d 8088 8e3b
000000c0: 5fa7 593e 37fd bb3d 1684 b6bd a144 7eba
000000d0: 86b3 4ebe 39cb 083e f39c 803d 15c1 793b
000000e0: ccd4 853d 1dc1 04be 0f43 ea3d d6af e5bd
000000f0: 192a bdbd 760a 123d 40c7 8a3e b32a 6dbe
00000100: 45e7 2b3e 91ae 123e 5334 adbd e975 07bd
00000110: d6cb 28bd 51d9 ba3d f0fb 7b3e 3052 02be
00000120: 6e1b 0bbe 1306 ebbd 7cff bbbe b9b4 0a3e
00000130: fbc5 6c3d 6cb6 bfbd fdc1 b03d ef10 a6bd
00000140: 99ca 84bd 0000 0000 8867 98bc 0a71 873d
00000150: 0c53 8fbc e558 0b3e 7ac0 05bd 5ebf 43be
00000160: 52ac 69bd 9010 123c b877 3c3c 6488 2a3c
00000170: b904 283e 0f59 10be 04e8 0c3d 2468 a13b
00000180: d92e f43d df6c 9c3d e230 023e 6741 6dba
00000190: 60ef 01bd 2ed9 2dbe 2959 1f3d 2e0d 383d
000001a0: 99a0 eebd 7d3e 04be 079b b2bd 8347 b2be
000001b0: db07 febd ac22 8cbe 6213 40be 1bc5 a83d
000001c0: 9b51 a13e d0d6 b8bd ff20 3d3e 3bb2 e1bd
000001d0: a9fc 2b3d 73a8 8dbd 882b d23b 0514 25be
000001e0: 8fa8 ddbd a28d 2fbe 7690 7abe 46b1 92bd
000001f0: 0ceb d23d 9965 80bd 0009 993c c9f6 ca3d
00000200: 6515 ea3d 117a 93bd f434 a4bc 5a7c 113e
00000210: 207f e1bd adf5 a53e 884e b13a 56d1 6c3c
00000220: b1f3 8a3c 086c 523d 2bbb 803d 2cbe 313e
00000230: 3c11 963d 51e2 973d 20fc eebd 5493 a0bd
00000240: b3f4 b03d cb9c 4c3d a73b b43d b2fd 32be
00000250: 28eb 883e a665 16be f097 1bbe 5451 993d
00000260: f2fc 2fbd 6b4e ef3d f8d3 c8bd bcf7 63be
00000270: 371e 66be b553 4e3d d9f9 adbc 20a2 663e
00000280: aa86 ac3d 8b51 c6bd 0000 0000 b8e4 59bd
00000290: a9f9 063e bc02 b2bd 7841 833d d2e8 80be
000002a0: 168b e43d ddd7 b5bd 978c 303d 30ad c2bd
000002b0: b900 a2bc b09f a0be e1a5 33be 5ba3 16be
000002c0: 53fb 7c3e 38d1 1bbe 343a a2be ae19 fe3d
000002d0: 1f85 0b3c b1c9 83be 05a5 31be 3393 933e
000002e0: fea5 2e3e 2000 a23d cb13 debd 58c9 fd3d
000002f0: d6c2 b73e 8bbd 49be b46a 90bd d8a1 f3bd
00000300: 1fa6 3f3d 5e64 0ebe 239e 773d ffcb 51bc
00000310: b5fe 6d3e f67e 8cbd 87b4 00bd abd6 0ebd
00000320: bb04 18be 304c 0c3e 28fe 55be ecd3 dfbd
00000330: 7e97 a8bd 6979 9ebc 71a9 943c 4c41 bd3d
00000340: 2545 093c 325d 5b3c ded0 143e bcc8 f8bd
00000350: 6908 8a3d 3c97 33be a272 b9be d0a5 c5bc
00000360: 55ed 3fbd 017e a43e 9319 d2be 144d d13d
00000370: 9036 583e ae60 f93d da2a 91be 9ee8 d8bd
00000380: 8e40 983e 49fd 9fbc 067e 913d 5c1a 373e
00000390: 44c1 7e3d 1970 20bd 9b6f b03d ebaf 12bd
000003a0: 3b74 423e c0da 64bc 35f3 063e 7f44 a43d
000003b0: 825e da3d bc70 f33d ecf6 02be 390e f9bd
000003c0: 69ab bdbc 3231 633d 186d 33bd 0000 0000
000003d0: 643d cbbd af2f e43d b8b5 08bd 750e 53bc
000003e0: 7c44 85bc edb2 b43d bfde 7f3e 729a 9bbc
000003f0: c10c 5dbe 4011 b13c 1670 45bd 21ec 833d

p f4 [80]
200.0 200.0 200.0 200.0 200.0 200.0 200.0 200.0
200.0 200.0 200.0 200.0 200.0 200.0 200.0 200.0
200.0 200.0 200.0 200.0 200.0 200.0 200.0 200.0
200.0 200.0 200.0 200.0 200.0 200.0 200.0 200.0
200.0 200.0 200.0 200.0 200.0 200.0 200.0 200.0
200.0 200.0 200.0 200.0 200.0 200.0 200.0 200.0
200.0 200.0 200.0 200.0 200.0 200.0 200.0 200.0
200.0 200.0 200.0 200.0 200.0 200.0 200.0 200.0
200.0 200.0 200.0 200.0 200.0 200.0 200.0 200.0
200.0 200.0 200.0 200.0 200.0 200.0 200.0 200.0
00000000: 0000 4843 0000 4843 0000 4843 0000 4843
00000010: 0000 4843 0000 4843 0000 4843 0000 4843
00000020: 0000 4843 0000 4843 0000 4843 0000 4843
00000030: 0000 4843 0000 4843 0000 4843 0000 4843
00000040: 0000 4843 0000 4843 0000 4843 0000 4843
00000050: 0000 4843 0000 4843 0000 4843 0000 4843
00000060: 0000 4843 0000 4843 0000 4843 0000 4843
00000070: 0000 4843 0000 4843 0000 4843 0000 4843
00000080: 0000 4843 0000 4843 0000 4843 0000 4843
00000090: 0000 4843 0000 4843 0000 4843 0000 4843
000000a0: 0000 4843 0000 4843 0000 4843 0000 4843
000000b0: 0000 4843 0000 4843 0000 4843 0000 4843
000000c0: 0000 4843 0000 4843 0000 4843 0000 4843
000000d0: 0000 4843 0000 4843 0000 4843 0000 4843
000000e0: 0000 4843 0000 4843 0000 4843 0000 4843
000000f0: 0000 4843 0000 4843 0000 4843 0000 4843
00000100: 0000 4843 0000 4843 0000 4843 0000 4843
00000110: 0000 4843 0000 4843 0000 4843 0000 4843
00000120: 0000 4843 0000 4843 0000 4843 0000 4843
00000130: 0000 4843 0000 4843 0000 4843 0000 4843

p f4 [80]
100.0 100.0 100.0 100.0 100.0 100.0 100.0 100.0
100.0 100.0 100.0 100.0 100.0 100.0 100.0 100.0
100.0 100.0 100.0 100.0 100.0 100.0 100.0 100.0
100.0 100.0 100.0 100.0 100.0 100.0 100.0 100.0
100.0 100.0 100.0 100.0 100.0 100.0 100.0 100.0
100.0 100.0 100.0 100.0 100.0 100.0 100.0 100.0
100.0 100.0 100.0 100.0 100.0 100.0 100.0 100.0
100.0 100.0 100.0 100.0 100.0 100.0 100.0 100.0
100.0 100.0 100.0 100.0 100.0 100.0 100.0 100.0
100.0 100.0 100.0 100.0 100.0 100.0 100.0 100.0
00000000: 0000 c842 0000 c842 0000 c842 0000 c842
00000010: 0000 c842 0000 c842 0000 c842 0000 c842
00000020: 0000 c842 0000 c842 0000 c842 0000 c842
00000030: 0000 c842 0000 c842 0000 c842 0000 c842
00000040: 0000 c842 0000 c842 0000 c842 0000 c842
00000050: 0000 c842 0000 c842 0000 c842 0000 c842
00000060: 0000 c842 0000 c842 0000 c842 0000 c842
00000070: 0000 c842 0000 c842 0000 c842 0000 c842
00000080: 0000 c842 0000 c842 0000 c842 0000 c842
00000090: 0000 c842 0000 c842 0000 c842 0000 c842
000000a0: 0000 c842 0000 c842 0000 c842 0000 c842
000000b0: 0000 c842 0000 c842 0000 c842 0000 c842
000000c0: 0000 c842 0000 c842 0000 c842 0000 c842
000000d0: 0000 c842 0000 c842 0000 c842 0000 c842
000000e0: 0000 c842 0000 c842 0000 c842 0000 c842
000000f0: 0000 c842 0000 c842 0000 c842 0000 c842
00000100: 0000 c842 0000 c842 0000 c842 0000 c842
00000110: 0000 c842 0000 c842 0000 c842 0000 c842
00000120: 0000 c842 0000 c842 0000 c842 0000 c842
00000130: 0000 c842 0000 c842 0000 c842 0000 c842

p f4 [80]
1.0 1.0 1.0 1.0 1.0 1.0 1.0 1.0
1.0 1.0 1.0 1.0 1.0 1.0 1.0 1.0
1.0 1.0 1.0 1.0 1.0 1.0 1.0 1.0
1.0 1.0 1.0 1.0 1.0 1.0 1.0 1.0
1.0 1.0 1.0 1.0 1.0 1.0 1.0 1.0
1.0 1.0 1.0 1.0 1.0 1.0 1.0 1.0
1.0 1.0 1.0 1.0 1.0 1.0 1.0 1.0
1.0 1.0 1.0 1.0 1.0 1.0 1.0 1.0
1.0 1.0 1.0 1.0 1.0 1.0 1.0 1.0
1.0 1.0 1.0 1.0 1.0 1.0 1.0 1.0
00000000: 0000 803f 0000 803f 0000 803f 0000 803f
00000010: 0000 803f 0000 803f 0000 803f 0000 803f
00000020: 0000 803f 0000 803f 0000 803f 0000 803f
00000030: 0000 803f 0000 803f 0000 803f 0000 803f
00000040: 0000 803f 0000 803f 0000 803f 0000 803f
00000050: 0000 803f 0000 803f 0000 803f 0000 803f
00000060: 0000 803f 0000 803f 0000 803f 0000 803f
00000070: 0000 803f 0000 803f 0000 803f 0000 803f
00000080: 0000 803f 0000 803f 0000 803f 0000 803f
00000090: 0000 803f 0000 803f 0000 803f 0000 803f
000000a0: 0000 803f 0000 803f 0000 803f 0000 803f
000000b0: 0000 803f 0000 803f 0000 803f 0000 803f
000000c0: 0000 803f 0000 803f 0000 803f 0000 803f
000000d0: 0000 803f 0000 803f 0000 803f 0000 803f
000000e0: 0000 803f 0000 803f 0000 803f 0000 803f
000000f0: 0000 803f 0000 803f 0000 803f 0000 803f
00000100: 0000 803f 0000 803f 0000 803f 0000 803f
00000110: 0000 803f 0000 803f 0000 803f 0000 803f
00000120: 0000 803f 0000 803f 0000 803f 0000 803f
00000130: 0000 803f 0000 803f 0000 803f 0000 803f

p f4 [80]
0.0 0.0 0.0 0.0 0.0 0.0 0.0 0.0
0.0 0.0 0.0 0.0 0.0 0.0 0.0 0.0
0.0 0.0 0.0 0.0 0.0 0.0 0.0 0.0
0.0 0.0 0.0 0.0 0.0 0.0 0.0 0.0
0.0 0.0 0.0 0.0 0.0 0.0 0.0 0.0
0.0 0.0 0.0 0.0 0.0 0.0 0.0 0.0
0.0 0.0 0.0 0.0 0.0 0.0 0.0 0.0
0.0 0.0 0.0 0.0 0.0 0.0 0.0 0.0
0.0 0.0 0.0 0.0 0.0 0.0 0.0 0.0
0.0 0.0 0.0 0.0 0.0 0.0 0.0 0.0
00000000: 0000 0000 0000 0000 0000 0000 0000 0000
00000010: 0000 0000 0000 0000 0000 0000 0000 0000
00000020: 0000 0000 0000 0000 0000 0000 0000 0000
00000030: 0000 0000 0000 0000 0000 0000 0000 0000
00000040: 0000 0000 0000 0000 0000 0000 0000 0000
00000050: 0000 0000 0000 0000 0000 0000 0000 0000
00000060: 0000 0000 0000 0000 0000 0000 0000 0000
00000070: 0000 0000 0000 0000 0000 0000 0000 0000
00000080: 0000 0000 0000 0000 0000 0000 0000 0000
00000090: 0000 0000 0000 0000 0000 0000 0000 0000
000000a0: 0000 0000 0000 0000 0000 0000 0000 0000
000000b0: 0000 0000 0000 0000 0000 0000 0000 0000
000000c0: 0000 0000 0000 0000 0000 0000 0000 0000
000000d0: 0000 0000 0000 0000 0000 0000 0000 0000
000000e0: 0000 0000 0000 0000 0000 0000 0000 0000
000000f0: 0000 0000 0000 0000 0000 0000 0000 0000
00000100: 0000 0000 0000 0000 0000 0000 0000 0000
00000110: 0000 0000 0000 0000 0000 0000 0000 0000
00000120: 0000 0000 0000 0000 0000 0000 0000 0000
00000130: 0000 0000 0000 0000 0000 0000 0000 0000

super f4 [80]
100.0 100.0 100.0 100.0 100.0 100.0 100.0 100.0
100.0 100.0 100.0 100.0 100.0 100.0 100.0 100.0
100.0 100.0 100.0 100.0 100.0 100.0 100.0 100.0
100.0 100.0 100.0 100.0 100.0 100.0 100.0 100.0
100.0 100.0 100.0 100.0 100.0 100.0 100.0 100.0
100.0 100.0 100.0 100.0 100.0 100.0 100.0 100.0
100.0 100.0 100.0 100.0 100.0 100.0 100.0 100.0
100.0 100.0 100.0 100.0 100.0 100.0 100.0 100.0
100.0 100.0 100.0 100.0 100.0 100.0 100.0 100.0
100.0 100.0 100.0 100.0 100.0 100.0 100.0 100.0
00000000: 0000 c842 0000 c842 0000 c842 0000 c842
00000010: 0000 c842 0000 c842 0000 c842 0000 c842
00000020: 0000 c842 0000 c842 0000 c842 0000 c842
00000030: 0000 c842 0000 c842 0000 c842 0000 c842
00000040: 0000 c842 0000 c842 0000 c842 0000 c842
00000050: 0000 c842 0000 c842 0000 c842 0000 c842
00000060: 0000 c842 0000 c842 0000 c842 0000 c842
00000070: 0000 c842 0000 c842 0000 c842 0000 c842
00000080: 0000 c842 0000 c842 0000 c842 0000 c842
00000090: 0000 c842 0000 c842 0000 c842 0000 c842
000000a0: 0000 c842 0000 c842 0000 c842 0000 c842
000000b0: 0000 c842 0000 c842 0000 c842 0000 c842
000000c0: 0000 c842 0000 c842 0000 c842 0000 c842
000000d0: 0000 c842 0000 c842 0000 c842 0000 c842
000000e0: 0000 c842 0000 c842 0000 c842 0000 c842
000000f0: 0000 c842 0000 c842 0000 c842 0000 c842
00000100: 0000 c842 0000 c842 0000 c842 0000 c842
00000110: 0000 c842 0000 c842 0000 c842 0000 c842
00000120: 0000 c842 0000 c842 0000 c842 0000 c842
00000130: 0000 c842 0000 c842 0000 c842 0000 c842

weight f4 [4, 80]
0.024820128 0.099636346 0.10883461 -0.07293506 0.065446906 0.018309852 0.05698777 0.016004387
0.021519715 -0.027739493 -0.059672456 -0.07561242 0.0798264 -0.053825904 -0.018188447 0.033425182
0.015182862 -0.07115456 0.03459907 -0.0859946 0.06761196 0.01326948 0.084444575 -0.06545153
-0.046961714 -0.023477253 -0.07196433 -0.017492885 0.039583452 0.09218467 -0.10236821 -0.053545013
0.048343573 0.046028152 -0.008841971 0.040556315 -0.103993334 0.023017796 0.012361203 -0.111178644
0.027549664 -0.10070521 0.110220455 -0.0655106 -0.06661319 0.013572693 0.06361171 0.0009569773
-0.074225634 -0.00052878854 -0.046207722 0.097853266 -0.06614688 -0.056445576 0.102816366 -0.06315913
-0.062948324 -0.029426113 -0.074295916 0.10055255 0.099203385 0.11163054 -0.039543573 -0.029271707
-0.017775891 -0.08779721 -0.081613526 -0.038693167 -0.007479569 0.010872586 0.022117821 0.07701947
-0.08334105 0.045701724 -0.091265984 -0.07847884 0.0515486 -0.080352426 -0.010782795 0.11049756
-0.014732509 -0.007998135 0.011890192 -0.07802901 0.088041835 0.09039153 -0.08650795 0.07734408
-0.0030520728 -0.041576985 -0.02421673 0.029343093 0.039563525 0.06196882 0.047516678 0.0054598833
-0.056587465 -0.05551216 0.04273703 -0.021432802 0.0040670536 -0.030039335 -0.08528839 0.10678596
-0.10955447 -0.087324575 -0.04962801 -0.044925593 0.099210516 0.102366425 0.063084796 -0.081809394
-0.060603473 -0.010530029 0.031090355 0.039268844 -0.05382937 -0.06895688 0.045783304 -0.038754143
-0.020187061 0.06815932 0.06174252 -0.056938086 0.09184869 -0.09121937 -0.02004717 -0.04302353
-0.09701507 0.09736308 0.039966352 -0.032612972 0.03269271 -0.006649701 -0.0418959 0.0984469
-0.07239934 0.08585755 0.0789125 0.010229736 0.10121158 -0.06381479 -0.110499196 -0.059461717
-0.019543665 -0.041727033 0.033002455 0.04029153 0.07359224 -0.07820431 0.07305882 -0.0020247502
-0.08795172 -0.00069185667 -0.00069554854 -0.11028562 -0.01087036 0.08534552 -0.03122298 -0.10631539
-0.03689526 0.079193994 0.05593618 -0.0024467416 -0.10278117 0.00023783822 -0.0798383 0.025259793
-0.0745484 0.10484993 0.08171587 0.062436685 0.11123928 -0.06148864 -0.06660133 -0.03547208
0.08178851 -0.06036677 0.06061664 -0.04990299 -0.012184874 -0.04783339 -0.057896234 0.049904242
-0.03031713 0.06717775 -0.09150429 -0.001644649 -0.014806492 0.084077366 -0.11162395 0.08769637
0.00033994406 -0.073590904 -0.035965603 0.06205717 -0.04092029 -0.09856819 -0.020501629 -0.03668177
0.094191305 -0.07964148 -0.0387909 -0.10015867 -0.07898897 0.023110865 -0.10736068 -0.062879905
0.09931507 -0.057461876 0.0971323 0.100926064 0.08684086 0.065087676 -0.0913093 0.042692993
-0.054593567 0.0928306 0.10636237 -0.082990415 -0.03084228 -0.05856209 -0.013673065 0.03287127
-0.081881456 -0.091982454 0.0688518 0.021365909 0.10919897 0.011258924 0.014724272 -0.030352343
0.016423553 0.016503787 0.0917816 -0.09586016 -0.08742534 -0.06848081 -0.0906453 0.093350284
0.04240767 -0.07288606 -0.0021089034 0.0998004 0.03866731 -0.01738478 0.060592797 0.10368651
-0.03443155 -0.043238964 -0.06816696 0.013307159 -0.014541652 0.047498565 -0.03082922 0.08693549
00000000: 9553 cb3c 240e cc3d aee4 de3d fa5e 95bd
00000010: 0709 863d 8bfe 953c 026c 693d a21b 833c
00000020: 1d4a b03c ef3d e3bc 1b6b 74bd afda 9abd
00000030: 067c a33d 8d78 5cbd f0ff 94bc d8e8 083d
00000040: 8ac1 783c 7bb9 91bd c1b7 0d3d f01d b0bd
00000050: 2478 8a3d 3c68 593c 47f1 ac3d 740b 86bd
00000060: ed5a 40bd 5e53 c0bc 0962 93bd 3d4d 8fbc
00000070: 4222 223d 51cb bc3d 6da6 d1bd 0452 5bbd
00000080: e903 463d 0488 3c3d eadd 10bc 611e 263d
00000090: 75fa d4bd d18f bc3c a586 4a3c a1b1 e3bd
000000a0: d5af e13c 883e cebd 43bb e13d 6c2a 86bd
000000b0: 7f6c 88bd 0060 5e3c db46 823d a9dd 7a3a
000000c0: 9c03 98bd 669e 0aba 4f44 3dbd 4b67 c83d
000000d0: 0478 87bd 7a33 67bd 6391 d23d 9359 81bd
000000e0: 0deb 80bd 080f f1bc 7528 98bd 7fee cd3d
000000f0: 252b cb3d 8d9e e43d 71f8 21bd 38cb efbc
00000100: bf9e 91bc 06cf b3bd fe24 a7bd ba7c 1ebd
00000110: 2c17 f5bb ee22 323c 6f30 b53c 62bc 9d3d
00000120: b6ae aabd bb31 3b3d a9e9 babd 84b9 a0bd
00000130: a024 533d d08f a4bd 52aa 30bc 8b4c e23d
00000140: 9f60 71bc 9c0a 03bc 14cf 423c accd 9fbd
00000150: 474f b43d 321f b93d 152b b1bd 9366 9e3d
00000160: 4905 48bb a14c 2abd 2a62 c6bc ed60 f03c
00000170: 5d0d 223d 04d3 7d3d d9a0 423d d2e8 b23b
00000180: 42c8 67bd b860 63bd 060d 2f3d d893 afbc
00000190: eb44 853b 0d15 f6bc aeab aebd 99b2 da3d
000001a0: 185e e0bd 3ad7 b2bd bd46 4bbd e603 38bd
000001b0: e22e cb3d 7da5 d13d 9a32 813d af8b a7bd
000001c0: 593b 78bd 2586 2cbc 33b1 fe3c 5ed8 203d
000001d0: 2f7c 5cbd 4439 8dbd 4687 3b3d aabc 1ebd
000001e0: 565f a5bc 1d97 8b3d bae5 7c3d e937 69bd
000001f0: 2a1b bc3d 39d1 babd f639 a4bc 7139 30bd
00000200: d6af c6bd 4b66 c73d c2b3 233d 2e95 05bd
00000210: cbe8 053d bce5 d9bb 099b 2bbd 879e c93d
00000220: 1b46 94bd 15d6 af3d e09c a13d 9f9a 273c
00000230: 0448 cf3d 54b1 82bd 674d e2bd 218e 73bd
00000240: 091a a0bc f7e9 2abd 952d 073d bb08 253d
00000250: 87b7 963d 9529 a0bd dd9f 953d acb1 04bb
00000260: 0820 b4bd b75d 35ba 7955 36ba 6ddd e1bd
00000270: 9819 32bc a2c9 ae3d 56c7 ffbc e2bb d9bd
00000280: 7c1f 17bd 7630 a23d 561d 653d 8359 20bb
00000290: ef7e d2bd 3664 7939 4382 a3bd a0ed ce3c
000002a0: d5ac 98bd 8fbb d63d a65a a73d 9cbd 7f3d
000002b0: 6bd1 e33d 83db 7bbd 4766 88bd 2c4b 11bd
000002c0: bc80 a73d 2543 77bd 2749 783d 1467 4cbd
000002d0: 11a3 47bc f2ec 43bd 9a24 6dbd 6468 4c3d
000002e0: a15b f8bc 7d94 893d 9a66 bbbd 4391 d7ba
000002f0: ee96 72bc c130 ac3d 199b e4bd 289a b33d
00000300: 853a b239 d4b6 96bd ab50 13bd a92f 7e3d
00000310: 099c 27bd 1fde c9bd 08f3 a7bc a03f 16bd
00000320: 5fe7 c03d 131b a3bd 35e3 1ebd fd1f cdbd
00000330: f8c4 a1bd ff52 bd3c ebdf dbbd 2ec7 80bd
00000340: b365 cb3d 255d 6bbd 4ded c63d 53b2 ce3d
00000350: 9fd9 b13d b04c 853d 5f00 bbbd d9de 2e3d
00000360: 819d 5fbd f81d be3d 84d4 d93d e1f6 a9bd
00000370: f3a8 fcbc cdde 6fbd fe04 60bc 06a4 063d
00000380: 77b1 a7bd 4c61 bcbd 2c02 8d3d 8f07 af3c
00000390: b6a3 df3d 5a77 383c 133e 713c 7aa5 f8bc
000003a0: b08a 863c f332 873c fef7 bb3d 5552 c4bd
000003b0: 0f0c b3bd ab3f 8cbd 3ea4 b9bd 6f2e bf3d
000003c0: aab3 2d3d 4945 95bd 8735 0abb 2764 cc3d
000003d0: 9d61 1e3d 876a 8ebc 2730 783d 9859 d43d
000003e0: 1908 0dbd 571b 31bd 1e9b 8bbd 4506 5a3c
000003f0: 1c40 6ebc db8d 423d 8f8d fcbc 3c0b b23d

bias f4 [4]
-0.0062369592 -0.043548517 4.334267e-05 -0.0060143415
00000000: 685f ccbb ee5f 32bd d6ca 3538 f413 c5bb

weight f4 [256, 80]
0.6322692 2.0608034 -0.5875017 -0.5386288 -0.5157437 -0.12614183 -1.8422763 -0.9720891
-0.92893684 0.13403152 0.42770654 -0.5136384 -0.6985835 1.2677753 -0.5513053 -0.5411856
0.4438342 0.14171615 -0.27314883 0.4848927 0.7538167 0.008087379 -0.746041 1.2184281
-0.16805665 -0.66964424 1.2719699 -0.03296074 -1.1693547 -1.0323892 -0.70897394 -2.3996544
1.3768339 -1.4060137 1.3291266 1.509009 0.49594837 0.6113275 0.50293255 0.15017046
-0.017280418 -0.17566106 -0.5491772 -0.36336935 0.20276405 0.62501216 0.27678606 0.578281
1.1296303 0.7450975 -1.721895 0.6637623 0.055122033 -0.6661964 -0.039194603 -1.068952
1.5980483 -1.166695 -1.0265179 -0.9218886 -1.4609973 -0.4538697 0.42401537 -1.8979852
1.2112516 0.012831389 0.976748 -0.32150266 0.31846943 0.51767063 1.5778189 -0.11365321
-1.2248058 0.4621967 0.51385987 0.59438777 0.6943235 0.8858044 1.7043637 -1.2447909
0.19776338 0.44126442 -0.46060884 1.2461416 2.3941395 0.20288731 1.3595957 -1.1352752
1.3368696 -0.9426883 -0.07501983 -0.7617221 -0.5716061 0.59785414 -0.19192763 0.28503552
-0.3654532 0.0926381 -0.026062096 -1.6187819 -1.5838464 1.5594043 -1.5259159 1.0914689
-2.3473299 -0.68790805 0.2287317 -0.741061 -0.6724348 -1.9586641 -0.37456924 1.3215959
-1.4338188 1.0129803 -0.39706814 -1.1222475 0.27696362 1.4789753 1.228569 -0.26863632
1.9201962 -1.2902945 -0.37449765 -0.4389723 -1.9009678 1.308386 -0.44784766 -1.2574427
-1.1124593 0.73720336 0.32367596 -1.170666 -0.51998025 0.12585169 0.3207422 -0.18267754
0.005887555 1.0621412 -0.28267378 -1.7798845 -1.2407008 0.6875991 0.59701896 0.5900622
0.14808339 0.32917827 0.4026465 -0.14655249 -0.027610686 1.5891027 -1.5741304 0.16123255
-0.8209855 -0.7733842 0.3868783 1.2367306 -0.9187735 -0.70192266 -1.4221663 -0.32368484
0.89519244 -1.1966304 0.2869554 0.6178536 -2.277355 -1.0711251 0.38305768 -0.37299994
0.62482345 -0.25370416 1.8650143 -1.4973985 -0.7709147 1.4401475 1.5260366 -0.8132076
1.0030143 0.68300277 -1.5568752 0.3002868 -0.0022143254 0.55205864 -1.2849684 0.50074315
1.3306769 0.93907 -1.4564519 -0.5352697 0.12549923 -0.38385814 1.189248 -1.6851691
0.025924372 -1.418663 0.3464398 1.4255875 -0.5541704 -1.3880005 -0.008747621 -0.93251604
-1.2875103 -0.6779475 2.4665365 1.8330318 0.55673265 1.3263519 0.81692773 -0.0026151238
-2.479798 1.0510933 1.1169491 0.0919923 -2.4624593 -1.1359335 1.0994117 1.7821621
1.2104672 0.62025636 0.38901827 -0.7618073 -0.17888385 2.3663433 -0.28454065 0.5361082
-1.0418432 -0.71862024 -0.7180971 -0.8017181 1.6590663 0.298619 0.38164583 1.4777824
0.58205426 -2.4336705 -0.78529817 -0.8417144 1.3239155 0.39408362 -0.2464179 -0.6842974
0.40703934 -0.046553265 -0.37698936 -1.0526363 1.6449065 -0.62151015 -0.45807022 0.031012446
-0.58384496 -0.81254005 -1.3855394 -0.24438517 0.16961166 1.0602512 -0.40117016 -1.0333154
00000000: 65dc 213f 34e4 0340 8366 16bf 94e3 09bf
00000010: c707 04bf 532b 01be b6cf ebbf d5da 78bf
00000020: cece 6dbf 8f3f 093e 5afc da3e ce7d 03bf
00000030: 5ed6 32bf 7646 a23f 5822 0dbf 248b 0abf
00000040: 3c3e e33e 0a1e 113e 2ada 8bbe db43 f83e
00000050: 22fa 403f ed80 043c 8bfc 3ebf 74f5 9b3f
00000060: 0b17 2cbe ce6d 2bbf e9cf a23f d701 07bd
00000070: 6aad 95bf 5425 84bf 517f 35bf f093 19c0
00000080: 183c b03f 42f8 b3bf d220 aa3f 3527 c13f
00000090: f2ec fd3e f67f 1c3f 30c0 003f 49c6 193e
000000a0: aa8f 8dbc 7ee0 33be e196 0cbf 8c0b babe
000000b0: 61a1 4f3e cc00 203f e7b6 8d3e 390a 143f
000000c0: ba97 903f b6be 3e3f 0e67 dcbf 53ec 293f
000000d0: a4c7 613d d98b 2abf 858a 20bd 6bd3 88bf
000000e0: d98c cc3f 4356 95bf f064 83bf e400 6cbf
000000f0: f601 bbbf 9c61 e8be 8b18 d93e 2ef1 f2bf
00000100: 4b0a 9b3f bf3a 523c 280c 7a3f ff9b a4be
00000110: 6d0e a33e 1086 043f f8f5 c93f 04c3 e8bd
00000120: 70c6 9cbf 0ca5 ec3e 528c 033f cc29 183f
00000130: 2fbf 313f 14c4 623f 9728 da3f 4f55 9fbf
00000140: 7c82 4a3e 69ed e13e ecd4 ebbe 9181 9f3f
00000150: 9539 1940 b1c1 4f3e 3b07 ae3f b350 91bf
00000160: 8b1e ab3f 0554 71bf ffa3 99bd 3800 43bf
00000170: c754 12bf f80c 193f ad88 44be 2df0 913e
00000180: af1c bbbe 0bb9 bd3d 2d80 d5bc 3f34 cfbf
00000190: 7bbb cabf 8f9a c73f 3651 c3bf 41b5 8b3f
000001a0: a73a 16c0 be1a 30bf a538 6a3e 2cb6 3dbf
000001b0: b024 2cbf 81b5 fabf 8ac7 bfbe 0e2a a93f
000001c0: 6087 b7bf 57a9 813f 844c cbbe cea5 8fbf
000001d0: 2dce 8d3e 104f bd3f c041 9d3f b38a 89be
000001e0: fdc8 f53f 5f28 a5bf 28be bfbe fac0 e0be
000001f0: ea52 f3bf 3179 a73f 4a4c e5be e2f3 a0bf
00000200: 1165 8ebf 5cb9 3c3f dbb8 a53e 62d8 95bf
00000210: 6d1d 05bf 44df 003e 5238 a43e d20f 3bbe
00000220: 64ec c03b 3ef4 873f 9eba 90be 41d3 e3bf
00000230: 49cf 9ebf 7f06 303f 3cd6 183f 510e 173f
00000240: 2ca3 173e 0e8a a83e af27 ce3e db11 16be
00000250: ce2f e2bc b867 cb3f 1b7d c9bf 251a 253e
00000260: 1b2c 52bf 82fc 45bf ea14 c63e 304d 9e3f
00000270: bd34 6bbf 34b1 33bf 8c09 b6bf 05ba a5be
00000280: 552b 653f 2f2b 99bf d1eb 923e a72b 1e3f
00000290: 2fc0 11c0 a11a 89bf 2320 c43e d9f9 bebe
000002a0: 6ef4 1f3f 83e5 81be cab8 ee3f c1aa bfbf
000002b0: aa5a 45bf c156 b83f 2b55 c33f 602e 50bf
000002c0: c662 803f 45d9 2e3f b047 c7bf 31bf 993e
000002d0: 371e 11bb b753 0d3f d879 a4bf b430 003f
000002e0: 9f53 aa3f e466 703f 046d babf 6f07 09bf
000002f0: df82 003e 0e89 c4be 4739 983f 9fb3 d7bf
00000300: 595f d43c c096 b5bf 8f60 b13e a779 b63f
00000310: 1dde 0dbf 00aa b1bf 2f52 0fbc 5fb9 6ebf
00000320: 23cd a4bf f88d 2dbf bcdb 1d40 c9a0 ea3f
00000330: 0886 0e3f e6c5 a93f 2d22 513f 7f62 2bbb
00000340: 03b5 1ec0 3a8a 863f 30f8 8e3f 7566 bc3d
00000350: ef98 1dc0 4566 91bf 86b9 8c3f e31d e43f
00000360: 97f0 9a3f 1fc9 1e3f 672d c73e ce05 43bf
00000370: 542d 37be 2b72 1740 50af 91be 633e 093f
00000380: 1e5b 85bf 7ff7 37bf 36d5 37bf 663d 4dbf
00000390: 495c d43f 97e4 983e 1567 c33e f927 bd3f
000003a0: 8201 153f 42c1 1bc0 4d09 49bf 987a 57bf
000003b0: 1076 a93f 54c5 c93e f954 7cbe 1d2e 2fbf
000003c0: 7667 d03e a3ae 3ebd c004 c1be c9bc 86bf
000003d0: 4c8c d23f 4a1b 1fbf 2e88 eabe d00d fe3c
000003e0: dd76 15bf a002 50bf 5b59 b1bf 1b40 7abe
000003f0: aeae 2d3e 50b6 873f 2d66 cdbe ae43 84bf
