Alpha_1e-2/Retraining_2/4-PAM_SNN_MMSE_Equalizer_im_dd.pt (torch, 246267 bytes, 11 tensors)

weight f4 [80, 328]
00000000: 7b49 463d 4629 2dbd 4ff5 bb3c 09cc 283d
00000010: 6111 03bc c923 083d 9242 4a3d 16f5 233d
00000020: 37fa 953c 56f9 453b 3a4a 3f3d feb0 a63c
00000030: c4bd 533d 010a 243d 4cf2 1dbd 5d58 bfbc
00000040: fad1 5cbd adfc 063d 1a9e b53b 1b4b 17bd
00000050: 6578 633c a9fa e83c 4089 d73c 1604 1b3d
00000060: cd1b 28bc b73f 24bd 8a02 a8bc 9919 9e3c
00000070: 5299 143d 194a c0bc 19c1 0c3d 27df eabc
00000080: d525 533c ced2 c6bc 36a7 40bd eb0f 9cbb
00000090: 4294 3abd f665 5bbd eda9 4a3d 8295 2dbc
000000a0: e870 48bd 963e 2e3d 93b2 64bc f4c5 82bc
000000b0: 1845 69bc 301e 3bbc 1a0f e7bc 45f1 38bd
000000c0: fc31 0abc 40a5 e9ba 99f7 553d ff6f 953c
000000d0: 778b 89bc 7363 903c d147 7dbc c60a 43bd
000000e0: 77a5 883c 6dd6 243b d41f 063d 44f0 8d3c
000000f0: da74 a83c cec1 0f3c 0c26 4ebd 6eae e73c
00000100: 80d5 0cbd f1fe 8d3c 19a9 4bbd 4a78 3dbc
00000110: b763 ef3c a587 4abd a504 eb3b ff8f a7bc
00000120: 444e 47bc df24 ecba 2744 14bd 80c6 d2bc
00000130: 8076 3b3d 3c82 dabc 4eaa 99bc f629 183d
00000140: c98c cebc 1a6d b93c b97c 69bb b244 babc
00000150: 40dc 92bb 3c0a 32bd 05f5 3b3d e24b 213d
00000160: 3533 04bd a410 a93c 9c10 3fbc c0c9 35bc
00000170: ea28 1abd b31e e3bc 83fb 563c 5767 4cbd
00000180: 5605 d3b8 f7ed 55bd 3f27 23bc c07a e43c
00000190: 2f00 dd3c 1f44 fabb fa9f 3d3d beee 95bb
000001a0: 1764 0a3b f2ff 823c 2b64 c3bc b990 5239
000001b0: 6f8a f43c afc2 273d 673e 21bd 8cd8 38bd
000001c0: 6ffd d13c bbdd 983c d1e9 bc3c 9918 213c
000001d0: b48e b2b9 bc3c 553b b9e3 e53b 2559 f8bc
000001e0: 1fb9 9b3a 9685 35b9 db87 32bc 3015 88bc
000001f0: bc8f 4c3c 2018 ffba db63 ff3c 5351 ac3c
00000200: fb51 73bc e691 77bc deb8 c8bc f38a 1f3d
00000210: 0694 3fbd f71c 253d f7c8 723b a544 34bd
00000220: d513 443d 9747 673c 5e48 a0bc 3a0b 5c3d
00000230: e970 493d 2148 103d e7f7 57bd 4185 503d
00000240: 7c44 2bbd 4ad4 5c3d d9cf afbc 51e1 373c
00000250: 31d5 4ebd 7967 083c f2a4 2a3b 3a33 1fbc
00000260: 4a0d 68bc 7049 9abc ad65 38bd 3deb 1d3d
00000270: 1557 5e3d 7a29 ccbb 69b3 b63c 563a 21bc
00000280: 3d1c 2abd 0e47 89bc 618a b03b 4ee5 bcbb
00000290: 417a 27bd cb21 7c3c d2db 4fbd 751d 0b3d
000002a0: 62f4 1dbc 9976 f63c 8a92 1d3c 817c 2cbd
000002b0: 2e9a 613d 30c7 783a af00 58bc f1d3 f83c
000002c0: 6ca2 9e3b bc4c f33c 9244 8b3c 62f2 3d3d
000002d0: 7da7 a7bb 91d1 58bc ff4b a73a 48a5 9e3c
000002e0: 5d84 9f3b 30b5 37bd 76e4 c83c e152 4f3d
000002f0: 3419 2a3d 3810 3abd b9ba 4d3d d179 54bd
00000300: e25d 85bc cc13 b6bc 7b75 5a3d d429 93bb
00000310: fb1e ddba bb4a b23c 2777 b0bc 3b0b 23bd
00000320: 3b6c f43c aea4 12bd 1ff1 843b fa2e 5b3d
00000330: cc7b 7c3b 40d2 4dbc a0da 043d 42af 1c3d
00000340: afab 38bc b06c c0bb 0d52 453d 83aa 3a3d
00000350: 1bf5 5cbd dee7 fc3c 87cb 0cbc 3ab4 9a3c
00000360: 614d 12bc 10f4 3f3d 3a86 4fbd ae6c 54bb
00000370: 6b7f c3bc 79f1 b4bc 38fc 92bb 52d7 433d
00000380: 8377 6aba 6091 273c 50c5 c9bc 0b5a faba
00000390: 6fbc 96bc d338 363d 8951 883c ffc1 5cbb
000003a0: bc5e ecbb 3679 433d 2aa7 40bb cbbe 45bd
000003b0: 889e d8bc bc4e 313d a7a9 e73c 3068 283d
000003c0: 9fc6 f6bb a94e a7bc 25f2 8dbc 6e30 3b3d
000003d0: 7289 cb3c a3bb 3cbd 4f48 e4bc 99a5 10bd
000003e0: 52f2 203d 841a 03bc b620 01bc d0a3 9c3c
000003f0: 2ee8 47bb 4454 d8bc 64cc f8bc 815a 3cbd
0.04840992 -0.04227569 0.02294412 0.041210208 -0.007999749 0.033237252 0.049379893 0.040028654
0.018307788 0.003020843 0.046701647 0.020348068 0.051694646 0.040048603 -0.03856115 -0.023357565
-0.053911187 0.032955814 0.005542529 -0.03693686 0.013883685 0.028439837 0.026310563 0.037845694
-0.0102605345 -0.040099826 -0.020509023 0.019299315 0.03627903 -0.023472833 0.03436384 -0.02867086
0.012887438 -0.024270441 -0.047034465 -0.0047626398 -0.045551546 -0.053564034 0.04947846 -0.0105947275
-0.0489358 0.042540155 -0.013958591 -0.015963532 -0.014237665 -0.0114207715 -0.028205443 -0.045151968
-0.008434769 -0.0017825738 0.05223808 0.01824188 -0.016790135 0.017625546 -0.015459017 -0.047617696
0.016680462 0.0025152222 0.032745197 0.017326482 0.020563532 0.008774234 -0.050329253 0.028281417
-0.034383297 0.01733348 -0.04972181 -0.011564324 0.029222352 -0.049445767 0.0071721845 -0.020454405
-0.012164656 -0.001801636 -0.036197808 -0.025729418 0.045767307 -0.026673429 -0.018757965 0.037149392
-0.025213616 0.022635031 -0.003562732 -0.022737835 -0.0044818223 -0.04346679 0.045887966 0.039379008
-0.032275397 0.020637818 -0.011661675 -0.011095464 -0.037636675 -0.0277246 0.0131214885 -0.04990324
-0.00010062258 -0.052228894 -0.0099580875 0.027890563 0.026977627 -0.007637515 0.046295144 -0.0045755794
0.0021116787 0.015991185 -0.023851475 0.00020081074 0.029851167 0.04095715 -0.039366152 -0.04512839
0.025633542 0.018660417 0.023060711 0.009832525 -0.00034057128 0.0032537421 0.007015672 -0.030315945
0.0011880732 -0.0001731127 -0.010896648 -0.016611665 0.012485441 -0.0019462146 0.031175544 0.021034872
-0.014851089 -0.0151104685 -0.024502214 0.03895087 -0.046772026 0.040310826 0.0037046054 -0.044010777
0.047870476 0.014116189 -0.019565757 0.053721644 0.049179945 0.035225037 -0.052726652 0.05090833
-0.04181336 0.053913392 -0.021461414 0.011223153 -0.050496284 0.008325451 0.0026038256 -0.009716803
-0.014163325 -0.018833846 -0.04501884 0.03855442 0.054282267 -0.0062305303 0.022302346 -0.0098405685
-0.041530836 -0.016757514 0.00538759 -0.00576464 -0.040888075 0.015388916 -0.050746746 0.03396364
-0.009640785 0.030085849 0.009617457 -0.042110924 0.055078678 0.00094901305 -0.013183757 0.030374499
0.0048411395 0.029699676 0.01700047 0.046373732 -0.0051164017 -0.013233558 0.0012763737 0.019365922
0.004868074 -0.04485053 0.024523001 0.05061615 0.04152794 -0.045425624 0.0502269 -0.051873986
-0.016280118 -0.022226237 0.053334694 -0.0044910703 -0.0016870195 0.02176415 -0.021541191 -0.039805632
0.029836765 -0.035801582 0.004057064 0.053511597 0.0038525937 -0.012562335 0.03243506 0.038253076
-0.011271401 -0.0058723316 0.048173953 0.04557277 -0.05394469 0.030872282 -0.008593447 0.018884767
-0.008929581 0.046863616 -0.050665118 -0.003241341 -0.023864469 -0.0220878 -0.004485633 0.047812767
-0.00089442 0.010227531 -0.024630219 -0.0019100321 -0.018400399 0.044487786 0.016640441 -0.0033684967
-0.0072134417 0.047723018 -0.0029396513 -0.048277657 -0.026442781 0.043287978 0.028279139 0.041114986
-0.0075310017 -0.02042325 -0.017327378 0.045700483 0.024845812 -0.04607738 -0.02786651 -0.035314176
0.039293595 -0.008001927 -0.007881334 0.01912108 -0.003050338 -0.026407368 -0.030370899 -0.04598475

input_weights f4 [80, 80]
00000000: 6d70 44bd 80e2 cc3d fb8e 8fbe 5240 893d
00000010: 6e17 973e a5b1 b3bd 47bd 8e3e f63f a83d
00000020: e43e 8abd 871a 453e eab1 ebbd 3c95 4ebd
00000030: 0866 dd3b cff1 18be 100c a63e 76fb a73e
00000040: 1fad a7be f14c d73d b422 783e 7297 58be
00000050: 41bf e73d 46b9 35be 1c76 e73d 6e06 76bd
00000060: 43c4 d6bd bf5c 113d 69fa b73e beba 1bbe
00000070: b807 cc3d f139 6a3e d53b bb3c 8c16 97be
00000080: 4e29 82bd 7265 4a3e 8cff 64be 1248 f03d
00000090: ffd8 26be 29a3 70bc 4372 8bbc eaea 36bd
000000a0: 190e 2a3e 6268 813e c94e 323e 1cf2 333d
000000b0: 6d52 8dbd 77e3 94be 0c4c 61be c515 02bd
000000c0: a423 99bd 4eb8 4c3d 5070 32bd 882e 61bc
000000d0: b774 a83d d88f aa3e 2abe 83be 2ffa 103e
000000e0: 9a26 c3bc 47cb 50be 0f35 333d 5a07 5f3d
000000f0: 6bf9 ad3e ffeb 3cbe 3b0b 09be 4a00 0abe
00000100: 8d7c 373e e306 c2bd aac9 c73d 4c81 30be
00000110: fbb7 a9be dc71 533e bebe 9ebd fd22 d33d
00000120: 37a4 ee3c 9570 223e ae57 52bd 361c 743e
00000130: 684b 1d3e 99d0 9fbd f668 01be 0972 e63c
00000140: 472c 573d 845a 14be 367f 50be 6a47 54be
00000150: a5ef 033d a64f 243e e841 053e 9d3f 9fbd
00000160: 0af7 08be 0b84 403c 56f6 5dbe 9b78 993d
00000170: b8df 89be 0ea5 f3bd 5ffd dc3d e3e2 efbd
00000180: f1dd 8d3c 02f6 dbbc 9d12 74bd c46f 10be
00000190: 5312 4dbe 8e71 c0be a897 fc3d bc80 72be
000001a0: 6fc8 9dbc dc64 b23d 3b5b 93be 0f5d 3d3e
000001b0: 94b1 3c3d 3ae8 073e b15e 0d3e e6a7 b6be
000001c0: 0714 18bd ac4e 6bbd 4bfc 8dbe 9d5d 123e
000001d0: 5fff 263d ef3a ab3e 5e62 35bd b421 8e3d
000001e0: acb1 803e 694c 1d3d 25c7 473e 9c50 313e
000001f0: d166 b03e be7a a23e 9091 25be 43eb 27be
00000200: b535 8ebd d320 1cbd c30f 90bd 6a86 47be
00000210: 0c25 31be cafe 9c3d bb1c 0a3d adc5 6fbe
00000220: 81ff 343e 689b 6fbe f745 163e 7919 bebd
00000230: 13ed 923e b275 b8be 401a dcbb cdc7 b5bd
00000240: ee62 0f3e ea23 0cbe 79e0 943d b862 023e
00000250: e429 223c ad45 8a3d a18d bf3c b9e7 50bd
00000260: 4920 373d ca5c abbd 2588 b1bd 9a15 fb3d
00000270: 9bb2 fd3c 43d4 d1be ad32 f23c 620b c0be
00000280: 5d41 333e f127 ccba 897a 8bba 4f08 ae3d
00000290: 26d2 14be 40cb 8abd 8df9 74be 7b40 5fbe
000002a0: 4ac0 acbd db1d 80bc b1b5 4d3e 6860 8dbe
000002b0: 9fb9 023e ecb4 84be f3cd 82be 2f99 aabd
000002c0: 3480 aa3d 4c18 80bd e37b 22be e2ea 0b3e
000002d0: 5e8e 7bbc 2188 343e ff5e ae3d 5967 b5bd
000002e0: f323 83be b28e b2bd 0ad1 d3be 719d 143d
000002f0: c6ee c23b e1b4 0cbd d54d abbd a229 66bb
00000300: ce27 453e d96c 7ebc 6919 933d d801 5bbe
00000310: c159 c53c 1731 fc3d 70f2 a1bc 0be8 d2bd
00000320: 04d5 ce3d 0b83 7d3e 94ff 0abe 4608 3e3e
00000330: 87d0 86bd 2b74 543d 0ce5 8f3d 73ac 32be
00000340: 41fb c7bd 0cc0 f4bd 5559 febd 1077 96bd
00000350: be63 d33d 8a8e 673e 1169 9b3d 361c b93a
00000360: 7b22 323d efdf 43bd b557 00be 75e2 ddbc
00000370: 390d dbbd 12cc 05bd 02b4 153e d41a cd3d
00000380: d39d 083f d331 553e 4208 443c 29c2 793b
00000390: 176d 5abe 98ce 06bd 9b04 b23d fb89 263e
000003a0: d787 25be f744 8c3d 585c 053e a311 53bd
000003b0: 6bc1 03bf 2a5a acbe dd96 ed3d db66 613e
000003c0: a79a ed3c 464f 55bc 47b5 a63e 35a5 dc3c
000003d0: e321 043e 78a4 48be eae8 583e a6ed 943d
000003e0: 6400 683c fdd6 ed3d 8a88 383e a6d4 30b8
000003f0: d10e 38be 32ae a8bd eec7 ac3d 55c9 453e
-0.04795878 0.10004139 -0.28038773 0.06701721 0.29510063 -0.087741174 0.27878782 0.082153246
-0.06750277 0.192484 -0.11508544 -0.05043529 0.006756548 -0.14935993 0.32431078 0.32809037
-0.32749268 0.10512722 0.24231988 -0.21151522 0.11315776 -0.17746457 0.113018245 -0.060064726
-0.10486653 0.03548884 0.35933235 -0.15207955 0.0996241 0.22873665 0.022855679 -0.2950939
-0.063555345 0.19765261 -0.22363108 0.11732496 -0.16293715 -0.014687338 -0.017022258 -0.044657625
0.1660694 0.2527495 0.17412867 0.043932065 -0.06900487 -0.29079792 -0.22001666 -0.031759042
-0.07477501 0.049980454 -0.04356414 -0.013744004 0.082253866 0.3331287 -0.2573102 0.14157937
-0.023822118 -0.20390044 0.043751772 0.05445037 0.33979353 -0.184494 -0.1338319 -0.13476673
0.17918606 -0.0947397 0.09755261 -0.17236823 -0.33148178 0.20648903 -0.07751225 0.10309408
0.029131038 0.15863259 -0.05135315 0.23838887 0.15360796 -0.07803459 -0.12637696 0.028130548
0.05253246 -0.14487654 -0.20361027 -0.20730367 0.032210965 0.16046008 0.13013422 -0.07775805
-0.13375488 0.0117502315 -0.21676001 0.07493707 -0.26928496 -0.11896716 0.10790514 -0.11713197
0.017317744 -0.026850704 -0.059588064 -0.14105135 -0.20026521 -0.37586635 0.12333614 -0.23681921
-0.019260613 0.08710644 -0.2878054 0.1849253 0.04606779 0.13272181 0.13805653 -0.3567497
-0.037128475 -0.057448074 -0.27731547 0.14293523 0.040770885 0.334434 -0.044283263 0.06940022
0.25135553 0.03840295 0.19509561 0.17315906 0.34453443 0.3173427 -0.16168809 -0.16398339
-0.069438376 -0.03811724 -0.07034256 -0.19484869 -0.17299289 0.07665785 0.033718806 -0.23415251
0.17675592 -0.23399127 0.14675127 -0.09282202 0.28696498 -0.36027294 -0.0067169964 -0.088759996
0.14002582 -0.13685575 0.07269377 0.1273297 0.009897683 0.06751571 0.023382964 -0.051002238
0.044708524 -0.083673075 -0.08668546 0.122599795 0.030968955 -0.40982255 0.02956518 -0.37508684
0.17505403 -0.0015575868 -0.0010641377 0.084976785 -0.1453329 -0.06777048 -0.23923321 -0.21801941
-0.08435114 -0.015639236 0.20088841 -0.27612615 0.12766121 -0.25919282 -0.25547752 -0.08329999
0.08325234 -0.06254634 -0.15867572 0.1366382 -0.015353767 0.17630054 0.08514213 -0.088576026
-0.25613365 -0.08718623 -0.41370422 0.03628296 0.005948874 -0.034352187 -0.08364455 -0.003512003
0.19253466 -0.015528881 0.07182581 -0.21387422 0.02409065 0.12314051 -0.019768924 -0.10298165
0.10099223 0.2475702 -0.13574058 0.18557844 -0.06582742 0.0518686 0.07026109 -0.17448597
-0.0976472 -0.119506925 -0.124193825 -0.07346928 0.10321759 0.22612968 0.07588399 0.0014122787
0.043489914 -0.04782098 -0.12533458 -0.027085522 -0.106958814 -0.03266532 0.14619449 0.10014883
0.5336582 0.20819788 0.011964859 0.0038110113 -0.21330677 -0.032911867 0.08692285 0.16263573
-0.161651 0.068490915 0.13023508 -0.05153049 -0.5146701 -0.3366254 0.116010405 0.22011892
0.029004408 -0.013019389 0.3256018 0.026934246 0.12903552 -0.1959399 0.211826 0.0727189
0.014160249 0.116132714 0.18020836 -4.2159714e-05 -0.17974402 -0.0823635 0.08436571 0.19315083

recurrent_weights f4 [80, 80]
00000000: 0000 0000 5e9f 0c3c 615d a1be 3aa9 ce3d
00000010: a179 a83c b8aa 9e3d 1d5a 15be 18c7 983a
00000020: 03f8 af3e 0487 9bbd 9df1 2bbe 54b1 ee3c
00000030: 1ccf 6abe a137 7bbe 1adf f23c a00e 8a3c
00000040: 4bc5 233d aee6 a5bd 7501 783e 8578 373d
00000050: ab38 f3bd b94c 073e b855 5f3d 55db 86bd
00000060: 78bb e83c 9542 a5be 6592 98be dc0a 523d
00000070: 6723 d23d 7312 19be 00a6 323d 6c2b 13be
00000080: 4bd7 263e b454 bebd fc6f 0ebe 3062 dd3b
00000090: 69a6 b7bd 5a20 b23e 5318 03be f6a2 76be
000000a0: 80ab 02bd c58f f03c 0406 3f3e 2cb8 503d
000000b0: b89c 39be a08b 913d 9c12 8ebd 3a9e 483e
000000c0: ce76 4f3e ee91 923c 20fe 44be 25e1 92bd
000000d0: cfd6 4abe 74ce 1c3e c1e7 18be 5bad ea3d
000000e0: 6ceb 53be b67b 7e3d 81f4 9fbe b08b 39be
000000f0: 8252 513d 8855 e9bd 5039 3ebe 01b7 91bd
00000100: 9a9b 023e 6e51 003e d304 06be b51c 073e
00000110: 3606 47bc f16e e03d c5e9 243c 3ffd 47be
00000120: ba4d 923d 66ee 53be ecb0 98bd 1083 2a3e
00000130: 501b 2b3e 2664 1c3e c726 29be b12a 74be
00000140: fd4c 11be 0000 0000 6aca 053d 9687 b3bd
00000150: 9b6b d63d 68f8 3cbe 17e6 983d 77b6 b1bc
00000160: 8954 61bb a3b4 4a3d 5b5a bfbe b1bd 55be
00000170: 7b1d 363e d4c9 39be 45d3 05bc 4a24 85be
00000180: 86f7 b3bd ba82 b2bd 4d80 babd b770 943b
00000190: 3940 4c3e 0235 a1bd e51e d63d 0419 35be
000001a0: 60da 77bd 339e 143e 06b6 03be 2247 b8be
000001b0: 6808 263e 6261 253d f152 80bd b7ba a43e
000001c0: cab5 5e3d ef2c 0d3e 77dd 2cbe d8b4 1b3e
000001d0: 5f93 b13d 0ea0 973e 4a0c 073e 7439 ee3d
000001e0: fa23 a4be fc5d 25bd 6646 883e 70cc 31bd
000001f0: 7006 563e 6d2a 09be c43e 083d 9045 2cbe
00000200: 3ec2 273e 4d05 b5be 0d93 4b3e 031c cbbc
00000210: 4dee 25be cf47 043e 45a8 073c 7efb a8bd
00000220: 8e71 8f3d c24a cebd 2404 01bd 2b5b a5bd
00000230: 8510 9bbc 8df5 bd3c 7654 f6be e9ef d43d
00000240: f430 e13c fd4f dabd 70d3 8f3e 630c 09be
00000250: c3ef d93d 263b 973d 6ae1 373e f76c 31be
00000260: 2eeb 363d 9e24 76be 7674 1abe 740b 1a3d
00000270: d543 d63d 1a63 18be b5bf 5e3d 03d2 763d
00000280: b4f4 e0bd 1f92 4d3c 0000 0000 aaf2 a3bb
00000290: ac64 823e 41db 873d ceab d73d f4e8 dbbe
000002a0: 56ab 47bd df55 803c ff62 4bbe cf56 10be
000002b0: aa99 a33c 2b74 ee3d a2a8 b43d 5607 56be
000002c0: ecc3 c1bd b885 753e 821d b1bc 12d3 6fbd
000002d0: ecce 5ebe 5d87 d03d aed4 0bbc cd32 a93d
000002e0: b6eb 8abe 395e 1bbe 8ca7 293e be30 993e
000002f0: fbdc 0dbe d39a 17bd b10e 173e 1f99 583e
00000300: 6b97 30be 44b6 77bd d525 0a3e a75f 8dbd
00000310: aa6b 42be 8437 cbbc 77d7 0ebb b46b a6ba
00000320: 1147 21be d84e 0cbe 2958 e13d 8172 18be
00000330: b61c b13e 7a2c 653d ce34 813d 2410 c9bb
00000340: dd12 633e 96a9 35bd a08d a63d 6677 6cbe
00000350: 5f46 75bd 658e 293e ea3e 0bbe 9fb8 3ebe
00000360: d7a0 ddbd 9100 dc3d 2b17 8abe 17f0 283e
00000370: c786 563d 7da5 943d 78a6 1dbe 48b8 3c3d
00000380: e0dd 60be db96 293e 52b8 863e bc23 2a3e
00000390: 2e39 4a3d 43bc 30be b7bb 0b3e 9641 5d3d
000003a0: df2e 05be 8c98 0a3e adfb fabd b27f 5f3d
000003b0: 921b ebbd cf82 80be 0d16 29be 6da6 193d
000003c0: 3539 14be cf3b bf3d 3c07 823d 0000 0000
000003d0: f0a1 563e 6cd7 c4bb b175 a4bd b470 893d
000003e0: 7698 a6be f5e4 92bd 73ba 443d 54ee 563d
000003f0: 7d64 0b3e f172 903d 5dbd 7a3c ffce 3bbe
0.0 0.008582918 -0.31516555 0.10090871 0.02056581 0.07747406 -0.14585157 0.0011656014
0.34368905 -0.075941116 -0.16791387 0.029137291 -0.22930568 -0.2453294 0.029647399 0.016852677
0.039983075 -0.08100639 0.24219306 0.04479267 -0.11876043 0.13212861 0.054525107 -0.06584803
0.028409705 -0.3227736 -0.2979919 0.051279888 0.10260659 -0.14948444 0.04361534 -0.14372033
0.16293065 -0.092934996 -0.13909906 0.0067560896 -0.08967287 0.34790307 -0.12802248 -0.24085602
-0.031901836 0.02936543 0.18654639 0.05095689 -0.1812619 0.071067095 -0.06937143 0.19591609
0.20260164 0.01789185 -0.19237566 -0.07171849 -0.19808505 0.1531313 -0.14932157 0.11458846
-0.20695275 0.0621297 -0.3124123 -0.18119693 0.051104076 -0.11393267 -0.1857655 -0.07114983
0.1275467 0.12531063 -0.13087778 0.13194545 -0.012147477 0.109586604 0.010065501 -0.195302
0.071437314 -0.2069641 -0.0745562 0.16651559 0.16709638 0.15272579 -0.16518699 -0.2384441
-0.14189525 0.0 0.03266374 -0.08766095 0.10469743 -0.18454134 0.07465761 -0.021693451
-0.0034382662 0.049488675 -0.37373623 -0.20873143 0.17784683 -0.18143398 -0.008168046 -0.2600425
-0.08787446 -0.0871634 -0.09106503 0.004530038 0.19946374 -0.078714386 0.104551114 -0.17685324
-0.060510993 0.14513473 -0.12862405 -0.3599177 0.16214144 0.040376075 -0.0626582 0.32173702
0.054372586 0.13786672 -0.16881357 0.15205705 0.08670687 0.296143 0.13188282 0.11632052
-0.32058698 -0.040372834 0.2661621 -0.043407857 0.20900893 -0.1339509 0.033262983 -0.16823411
0.16382691 -0.35355607 0.19880314 -0.02479363 -0.16204186 0.12918018 0.008279865 -0.08251093
0.07004081 -0.10072853 -0.03149809 -0.080740295 -0.018928776 0.023188377 -0.48111314 0.10397322
0.027489163 -0.10659788 0.28091002 -0.13383631 0.10641434 0.073843285 0.17957082 -0.17326723
0.04465788 -0.24037406 -0.15083489 0.03760858 0.10462157 -0.14881554 0.054382045 0.060258877
-0.109841734 0.012547045 0.0 -0.005003293 0.25467432 0.06633616 0.10530816 -0.42951167
-0.048747383 0.015665947 -0.19861983 -0.14095615 0.019970734 0.11643251 0.08821227 -0.20901236
-0.09461197 0.23976791 -0.021620516 -0.0585509 -0.21758622 0.101820685 -0.0085345935 0.082616426
-0.27132958 -0.15172662 0.1656782 0.2992 -0.13853829 -0.037012886 0.14751698 0.21152161
-0.17245261 -0.060476556 0.13490994 -0.0690301 -0.18986383 -0.024806745 -0.0021795908 -0.0012696893
-0.15749766 -0.13701952 0.11003143 -0.1488743 0.34592217 0.05595062 0.063089 -0.0061359573
0.22175165 -0.044351183 0.081324816 -0.23092422 -0.059881564 0.16558225 -0.13598219 -0.18625115
-0.108216934 0.107422955 -0.269708 0.16497837 0.052374627 0.07258127 -0.15395534 0.04607418
-0.21959639 0.16561453 0.263125 0.16615194 0.049370937 -0.17259316 0.13645826 0.054017626
-0.13006161 0.13534755 -0.122550346 0.05456514 -0.11479868 -0.250998 -0.16512318 0.03751223
-0.14474948 0.093375795 0.06349036 0.0 0.20960212 -0.0060071256 -0.0803026 0.067109495
-0.32538193 -0.07172576 0.048029374 0.05247338 0.13612552 0.07053173 0.015303937 -0.18340681

p f4 [80]
00000000: 0000 4843 0000 4843 0000 4843 0000 4843
00000010: 0000 4843 0000 4843 0000 4843 0000 4843
00000020: 0000 4843 0000 4843 0000 4843 0000 4843
00000030: 0000 4843 0000 4843 0000 4843 0000 4843
00000040: 0000 4843 0000 4843 0000 4843 0000 4843
00000050: 0000 4843 0000 4843 0000 4843 0000 4843
00000060: 0000 4843 0000 4843 0000 4843 0000 4843
00000070: 0000 4843 0000 4843 0000 4843 0000 4843
00000080: 0000 4843 0000 4843 0000 4843 0000 4843
00000090: 0000 4843 0000 4843 0000 4843 0000 4843
000000a0: 0000 4843 0000 4843 0000 4843 0000 4843
000000b0: 0000 4843 0000 4843 0000 4843 0000 4843
000000c0: 0000 4843 0000 4843 0000 4843 0000 4843
000000d0: 0000 4843 0000 4843 0000 4843 0000 4843
000000e0: 0000 4843 0000 4843 0000 4843 0000 4843
000000f0: 0000 4843 0000 4843 0000 4843 0000 4843
00000100: 0000 4843 0000 4843 0000 4843 0000 4843
00000110: 0000 4843 0000 4843 0000 4843 0000 4843
00000120: 0000 4843 0000 4843 0000 4843 0000 4843
00000130: 0000 4843 0000 4843 0000 4843 0000 4843
200.0 200.0 200.0 200.0 200.0 200.0 200.0 200.0
200.0 200.0 200.0 200.0 200.0 200.0 200.0 200.0
200.0 200.0 200.0 200.0 200.0 200.0 200.0 200.0
200.0 200.0 200.0 200.0 200.0 200.0 200.0 200.0
200.0 200.0 200.0 200.0 200.0 200.0 200.0 200.0
200.0 200.0 200.0 200.0 200.0 200.0 200.0 200.0
200.0 200.0 200.0 200.0 200.0 200.0 200.0 200.0
200.0 200.0 200.0 200.0 200.0 200.0 200.0 200.0
200.0 200.0 200.0 200.0 200.0 200.0 200.0 200.0
200.0 200.0 200.0 200.0 200.0 200.0 200.0 200.0

p f4 [80]
00000000: 0000 c842 0000 c842 0000 c842 0000 c842
00000010: 0000 c842 0000 c842 0000 c842 0000 c842
00000020: 0000 c842 0000 c842 0000 c842 0000 c842
00000030: 0000 c842 0000 c842 0000 c842 0000 c842
00000040: 0000 c842 0000 c842 0000 c842 0000 c842
00000050: 0000 c842 0000 c842 0000 c842 0000 c842
00000060: 0000 c842 0000 c842 0000 c842 0000 c842
00000070: 0000 c842 0000 c842 0000 c842 0000 c842
00000080: 0000 c842 0000 c842 0000 c842 0000 c842
00000090: 0000 c842 0000 c842 0000 c842 0000 c842
000000a0: 0000 c842 0000 c842 0000 c842 0000 c842
000000b0: 0000 c842 0000 c842 0000 c842 0000 c842
000000c0: 0000 c842 0000 c842 0000 c842 0000 c842
000000d0: 0000 c842 0000 c842 0000 c842 0000 c842
000000e0: 0000 c842 0000 c842 0000 c842 0000 c842
000000f0: 0000 c842 0000 c842 0000 c842 0000 c842
00000100: 0000 c842 0000 c842 0000 c842 0000 c842
00000110: 0000 c842 0000 c842 0000 c842 0000 c842
00000120: 0000 c842 0000 c842 0000 c842 0000 c842
00000130: 0000 c842 0000 c842 0000 c842 0000 c842
100.0 100.0 100.0 100.0 100.0 100.0 100.0 100.0
100.0 100.0 100.0 100.0 100.0 100.0 100.0 100.0
100.0 100.0 100.0 100.0 100.0 100.0 100.0 100.0
100.0 100.0 100.0 100.0 100.0 100.0 100.0 100.0
100.0 100.0 100.0 100.0 100.0 100.0 100.0 100.0
100.0 100.0 100.0 100.0 100.0 100.0 100.0 100.0
100.0 100.0 100.0 100.0 100.0 100.0 100.0 100.0
100.0 100.0 100.0 100.0 100.0 100.0 100.0 100.0
100.0 100.0 100.0 100.0 100.0 100.0 100.0 100.0
100.0 100.0 100.0 100.0 100.0 100.0 100.0 100.0

p f4 [80]
00000000: 0000 803f 0000 803f 0000 803f 0000 803f
00000010: 0000 803f 0000 803f 0000 803f 0000 803f
00000020: 0000 803f 0000 803f 0000 803f 0000 803f
00000030: 0000 803f 0000 803f 0000 803f 0000 803f
00000040: 0000 803f 0000 803f 0000 803f 0000 803f
00000050: 0000 803f 0000 803f 0000 803f 0000 803f
00000060: 0000 803f 0000 803f 0000 803f 0000 803f
00000070: 0000 803f 0000 803f 0000 803f 0000 803f
00000080: 0000 803f 0000 803f 0000 803f 0000 803f
00000090: 0000 803f 0000 803f 0000 803f 0000 803f
000000a0: 0000 803f 0000 803f 0000 803f 0000 803f
000000b0: 0000 803f 0000 803f 0000 803f 0000 803f
000000c0: 0000 803f 0000 803f 0000 803f 0000 803f
000000d0: 0000 803f 0000 803f 0000 803f 0000 803f
000000e0: 0000 803f 0000 803f 0000 803f 0000 803f
000000f0: 0000 803f 0000 803f 0000 803f 0000 803f
00000100: 0000 803f 0000 803f 0000 803f 0000 803f
00000110: 0000 803f 0000 803f 0000 803f 0000 803f
00000120: 0000 803f 0000 803f 0000 803f 0000 803f
00000130: 0000 803f 0000 803f 0000 803f 0000 803f
1.0 1.0 1.0 1.0 1.0 1.0 1.0 1.0
1.0 1.0 1.0 1.0 1.0 1.0 1.0 1.0
1.0 1.0 1.0 1.0 1.0 1.0 1.0 1.0
1.0 1.0 1.0 1.0 1.0 1.0 1.0 1.0
1.0 1.0 1.0 1.0 1.0 1.0 1.0 1.0
1.0 1.0 1.0 1.0 1.0 1.0 1.0 1.0
1.0 1.0 1.0 1.0 1.0 1.0 1.0 1.0
1.0 1.0 1.0 1.0 1.0 1.0 1.0 1.0
1.0 1.0 1.0 1.0 1.0 1.0 1.0 1.0
1.0 1.0 1.0 1.0 1.0 1.0 1.0 1.0

p f4 [80]
00000000: 0000 0000 0000 0000 0000 0000 0000 0000
00000010: 0000 0000 0000 0000 0000 0000 0000 0000
00000020: 0000 0000 0000 0000 0000 0000 0000 0000
00000030: 0000 0000 0000 0000 0000 0000 0000 0000
00000040: 0000 0000 0000 0000 0000 0000 0000 0000
00000050: 0000 0000 0000 0000 0000 0000 0000 0000
00000060: 0000 0000 0000 0000 0000 0000 0000 0000
00000070: 0000 0000 0000 0000 0000 0000 0000 0000
00000080: 0000 0000 0000 0000 0000 0000 0000 0000
00000090: 0000 0000 0000 0000 0000 0000 0000 0000
000000a0: 0000 0000 0000 0000 0000 0000 0000 0000
000000b0: 0000 0000 0000 0000 0000 0000 0000 0000
000000c0: 0000 0000 0000 0000 0000 0000 0000 0000
000000d0: 0000 0000 0000 0000 0000 0000 0000 0000
000000e0: 0000 0000 0000 0000 0000 0000 0000 0000
000000f0: 0000 0000 0000 0000 0000 0000 0000 0000
00000100: 0000 0000 0000 0000 0000 0000 0000 0000
00000110: 0000 0000 0000 0000 0000 0000 0000 0000
00000120: 0000 0000 0000 0000 0000 0000 0000 0000
00000130: 0000 0000 0000 0000 0000 0000 0000 0000
0.0 0.0 0.0 0.0 0.0 0.0 0.0 0.0
0.0 0.0 0.0 0.0 0.0 0.0 0.0 0.0
0.0 0.0 0.0 0.0 0.0 0.0 0.0 0.0
0.0 0.0 0.0 0.0 0.0 0.0 0.0 0.0
0.0 0.0 0.0 0.0 0.0 0.0 0.0 0.0
0.0 0.0 0.0 0.0 0.0 0.0 0.0 0.0
0.0 0.0 0.0 0.0 0.0 0.0 0.0 0.0
0.0 0.0 0.0 0.0 0.0 0.0 0.0 0.0
0.0 0.0 0.0 0.0 0.0 0.0 0.0 0.0
0.0 0.0 0.0 0.0 0.0 0.0 0.0 0.0

super f4 [80]
00000000: 0000 c842 0000 c842 0000 c842 0000 c842
00000010: 0000 c842 0000 c842 0000 c842 0000 c842
00000020: 0000 c842 0000 c842 0000 c842 0000 c842
00000030: 0000 c842 0000 c842 0000 c842 0000 c842
00000040: 0000 c842 0000 c842 0000 c842 0000 c842
00000050: 0000 c842 0000 c842 0000 c842 0000 c842
00000060: 0000 c842 0000 c842 0000 c842 0000 c842
00000070: 0000 c842 0000 c842 0000 c842 0000 c842
00000080: 0000 c842 0000 c842 0000 c842 0000 c842
00000090: 0000 c842 0000 c842 0000 c842 0000 c842
000000a0: 0000 c842 0000 c842 0000 c842 0000 c842
000000b0: 0000 c842 0000 c842 0000 c842 0000 c842
000000c0: 0000 c842 0000 c842 0000 c842 0000 c842
000000d0: 0000 c842 0000 c842 0000 c842 0000 c842
000000e0: 0000 c842 0000 c842 0000 c842 0000 c842
000000f0: 0000 c842 0000 c842 0000 c842 0000 c842
00000100: 0000 c842 0000 c842 0000 c842 0000 c842
00000110: 0000 c842 0000 c842 0000 c842 0000 c842
00000120: 0000 c842 0000 c842 0000 c842 0000 c842
00000130: 0000 c842 0000 c842 0000 c842 0000 c842
100.0 100.0 100.0 100.0 100.0 100.0 100.0 100.0
100.0 100.0 100.0 100.0 100.0 100.0 100.0 100.0
100.0 100.0 100.0 100.0 100.0 100.0 100.0 100.0
100.0 100.0 100.0 100.0 100.0 100.0 100.0 100.0
100.0 100.0 100.0 100.0 100.0 100.0 100.0 100.0
100.0 100.0 100.0 100.0 100.0 100.0 100.0 100.0
100.0 100.0 100.0 100.0 100.0 100.0 100.0 100.0
100.0 100.0 100.0 100.0 100.0 100.0 100.0 100.0
100.0 100.0 100.0 100.0 100.0 100.0 100.0 100.0
100.0 100.0 100.0 100.0 100.0 100.0 100.0 100.0

weight f4 [4, 80]
00000000: 9cc9 75bd cda0 30bd d505 70bd 8a4a 9abd
00000010: feb9 0d3d 4d22 24bd e2b2 e33d 1b4e e43d
00000020: 57dc 9abd 50c7 84bd 4575 0b3d 6f4f 4dbd
00000030: 3d79 a1bc 926b a23c d19f dd3d d24b d3bd
00000040: a33e dc3d a581 9e3d b6a0 69bd c5b3 84bc
00000050: 8dc9 2ebd 8ffa 43bd 6c1c 35bb 65f4 e4bd
00000060: 0c62 8fbd e9da 47bc b663 2ebd 3d50 b7bd
00000070: 938f ba3d 1032 1bbd 8028 113d 92a2 b03d
00000080: a269 9c3c d438 973d 387d 8dbd 9478 98bc
00000090: d1af 77bd f444 173d 4dc0 e5bb 257b cebd
000000a0: a41f c7bc d649 673d 41bb 1e3d ce41 cebd
000000b0: 9965 d4bd 9b50 8fbd d75d debd f6cf 9c3c
000000c0: fbe9 7fbd 7823 9fbd ac28 bc3d c9bd 743d
000000d0: 1b12 71bd 3795 e43d 93de bdbd dd97 4bbd
000000e0: 43cd 59bd d213 8f3d 6d5b e4bd d2aa 2ebc
000000f0: 5b36 d2bd 2de2 b5bd 998c 233d 1e31 dabc
00000100: 7e59 9abd 241a 8eb7 c73b c23d b80c 8ebd
00000110: 345d b13d 798b b6bb 971f 8d3c c209 583d
00000120: 14f4 9e3d 7203 c7bd c60a 013c bde4 c13d
00000130: b1e5 843c 9719 7d3d 15c6 9abd 0c3c fabc
00000140: e22b 743d 3b0a 30bd 8d91 bd3c 245d 8fbb
00000150: 9635 aa3d 836e ca3d ae8a 1a3d c18f d73c
00000160: fb79 a23d 0de8 d3bd 1310 483c 7e80 9bbc
00000170: 7c42 60bd b4ea 37bd 6984 dd3d 8278 893d
00000180: b682 d5bd 9410 9b3d f407 c33d 8291 873c
00000190: 6ffe 013d 4fc2 e13d c06a 0d3d c83d 9f3c
000001a0: 1b77 4abd a3bb d73d ea1d afbd 7673 64bd
000001b0: 12e9 de3c bfc9 ad3d 5cf0 adbd e2db 953b
000001c0: e8d3 b2bd 06fc abbd 5804 64bd 9379 fd3b
000001d0: 5908 b93d 35e7 f43b 7ead 113d 1524 263c
000001e0: 86f0 95bd b7e6 fa3c 4d83 3fbd 6f6e 7d3d
000001f0: 4897 bebc bb06 96bd 3c35 19bd 2f3a ee3c
00000200: 0fcd 973d f05e 923d 7ec8 95bd a511 b7bd
00000210: a250 bbbd 43b0 2abd d6f0 3ebd 981c d63d
00000220: 39b3 c3bd 95e1 33bd 8eb3 54bd ef57 8939
00000230: 656b 533d 8064 923b 5c63 2c3d 3fa0 9a3c
00000240: 3e3e 803d 9f3d cdbd e98d dfbd 3bb2 0abd
00000250: ffbe f93c 10a5 aebd 9f4f 22bc a16c 363d
00000260: b176 ae3c 8c62 893d 259f 7fbd 228d 1e3d
00000270: 9f87 d03d 4b04 03bc a088 123d 49c3 78bd
00000280: 4e0c e13d 6e67 903c 5ce7 e03d 4fa2 d83d
00000290: a098 b83d cded 95bd 4485 d3bd 093f abbc
000002a0: 07f7 dcbd f85d a8bd 99ec c43d 7043 593d
000002b0: 4db7 cebd 7a33 d43d f337 e03d 77e8 81bd
000002c0: bccf 29bd 03b1 b63d 3ffc 833d 81da cdbd
000002d0: 3b37 c63d 0126 933c 198d 803d 682a 983d
000002e0: 3edb c4bd ad0d 86bd aac7 bebc 0ad7 183d
000002f0: 73ef 0dbd 90b6 bfbd cec9 cdbd 2384 bebd
00000300: 8c1a 96bc 274f 06bd 05c4 19bc 6302 a2bd
00000310: d036 5f3d 4b09 01bd d92c b13b 4d54 f5bc
00000320: 652a 9d3d fd94 163d 5328 49bd 9da9 1cbc
00000330: 8e77 80bd cebb f5bc 3593 31bc 3a38 033d
00000340: 354e 833d e402 6b3d 81ab 973d ca9c 98bd
00000350: 5b6a bdbd bb5c d03d cf79 6d3d 611c 87bd
00000360: 83cd e2bd fd7d 923b 7b43 cb3d 384d 393d
00000370: 0cf3 6e3c 8c7d bbbd eeb0 09bb a094 963d
00000380: 00f6 a23d 2947 6b3d 3495 873d 8507 5d3d
00000390: c62f 78bd fd2a ab3d ed91 e23d 7591 c3bd
000003a0: 5c5a c83d d5c5 a1bd eae2 003d 9fb0 183d
000003b0: 1d75 1f3d d822 31bd 0fb1 833d ffd3 cfbc
000003c0: a776 8e3d a501 9d3d c82b 833d 858c 7a3d
000003d0: 7153 8ebc 4ace 09bd dddc b6bd 8dc8 a3bd
000003e0: c6f0 1c3c 204f 44bc f4c9 db3d 5da2 b53c
000003f0: 2d63 4bbd 4f67 753d 8978 933d 9663 e43d
-0.060006723 -0.0431221 -0.05859931 -0.075337484 0.034601204 -0.040071774 0.111181036 0.1114771
-0.07561558 -0.06483328 0.034047384 -0.050124582 -0.019711131 0.019826684 0.10821498 -0.10317196
0.107541345 0.077395715 -0.05703803 -0.016199002 -0.042672683 -0.047846373 -0.002763535 -0.11179427
-0.07001123 -0.012198188 -0.04257556 -0.08950851 0.09109416 -0.03788954 0.035439014 0.08624758
0.019093338 0.07383886 -0.06908649 -0.018612184 -0.060470406 0.036930993 -0.0070114494 -0.10082082
-0.02430708 0.0564669 0.038752798 -0.10071145 -0.10370941 -0.06997796 -0.10857742 0.019142132
-0.062479 -0.07770437 0.09187445 0.059751306 -0.058855157 0.11161273 -0.09270968 -0.049705375
-0.05317427 0.06986202 -0.111502506 -0.010660844 -0.10264274 -0.0888103 0.039929006 -0.026634749
-0.075366005 -1.6939892e-05 0.09484058 -0.0693602 0.08660355 -0.0055708257 0.017226977 0.05274368
0.07761398 -0.09717454 0.007876104 0.094674565 0.016222807 0.061791983 -0.075573124 -0.03054621
0.059612162 -0.042978507 0.023140693 -0.004375117 0.08311002 0.0988436 0.03772991 0.026313664
0.07933422 -0.103469945 0.012210864 -0.018982168 -0.054750904 -0.044901565 0.10816271 0.06712438
-0.10425322 0.075715214 0.09523001 0.016548876 0.031736787 0.110233895 0.034525633 0.01943864
-0.049429994 0.10533836 -0.085506275 -0.055774175 0.027210746 0.08485746 -0.084931105 0.004573331
-0.08731824 -0.08397679 -0.055668205 0.00773544 0.09034795 0.007473851 0.035565846 0.010140439
-0.07321267 0.030627592 -0.046756078 0.061872896 -0.023265496 -0.073255025 -0.037404284 0.029080478
0.07412159 0.07147014 -0.073136315 -0.08938912 -0.09146239 -0.041672003 -0.046616398 0.104546726
-0.095556684 -0.043916304 -0.05192905 0.00026196192 0.05161609 0.004467547 0.042086944 0.01887524
0.06261872 -0.10021519 -0.10915739 -0.03386138 0.030486582 -0.08527577 -0.009906678 0.04453719
0.02129683 0.067082494 -0.06240763 0.038708813 0.10182118 -0.007996629 0.035774827 -0.060733113
0.10988675 0.017627444 0.10981628 0.10577833 0.09013486 -0.073207475 -0.10328153 -0.020904081
-0.10789304 -0.08221048 0.0961544 0.05304283 -0.100935556 0.10361381 0.109481715 -0.06343167
-0.041457877 0.08920481 0.064445965 -0.10051442 0.09678503 0.017962458 0.06276912 0.07429963
-0.0961213 -0.06545577 -0.023288567 0.037314452 -0.034652185 -0.09360993 -0.10048257 -0.09302547
-0.018323205 -0.03279033 -0.009385114 -0.079106115 0.054495633 -0.031503003 0.0054069576 -0.029947424
0.07674102 0.03676318 -0.04911072 -0.009561923 -0.06272803 -0.029996779 -0.01083832 0.032036044
0.06411401 0.057375804 0.07405759 -0.0745178 -0.09248801 0.10173937 0.057977494 -0.0659721
-0.110743545 0.0044705854 0.0992498 0.045239657 0.014584314 -0.091548055 -0.002101 0.07352567
0.07957077 0.05744091 0.06620255 0.05396225 -0.060592435 0.08357809 0.110629894 -0.09549228
0.0978286 -0.078990616 0.031466402 0.037277814 0.038930047 -0.04324612 0.064302556 -0.025369642
0.06956225 0.07666329 0.06404835 0.061169166 -0.017373772 -0.033644 -0.08928845 -0.079972364
0.009578889 -0.0119817555 0.10731879 0.022172147 -0.04965513 0.059912976 0.07200725 0.11151807

bias f4 [4]
00000000: 8862 413d e296 053d 0d29 783d 1135 823c
0.047213107 0.032614596 0.060586024 0.015894445

weight f4 [256, 80]
00000000: 0faa ecbd 6448 c93f 2d69 983e 9e34 e63f
00000010: 9be3 af3f bd41 383f 8d42 c7bd 1616 5ebf
00000020: 23e6 cd3f 4e14 10c0 7d91 6ebf 67f3 69bb
00000030: 8c5e ca3f 0426 e9bf 89f8 4d3e 9f68 8bbf
00000040: 1b97 3cc0 2c36 dc3e 1a23 dd3f d891 b7be
00000050: bf5f 9b3e 1f36 8cbe 4c96 0a40 c117 a33e
00000060: 4420 d9be 3b72 2140 e558 1a3f 73ce 07c0
00000070: 1b64 ad3e 7513 e93f 9db7 4fbf f0ed eebd
00000080: 6fe1 24be b7b0 fc3f 825f 2940 ff08 a0bf
00000090: 136e 5dbf f829 85be 5584 c1bf 83eb aabd
000000a0: 6ce9 c2bf aee5 b2be cf31 df3e 21c4 953e
000000b0: 1bb0 0e3f 26f3 6c3f 6398 9a3e 011f 723f
000000c0: 1df0 5fbe 6395 f0be d12d 533e f6fe 213e
000000d0: f044 41bf cf11 d3bd caa2 0c3d b52a 22bf
000000e0: ab32 c7bc 0070 bb3e dcf6 2bbf 5972 1f3f
000000f0: 908a 32bf 5434 6cbd 3dcb 72be c1c4 5dc0
00000100: 7f21 46bf 06f8 c2be ba2b 9b3f 5151 f4bd
00000110: 4a64 183f 07a0 b4bf 690c 43bf 6fec 28bf
00000120: 8c33 a0bd bfe8 153f 337c 5fbf 62af 1fbf
00000130: c363 fa3d 01d5 21be 738f 9bbf 40d0 48bf
00000140: 6738 273f fcb3 81be b487 3abf be37 3bbf
00000150: ee26 5dbe 6d39 44bf ffa1 0ebf 8579 34c0
00000160: bd5d 42bf f98b d53f 0fd5 a43f e4be 8fbf
00000170: e5d4 e3be fb83 233e ddf4 be3e ac60 48bf
00000180: b868 edbf adc3 b13e fee6 d8bd 2d83 6f3f
00000190: eb52 d63f 9400 7abf 7b08 68bf 60d3 3a3f
000001a0: e555 943f 684a 2cbe 5662 abbf 2c69 4d3f
000001b0: 7674 55bf 8ec4 ab3f 0a17 38bf ce5a d3bf
000001c0: e570 3abf 83ac 1b3f 2ec6 123f 9c3f 83bf
000001d0: 097c 81bf cbbc 21be b35d 3c3e c45d 113f
000001e0: 796d 6f3e 387b 11bf f184 26bf fce1 803e
000001f0: 09b7 a8bf 5ae5 f6bf c681 0840 841f 003e
00000200: 153a 8ebf 4a49 123f 173c a3bf 309e 6bbf
00000210: 876d 923f 8f5e 873f e7f3 373f 7b31 29bf
00000220: f5ff d6be 4ca7 d3bd 2370 96be f2af ecbd
00000230: e64d 1c3f ff7c 893f 6547 d23e 9304 ba3f
00000240: 962b 0abf 7370 d43e 7292 963f b478 85bb
00000250: e8cf 2abf 33d7 1f3f dd51 573e a54d ccbe
00000260: 3520 083e 4d42 0d40 a566 a23e acfc 763f
00000270: 7cf1 99bf 583e 833f 2bec 8f3e bf58 dfbf
00000280: 8ac2 143f 2465 bcbe 8637 39be edf1 2040
00000290: f03d ebbe f6c4 053f 2e14 f8be d89d 89bf
000002a0: 0a49 0dbf 874b 1a3f 083c 0d3e 94c3 69be
000002b0: d6a2 53be cfc9 23be f55f 323f 505e e73f
000002c0: e4b0 de3f 7740 893f 1dbc 18bf 57ab d6be
000002d0: 62c2 bc3e c582 66bf a663 93bf 9473 d1bf
000002e0: b9fe 263f 842b 323f 9d5d aabe b388 5b3f
000002f0: 23b0 debf 6704 17bf 294e 14bf 4e3c 40be
00000300: 1312 c6bf db82 933e d794 53bf 6326 59be
00000310: eaf2 b13f 6612 19c0 621f 763f 505d 703f
00000320: 7929 74bf c009 19bf d325 d73f e534 eebe
00000330: 8a93 36be a3f7 0b40 f22e 88bd 97e1 d73e
00000340: b898 a9bf d1ca 733f f18e 573e ced6 ccbe
00000350: 6f3f 7c3f ebb0 f3bf 8b31 15c0 d556 39bf
00000360: 7b85 1440 1613 29be f82f 98bd f760 c93f
00000370: 06b1 6abf ebec 05c0 725c ecbe e788 8bbe
00000380: 7a1d 043f f1fe 653f 7936 023f fce6 dbbf
00000390: ba96 cfbf 91ee a3bf ffdf c53f 5270 15bf
000003a0: cd2e 183e f80b 5bbe 9f50 fa3e 18d2 f0be
000003b0: 1f2e 05c0 5ccc 913f 60f6 243e 86ca ecbd
000003c0: 4965 d23f 7af5 a53d 0bfa 24bf f78e e83e
000003d0: 2acd b2bd befd 703f 6d0c a2bf 9f18 3cbe
000003e0: c331 cabd 0507 f2be 00fb 02bf 49da b2be
000003f0: b70b 8ebf 8bf7 73bf 914b 25bf 8863 f73e
-0.115558736 1.5725217 0.29767743 1.7984807 1.3741335 0.7197531 -0.097294904 -0.8675245
1.6085857 -2.2512393 -0.9319075 -0.0035698058 1.5810103 -1.8214726 0.2011434 -1.0891303
-2.9467227 0.4301008 1.7276337 -0.35853457 0.30346486 -0.2738504 2.1654234 0.3185406
-0.4240743 2.522597 0.6029189 -2.1219757 0.33865437 1.8209063 -0.81139547 -0.11666477
-0.16101621 1.9741429 2.6464543 -1.2502745 -0.86496085 -0.26008582 -1.511851 -0.083457015
-1.5227485 -0.34940857 0.43592688 0.29251197 0.55737466 0.92558515 0.30194387 0.9457856
-0.2186894 -0.46988973 0.20622946 0.15819916 -0.75495815 -0.10306131 0.034334935 -0.63346416
-0.024316153 0.36608887 -0.6717355 0.62283856 -0.6974268 -0.05766709 -0.23710342 -3.465134
-0.7739486 -0.38079852 1.2122719 -0.119295724 0.5952803 -1.4111336 -0.7619081 -0.6598577
-0.07822332 0.5855827 -0.8729889 -0.6237699 0.12226059 -0.15803911 -1.2153152 -0.78442764
0.6532044 -0.2533263 -0.72863317 -0.7313193 -0.21596882 -0.76650125 -0.55715936 -2.819917
-0.75924283 1.6683341 1.287752 -1.123013 -0.44498363 0.15968315 0.3729619 -0.7827251
-1.8547583 0.347196 -0.10590933 0.93559533 1.6744055 -0.9765713 -0.9063794 0.7297878
1.1588713 -0.16825259 -1.3389385 0.80238605 -0.8338083 1.3419359 -0.71910155 -1.6512086
-0.72828513 0.60810107 0.5733365 -1.0253787 -1.0115978 -0.15794675 0.18395118 0.567837
0.23381604 -0.5682864 -0.650466 0.25172412 -1.3180858 -1.9288743 2.1329207 0.12512022
-1.1111475 0.5714308 -1.2752713 -0.9203825 1.1439675 1.0575732 0.7185654 -0.66091126
-0.41992155 -0.10334644 -0.2938243 -0.115569964 0.61056364 1.0741271 0.41070095 1.4532646
-0.53972757 0.41492042 1.1763442 -0.004073227 -0.6672349 0.6243774 0.21027322 -0.39902988
0.13293536 2.2071717 0.31718937 0.96479297 -1.202682 1.0253401 0.2810987 -1.7448958
0.58109343 -0.36795914 -0.18087587 2.514766 -0.45945692 0.52253664 -0.48452896 -1.0751295
-0.55189574 0.60271496 0.13792431 -0.22828513 -0.20667586 -0.15994953 0.6967767 1.8075657
1.7397733 1.0722798 -0.5966204 -0.41927597 0.36867052 -0.9004329 -1.1514785 -1.6363397
0.65232426 0.6959765 -0.33274546 0.8575546 -1.7397503 -0.5899109 -0.5793176 -0.18773004
-1.5474266 0.28810772 -0.82648987 -0.2120605 1.3902256 -2.391748 0.96141636 0.93892384
-0.9537578 -0.597805 1.6808418 -0.4652473 -0.17829719 2.1869895 -0.06649579 0.421643
-1.3249731 0.9523135 0.21050622 -0.40007633 0.9853429 -1.9038366 -2.3311489 -0.7239812
2.320647 -0.16511187 -0.07431024 1.5732716 -0.91676366 -2.0925853 -0.4616428 -0.27252886
0.5160748 0.89842135 0.5086437 -1.7179866 -1.6217873 -1.280718 1.5458983 -0.5837451
0.14861603 -0.21391284 0.48889634 -0.4703529 -2.08094 1.139049 0.1610961 -0.11562066
1.643716 0.081034616 -0.64444035 0.45421574 -0.08730538 0.9413718 -1.2660042 -0.18368767
-0.098727725 -0.4727098 -0.51164246 -0.34932163 -1.1097325 -0.95299596 -0.6456843 0.48318124
